code/models/GUNET_v1.pt (torch, 51071 bytes, 52 tensors)

bias f8 [4]
00000000: 5475 64ab db70 cb3f 33ae 2315 ef9e ac3f
00000010: 2dc6 d064 d3b5 cbbf 8a00 689f d6c9 9c3f
0.21438165539522436 0.055900069551935515 -0.21648638174660687 0.028113702277551535

weight f8 [4, 5]
00000000: 98ef f491 6496 edbf bbd9 d34b 03ae f03f
00000010: 408a e700 c7ba e93f ff26 7528 9f0b e2bf
00000020: 5453 4819 4444 ce3f 7b17 7606 13e4 b33f
00000030: 8eb3 77f9 e591 dc3f ed6d f216 961c ee3f
00000040: 8e50 77c0 95ba c23f f07c 1845 8442 e33f
00000050: 6699 0078 5e5a dc3f f5b0 0f49 1b90 db3f
00000060: cc9f 865a 6126 e23f cf7f 6ab0 343d c7bf
00000070: 12d5 55b0 19cb cebf dd0b 91e1 ba72 d73f
00000080: 306a 952f 5156 f0bf aac5 f5e3 6b36 e83f
00000090: c921 494d 659f d43f f5d7 7974 86c7 d43f
-0.9246085024565103 1.0424836122525523 0.8040499704041579 -0.5639186659038556 0.23645831331728095 0.07769888789888839 0.44640492784565644 0.9409895370658298
0.14631912133939234 0.601869711830572 0.4430156871698244 0.4306705678452681 0.5671850936969292 -0.18155535329878922 -0.2405731307041284 0.3663775637434677
-1.0210735186325444 0.7566432430596042 0.32222874209813007 0.32467805266003263

bias f8 [4]
00000000: 0000 0000 0000 0000 0000 0000 0000 0000
00000010: 0000 0000 0000 0000 0000 0000 0000 0000
0.0 0.0 0.0 0.0

weight f8 [4, 4]
00000000: 0000 00e0 5564 d7bf 0000 00c0 b5e5 e23f
00000010: 0000 0040 4e0d e53f 0000 0080 aed3 d2bf
00000020: 0000 0060 6d48 cdbf 0000 0080 59e8 de3f
00000030: 0000 0000 899e a73f 0000 0080 4035 c73f
00000040: 0000 0080 b13c cabf 0000 0020 6d8c d73f
00000050: 0000 0020 b25e d5bf 0000 0060 5684 de3f
00000060: 0000 0000 cfca 643f 0000 00e0 7dff babf
00000070: 0000 00c0 2826 b6bf 0000 00a0 c49d c2bf
-0.36549898982048035 0.5905407667160034 0.6578742265701294 -0.2941700220108032 -0.22877280414104462 0.4829314947128296 0.046131402254104614 0.18131262063980103
-0.20497721433639526 0.36794593930244446 -0.33390477299690247 0.4768272340297699 0.002538112923502922 -0.1054609939455986 -0.0865197628736496 -0.14543969929218292

bias f8 [4]
00000000: 0000 0000 0000 0000 0000 0000 0000 0000
00000010: 0000 0000 0000 0000 0000 0000 0000 0000
0.0 0.0 0.0 0.0

weight f8 [4, 4]
00000000: 0000 0040 1cc6 e43f 0000 00e0 c740 e33f
00000010: 0000 00c0 02ed dcbf 0000 00c0 debc e0bf
00000020: 0000 00e0 d676 e33f 0000 00c0 2a4d e1bf
00000030: 0000 0080 9141 d1bf 0000 0020 e924 e6bf
00000040: 0000 0040 d1ab e23f 0000 0020 b15a 9dbf
00000050: 0000 00a0 672a d7bf 0000 00c0 92cd dbbf
00000060: 0000 0060 a9be b1bf 0000 0000 40f4 eabf
00000070: 0000 00c0 8822 d4bf 0000 0020 a335 c3bf
0.6491833925247192 0.6016578078269958 -0.45196598768234253 -0.5230554342269897 0.6082567572593689 -0.5406697988510132 -0.2696269750595093 -0.6920056939125061
0.583473801612854 -0.02866627462208271 -0.3619631826877594 -0.43442219495773315 -0.06931551545858383 -0.842315673828125 -0.31460779905319214 -0.15007437765598297

bias f8 [4]
00000000: 0000 0000 0000 0000 0000 0000 0000 0000
00000010: 0000 0000 0000 0000 0000 0000 0000 0000
0.0 0.0 0.0 0.0

weight f8 [4, 4]
00000000: 0000 00c0 5bd8 e6bf 0000 0080 1943 d43f
00000010: 0000 0080 6a9c d83f 0000 00c0 b47a d4bf
00000020: 0000 00c0 6cf9 e8bf 0000 0080 1724 df3f
00000030: 0000 0080 0c55 e7bf 0000 0040 dec7 e6bf
00000040: 0000 0060 2231 e7bf 0000 0060 f06a d63f
00000050: 0000 0000 1a3e d53f 0000 0080 ff97 eabf
00000060: 0000 00a0 4eea e03f 0000 00c0 67b1 e3bf
00000070: 0000 0080 4789 ea3f 0000 0080 8c91 d13f
-0.7139109373092651 0.3165954351425171 0.3845468759536743 -0.3199893832206726 -0.7804473638534546 0.4865778684616089 -0.7291319370269775 -0.7118979692459106
-0.7247478365898132 0.35027703642845154 0.33191537857055664 -0.8310544490814209 0.5286019444465637 -0.6154059171676636 0.8292577266693115 0.27450859546661377

bias f8 [4]
00000000: 0000 0000 0000 0000 0000 0000 0000 0000
00000010: 0000 0000 0000 0000 0000 0000 0000 0000
0.0 0.0 0.0 0.0

weight f8 [4, 4]
00000000: 0000 00a0 a8cd de3f 0000 00e0 adba d7bf
00000010: 0000 00a0 7fb4 e0bf 0000 0040 0d13 e23f
00000020: 0000 0060 081e e7bf 0000 00a0 47ad babf
00000030: 0000 00e0 7d17 e63f 0000 0060 b2db e3bf
00000040: 0000 0000 1286 dabf 0000 0020 872a b33f
00000050: 0000 0040 989b e93f 0000 00c0 6512 e83f
00000060: 0000 0040 350c 603f 0000 0020 2397 c93f
00000070: 0000 0060 6533 de3f 0000 0000 a49e dc3f
0.481302410364151 -0.3707689940929413 -0.5220335125923157 0.5648256540298462 -0.7224161028862 -0.10420653969049454 0.6903676390647888 -0.6205684542655945
-0.41443300247192383 0.07486767321825027 0.8002434968948364 0.7522457838058472 0.001958946231752634 0.19992484152317047 0.4718869626522064 0.44718265533447266

bias f8 [4]
00000000: 0000 0000 0000 0000 0000 0000 0000 0000
00000010: 0000 0000 0000 0000 0000 0000 0000 0000
0.0 0.0 0.0 0.0

weight f8 [4, 4]
00000000: 0000 00a0 1458 d63f 0000 0020 43dd e43f
00000010: 0000 0080 710d e43f 0000 00c0 7520 e13f
00000020: 0000 0080 02dd bc3f 0000 00e0 6076 e7bf
00000030: 0000 0060 4095 d1bf 0000 00c0 1f3b e73f
00000040: 0000 00e0 158b d83f 0000 0020 26d2 ddbf
00000050: 0000 0020 e4c5 a3bf 0000 0080 3171 e83f
00000060: 0000 0040 57e8 bdbf 0000 0020 4b4c d9bf
00000070: 0000 0000 a684 d13f 0000 0000 5eef 9b3f
0.34912601113319397 0.6520095467567444 0.626641035079956 0.5352123975753784 0.11274734139442444 -0.7332004904747009 -0.27473458647727966 0.725967288017273
0.38348910212516785 -0.46595147252082825 -0.03861916437745094 0.763817548751831 -0.11682648956775665 -0.395281583070755 0.27372121810913086 0.027280300855636597

bias f8 [4]
00000000: 0000 0000 0000 0000 0000 0000 0000 0000
00000010: 0000 0000 0000 0000 0000 0000 0000 0000
0.0 0.0 0.0 0.0

weight f8 [4, 4]
00000000: 0000 0060 b3ee e73f 0000 0020 8843 ea3f
00000010: 0000 0000 2404 e1bf 0000 0000 dfe1 dcbf
00000020: 0000 0040 76dd c43f 0000 0080 6f7f 6ebf
00000030: 0000 0000 73e9 d4bf 0000 00c0 127c b5bf
00000040: 0000 00a0 41cb ddbf 0000 0000 5063 e23f
00000050: 0000 0040 b7e5 e1bf 0000 0020 1f16 cabf
00000060: 0000 00a0 8bd1 d33f 0000 00a0 5a84 cebf
00000070: 0000 00a0 4d56 d73f 0000 0060 c17d abbf
0.7478882670402527 0.8207436203956604 -0.5317554473876953 -0.45128607749938965 0.16300848126411438 -0.003722875379025936 -0.3267486095428467 -0.08392445743083954
-0.46553078293800354 0.5746231079101562 -0.5592914819717407 -0.20380009710788727 0.30966463685035706 -0.23841412365436554 0.36464253067970276 -0.05369381234049797

bias f8 [4]
00000000: 0000 0000 0000 0000 0000 0000 0000 0000
00000010: 0000 0000 0000 0000 0000 0000 0000 0000
0.0 0.0 0.0 0.0

weight f8 [4, 4]
00000000: 0000 0020 14c6 e43f 0000 0060 9cc9 df3f
00000010: 0000 00c0 526f e6bf 0000 0000 3313 d4bf
00000020: 0000 00c0 b294 e5bf 0000 0000 0bc4 d53f
00000030: 0000 0020 5023 a9bf 0000 0000 d3b9 d0bf
00000040: 0000 0020 82ed dc3f 0000 00e0 7a0d e03f
00000050: 0000 00c0 ddb7 c53f 0000 00c0 5b46 e6bf
00000060: 0000 00c0 474a e8bf 0000 0080 f67c e53f
00000070: 0000 0060 d966 c93f 0000 0080 e72e e9bf
0.6491795182228088 0.496680349111557 -0.7010892629623413 -0.3136718273162842 -0.6744016408920288 0.3400905132293701 -0.049097541719675064 -0.26134181022644043
0.4519963562488556 0.5016455054283142 0.16967365145683289 -0.6960886716842651 -0.7590674161911011 0.6715042591094971 0.1984512060880661 -0.786975622177124

bias f8 [4]
00000000: 0000 0000 0000 0000 0000 0000 0000 0000
00000010: 0000 0000 0000 0000 0000 0000 0000 0000
0.0 0.0 0.0 0.0

weight f8 [4, 4]
00000000: 0000 00a0 2208 dc3f 0000 0000 7ab7 ccbf
00000010: 0000 00a0 e0fa dd3f 0000 0060 cee2 e63f
00000020: 0000 00c0 9160 eabf 0000 0080 77b1 923f
00000030: 0000 0040 a06b da3f 0000 0080 3b6b b1bf
00000040: 0000 0060 5d4d e13f 0000 00c0 2b75 d8bf
00000050: 0000 0080 63d3 e03f 0000 0080 28f5 e83f
00000060: 0000 0040 0400 b4bf 0000 00c0 22f2 eabf
00000070: 0000 0080 0f37 e3bf 0000 0040 987d e73f
0.4379965364933014 -0.2243492603302002 0.4684373438358307 0.7151862978935242 -0.8242882490158081 0.01825510710477829 0.412818968296051 -0.06804248690605164
0.5406939387321472 -0.3821515440940857 0.5258042812347412 0.7799265384674072 -0.0781252533197403 -0.8420575857162476 -0.6004712581634521 0.7340813875198364

bias f8 [4]
00000000: 0000 0000 0000 0000 0000 0000 0000 0000
00000010: 0000 0000 0000 0000 0000 0000 0000 0000
0.0 0.0 0.0 0.0

weight f8 [4, 4]
00000000: 0000 0000 c2d0 e6bf 0000 00e0 e83b d5bf
00000010: 0000 0040 a332 e93f 0000 0000 e253 d93f
00000020: 0000 00a0 6171 d4bf 0000 0000 db76 d83f
00000030: 0000 0020 c2f9 e3bf 0000 0080 f570 e93f
00000040: 0000 00e0 6641 98bf 0000 0040 02dd c43f
00000050: 0000 0020 0c3c c1bf 0000 00e0 a2f8 bbbf
00000060: 0000 0020 e61d dbbf 0000 0000 2416 e9bf
00000070: 0000 00a0 7612 e3bf 0000 0060 627a c13f
-0.7129831314086914 -0.3317815959453583 0.7874313592910767 0.39574480056762695 -0.3194202482700348 0.38225436210632324 -0.6242380738258362 0.7950389385223389
-0.023686988279223442 0.1629946529865265 -0.1346450001001358 -0.10926263779401779 -0.42369988560676575 -0.7839527130126953 -0.5960038304328918 0.13654737174510956

bias f8 [4]
00000000: 0000 0000 0000 0000 0000 0000 0000 0000
00000010: 0000 0000 0000 0000 0000 0000 0000 0000
0.0 0.0 0.0 0.0

weight f8 [4, 4]
00000000: 0000 0000 de2b ac3f 0000 0060 abe9 d53f
00000010: 0000 0040 dd44 e23f 0000 00a0 ba6f a7bf
00000020: 0000 00e0 f9e6 de3f 0000 00e0 47cd e5bf
00000030: 0000 00e0 832f d9bf 0000 00e0 e259 ea3f
00000040: 0000 00e0 1463 ddbf 0000 0060 dccf cebf
00000050: 0000 0080 0f4e e5bf 0000 00c0 e7a8 e7bf
00000060: 0000 00a0 e01c dc3f 0000 0060 8c8e e63f
00000070: 0000 00a0 85df e2bf 0000 0000 3b8d ea3f
0.05502218008041382 0.34238705039024353 0.5709062814712524 -0.045774299651384354 0.482847660779953 -0.6813086867332458 -0.393525093793869 0.8234724402427673
-0.45917245745658875 -0.24071840941905975 -0.6657788753509521 -0.7393683195114136 0.4392625391483307 0.7049009203910828 -0.5897853970527649 0.829740047454834

weight f8 [1, 4]
00000000: 0000 0000 d0cc 9fbf 0000 0080 6794 cdbf
00000010: 0000 0000 2481 d73f 0000 0000 4ac4 c6bf
-0.03105473518371582 -0.2310914397239685 0.36725711822509766 -0.17786526679992676

weight f8 [1, 4]
00000000: 0000 00c0 25c0 d33f 0000 0080 55da c8bf
00000010: 0000 0080 3617 ddbf 0000 0080 d9c4 c23f
0.3086027503013611 -0.1941630244255066 -0.45454180240631104 0.1466323733329773

weight f8 [1, 4]
00000000: 0000 0000 287d b63f 0000 0040 f29b d73f
00000010: 0000 00c0 690d df3f 0000 0000 0ee9 c0bf
0.08784723281860352 0.36889320611953735 0.48519366979599 -0.1321122646331787

weight f8 [1, 4]
00000000: 0000 0000 e464 bfbf 0000 0000 ae1e c0bf
00000010: 0000 00c0 c1fa d83f 0000 0080 f2c4 c7bf
-0.12263321876525879 -0.12593626976013184 0.3903049826622009 -0.18569785356521606

weight f8 [1, 4]
00000000: 0000 00c0 d1d9 d03f 0000 0080 765b c0bf
00000010: 0000 0000 4286 cf3f 0000 0080 e009 cb3f
0.26329463720321655 -0.12779122591018677 0.24628472328186035 0.21123892068862915

weight f8 [1, 4]
00000000: 0000 0040 2acc d73f 0000 0000 7f40 ca3f
00000010: 0000 00c0 f884 d1bf 0000 00c0 5eb0 d63f
0.37183624505996704 0.20509326457977295 -0.2737409472465515 0.3545147776603699

weight f8 [1, 4]
00000000: 0000 0040 b3fc d83f 0000 0000 4ab2 ba3f
00000010: 0000 0080 832c c23f 0000 0000 8043 4d3f
0.39042359590530396 0.10428297519683838 0.14198344945907593 0.0008930563926696777

weight f8 [1, 4]
00000000: 0000 0000 4a89 b9bf 0000 0040 2688 ddbf
00000010: 0000 0000 7f08 cc3f 0000 0040 942d de3f
-0.09975111484527588 -0.46143490076065063 0.21900928020477295 0.4715319275856018

weight f8 [1, 4]
00000000: 0000 0000 2a9a cbbf 0000 0040 d36f d8bf
00000010: 0000 0080 70be d0bf 0000 0000 aaea aabf
-0.21564221382141113 -0.3818252682685852 -0.2616235017776489 -0.05257159471511841

weight f8 [1, 4]
00000000: 0000 00c0 27ce d93f 0000 0080 9217 d6bf
00000010: 0000 0040 5ca9 d8bf 0000 0040 3c04 d43f
0.4032077193260193 -0.3451887369155884 -0.3853369355201721 0.31275850534439087

bias f8 [4]
00000000: 0000 0000 0000 0000 0000 0000 0000 0000
00000010: 0000 0000 0000 0000 0000 0000 0000 0000
0.0 0.0 0.0 0.0

weight f8 [4, 4]
00000000: 0000 00c0 403b e33f 0000 0000 40f2 dfbf
00000010: 0000 0000 087b d43f 0000 0020 2abd 9bbf
00000020: 0000 0040 2d9c eabf 0000 00c0 d187 d0bf
00000030: 0000 0020 17db e8bf 0000 00c0 f80a 8c3f
00000040: 0000 0000 f551 e03f 0000 0080 68c9 cf3f
00000050: 0000 0000 afa8 e4bf 0000 0000 db65 e1bf
00000060: 0000 0040 1659 eabf 0000 00c0 40f3 be3f
00000070: 0000 00c0 a775 d1bf 0000 00a0 a810 d43f
0.6009830236434937 -0.4991607666015625 0.3200092315673828 -0.027088792994618416 -0.8315645456314087 -0.25828975439071655 -0.7767444252967834 0.01369280181825161
0.5100045204162598 0.24833399057388306 -0.6455912590026855 -0.5436835289001465 -0.82337486743927 0.1208992451429367 -0.2728061079978943 0.313516765832901

bias f8 [4]
00000000: 0000 0000 0000 0000 0000 0000 0000 0000
00000010: 0000 0000 0000 0000 0000 0000 0000 0000
0.0 0.0 0.0 0.0

weight f8 [4, 4]
00000000: 0000 0000 5b1c b6bf 0000 0080 f274 e73f
00000010: 0000 00a0 ead4 e4bf 0000 0020 9582 c93f
00000020: 0000 0020 6db8 a83f 0000 00a0 250e d5bf
00000030: 0000 0040 eb29 df3f 0000 0060 2770 e2bf
00000040: 0000 00c0 3fa1 dc3f 0000 0060 14d4 e5bf
00000050: 0000 0080 8e63 b33f 0000 0040 48d3 c0bf
00000060: 0000 00e0 e5e2 e2bf 0000 00e0 4d52 e9bf
00000070: 0000 0000 d4c6 dbbf 0000 00c0 2b3d e9bf
-0.08637017011642456 0.7330257892608643 -0.6509907841682434 0.19929756224155426 0.04828206077218056 -0.3289884626865387 0.48693352937698364 -0.5761906504631042
0.4473418593406677 -0.6821386218070984 0.075737863779068 -0.13144782185554504 -0.5901975035667419 -0.7912968993186951 -0.43401050567626953 -0.7887171506881714

bias f8 [4]
00000000: 0000 0000 0000 0000 0000 0000 0000 0000
00000010: 0000 0000 0000 0000 0000 0000 0000 0000
0.0 0.0 0.0 0.0

weight f8 [4, 4]
00000000: 0000 0020 3db0 de3f 0000 0080 9537 643f
00000010: 0000 0000 5e3e d43f 0000 0020 8a3d dfbf
00000020: 0000 00c0 1e61 c6bf 0000 0000 5b93 bd3f
00000030: 0000 0060 0c1f b63f 0000 0000 aba1 e83f
00000040: 0000 0020 8ae6 b1bf 0000 0020 2b1a a73f
00000050: 0000 0060 c7a0 d03f 0000 0020 1699 de3f
00000060: 0000 00e0 4441 dc3f 0000 0040 cb24 a5bf
00000070: 0000 00a0 6d59 ce3f 0000 00a0 438b d53f
0.4795067608356476 0.002467910759150982 0.31630659103393555 -0.4881310760974884 -0.1748388707637787 0.11552971601486206 0.0864112600684166 0.7697348594665527
-0.0699240043759346 0.04512152448296547 0.2598131597042084 0.4780936539173126 0.4414837062358856 -0.0412963405251503 0.237104132771492 0.33662500977516174

bias f8 [4]
00000000: 0000 0000 0000 0000 0000 0000 0000 0000
00000010: 0000 0000 0000 0000 0000 0000 0000 0000
0.0 0.0 0.0 0.0

weight f8 [4, 4]
00000000: 0000 0000 1b3c eb3f 0000 00c0 b05d e4bf
00000010: 0000 00c0 dc24 b93f 0000 0000 c1db e2bf
00000020: 0000 0080 8e6d d23f 0000 0040 ad31 e33f
00000030: 0000 00e0 8b7e 97bf 0000 0080 6d8c c6bf
00000040: 0000 0080 cc15 e73f 0000 0060 d569 c03f
00000050: 0000 00a0 512d e63f 0000 0040 7579 e03f
00000060: 0000 0040 909a b73f 0000 00e0 d878 bd3f
00000070: 0000 0020 77b5 e2bf 0000 0040 4140 ebbf
0.8510870933532715 -0.6364368200302124 0.09821872413158417 -0.5893254280090332 0.287936806678772 0.5998140573501587 -0.02294367365539074 -0.1761605143547058
0.7214109897613525 0.1282297819852829 0.6930320858955383 0.5148264169692993 0.09220220148563385 0.11512523144483566 -0.584651529788971 -0.8515936136245728

bias f8 [4]
00000000: 0000 0000 0000 0000 0000 0000 0000 0000
00000010: 0000 0000 0000 0000 0000 0000 0000 0000
0.0 0.0 0.0 0.0

weight f8 [4, 4]
00000000: 0000 0060 2282 babf 0000 0060 a3e4 e73f
00000010: 0000 00e0 1b37 ce3f 0000 00c0 baa1 a23f
00000020: 0000 0040 ed4f e2bf 0000 00c0 4415 d73f
00000030: 0000 0040 6069 ebbf 0000 0000 d480 e73f
00000040: 0000 0020 9a1f dc3f 0000 0060 3d8a ca3f
00000050: 0000 00a0 bd33 e53f 0000 0000 9b0d de3f
00000060: 0000 00c0 0478 de3f 0000 0080 a4a4 df3f
00000070: 0000 0040 0632 e93f 0000 00c0 f17c eb3f
-0.10354819148778915 0.7466599345207214 0.23605678975582123 0.03639014810323715 -0.5722566843032837 0.36067312955856323 -0.856613278388977 0.7344760894775391
0.43942883610725403 0.20734374225139618 0.6625660061836243 0.46958041191101074 0.47607535123825073 0.4944239854812622 0.7873564958572388 0.8590019941329956

bias f8 [4]
00000000: 0000 0000 0000 0000 0000 0000 0000 0000
00000010: 0000 0000 0000 0000 0000 0000 0000 0000
0.0 0.0 0.0 0.0

weight f8 [4, 4]
00000000: 0000 00e0 54e1 90bf 0000 0020 6767 db3f
00000010: 0000 0000 c64c d73f 0000 0060 b513 e43f
00000020: 0000 0080 572a bebf 0000 00c0 8c31 cabf
00000030: 0000 00c0 349c c8bf 0000 00a0 eb6d d4bf
00000040: 0000 0020 a550 d5bf 0000 0020 8ce4 e83f
00000050: 0000 00c0 4f2d ddbf 0000 0060 b553 d83f
00000060: 0000 0060 fa04 e73f 0000 0060 6014 e43f
00000070: 0000 0020 295e dcbf 0000 00a0 7338 cebf
-0.016484571620821953 0.42818620800971985 0.3640608787536621 0.6274058222770691 -0.11783358454704285 -0.20463714003562927 -0.1922670304775238 -0.3192090094089508
-0.33304718136787415 0.7778988480567932 -0.45589059591293335 0.38010916113853455 0.7193576693534851 0.6274873614311218 -0.44324710965156555 -0.2360977679491043

bias f8 [4]
00000000: 0000 0000 0000 0000 0000 0000 0000 0000
00000010: 0000 0000 0000 0000 0000 0000 0000 0000
0.0 0.0 0.0 0.0

weight f8 [4, 4]
00000000: 0000 00a0 1b08 d03f 0000 00e0 0e78 c7bf
00000010: 0000 0080 b901 b23f 0000 00c0 84db e0bf
00000020: 0000 0060 d0b4 ea3f 0000 0040 116e c3bf
00000030: 0000 00e0 dbee 87bf 0000 00a0 a494 d43f
00000040: 0000 0040 c452 d9bf 0000 0080 d005 e73f
00000050: 0000 00e0 c30f d03f 0000 00a0 195e cebf
00000060: 0000 0020 9939 e0bf 0000 0060 36cb b1bf
00000070: 0000 0060 873c e33f 0000 00c0 04d1 eabf
0.2504948675632477 -0.18335138261318207 0.07033881545066833 -0.5267966985702515 0.8345720171928406 -0.15179648995399475 -0.011686055921018124 0.3215724527835846
-0.3956766724586487 0.7194597721099854 0.2509622275829315 -0.23724670708179474 -0.5070310235023499 -0.06950702518224716 0.6011387705802917 -0.8380149602890015

bias f8 [4]
00000000: 0000 0000 0000 0000 0000 0000 0000 0000
00000010: 0000 0000 0000 0000 0000 0000 0000 0000
0.0 0.0 0.0 0.0

weight f8 [4, 4]
00000000: 0000 00e0 acdb e73f 0000 00a0 dfd8 e13f
00000010: 0000 00a0 7bc2 dcbf 0000 00c0 dbd1 ea3f
00000020: 0000 0060 84c7 bfbf 0000 0000 cd09 e53f
00000030: 0000 0000 d719 ea3f 0000 0080 4b5a e03f
00000040: 0000 0000 2c88 c4bf 0000 0040 dd26 d33f
00000050: 0000 00a0 a0ca dfbf 0000 0040 6518 d5bf
00000060: 0000 0060 290f c2bf 0000 0060 ef9b cf3f
00000070: 0000 00c0 1b7f e5bf 0000 0020 58d8 6abf
0.7455658316612244 0.5577238202095032 -0.44937029480934143 0.8381174802780151 -0.12413813918828964 0.6574463844299316 0.8156542778015137 0.5110223293304443
-0.16040563583374023 0.2992470860481262 -0.4967423975467682 -0.32961398363113403 -0.14108769595623016 0.24694626033306122 -0.6717661619186401 -0.003276989096775651

bias f8 [4]
00000000: 0000 0000 0000 0000 0000 0000 0000 0000
00000010: 0000 0000 0000 0000 0000 0000 0000 0000
0.0 0.0 0.0 0.0

weight f8 [4, 4]
00000000: 0000 0000 1040 e23f 0000 0080 d3a4 9cbf
00000010: 0000 00c0 66e5 b23f 0000 00e0 e014 a2bf
00000020: 0000 00e0 5f4d e5bf 0000 0040 98ba e73f
00000030: 0000 0040 d912 c03f 0000 0080 41e5 c2bf
00000040: 0000 0060 3e7f bb3f 0000 00a0 b9bd de3f
00000050: 0000 0020 0561 eb3f 0000 00a0 4112 dbbf
00000060: 0000 0020 0509 d2bf 0000 0040 2944 b9bf
00000070: 0000 0080 71e7 e43f 0000 00e0 30fa e2bf
0.5703201293945312 -0.027972511947155 0.07381288707256317 -0.03531553968787193 -0.6656951308250427 0.7415276765823364 0.1255752146244049 -0.14762133359909058
0.10741033405065536 0.4803299009799957 0.8555932641029358 -0.42298927903175354 -0.2818005383014679 -0.09869630634784698 0.653252363204956 -0.5930408835411072

bias f8 [5]
00000000: 7d4c 01a2 7afd cb3f c1ca 3294 4504 c73f
00000010: 9f6f 5427 4e5e a73f 73a0 76aa 135c c23f
00000020: dc56 3bb4 4b2d dc3f
0.2186730662384412 0.17981786476373965 0.04564136724567835 0.14343496154220112 0.44026463127862114

weight f8 [5, 4]
00000000: 839d b13b 4d77 f1bf 62bf 24e8 9f83 e33f
00000010: 39c3 5c09 84b3 f03f 4237 b359 2711 dabf
00000020: d8fb 80ec 65e0 b1bf 52bd b73b a48f e03f
00000030: 7da9 a5c3 a042 e13f e8f2 ff61 3d4a efbf
00000040: 60b2 4dd5 903b e63f ab3f e954 2d92 dabf
00000050: 5b73 4d7b 59a2 e93f 519d d666 03b5 eb3f
00000060: 038e f54a 5b9f d0bf 59a7 8d8f 0413 e33f
00000070: 6e30 ff4a 7e8a dcbf 2189 727a b06d cbbf
00000080: f951 0121 d57c 9cbf 2cce 8de3 28d1 c03f
00000090: 3484 402a 861d babf ccac b8ba 1e77 62bf
-1.0916263896741334 0.6098174604467028 1.0438270917622516 -0.40729697952052757 -0.06983029388446427 0.5175343672143902 0.5393832989914668 -0.9778124727305029
0.6947712102970165 -0.4151719407282097 0.8010680588009608 0.865846348625306 -0.2597263557456417 0.5960715106750555 -0.44595296214971014 -0.21428495386960214
-0.02781994832942478 0.1313830481627617 -0.10201300174277678 -0.002254066484757544
