code/models/GUNET_v1.pt (torch, 51071 bytes, 52 tensors)

bias f8 [4]
0	0x0000000000000000	0.0
1	0xbf8125d8908a2b4d	-0.008372966681482597
2	0x0000000000000000	0.0
3	0x0000000000000000	0.0

weight f8 [4, 5]
0	0xbfea1a3e20000000	-0.8157034516334534
1	0x3fd62f1820000000	0.3466244041919708
2	0xbfe39cedc0000000	-0.6129063367843628
3	0xbfe3f90640000000	-0.6241484880447388
4	0xbfe9d036c0000000	-0.8066667318344116
5	0x3fe87fb62e8a6ff9	0.7655898007392344
6	0x3fedb5bdb347723a	0.9284351827187216
7	0x3fc4a2cf83e09a1a	0.16121858538936423
8	0xbfe119e54ff15595	-0.5344111024266335
9	0xbfc820e62ac026ff	-0.1885040005438938
10	0x3fad6663a0000000	0.057421792298555374
11	0xbfb3e1b6e0000000	-0.0776628777384758
12	0xbf969203c0000000	-0.022041376680135727
13	0xbfdfdf3720000000	-0.497998982667923
14	0x3fc1162ac0000000	0.1334889829158783
15	0xbfcc455be0000000	-0.22086666524410248
16	0xbf870c4280000000	-0.011253852397203445
17	0xbfe958b520000000	-0.7920785546302795
18	0x3fc09a9940000000	0.12971797585487366
19	0xbfe75c2980000000	-0.7300002574920654

bias f8 [4]
0	0x3f9f11ed72e928b4	0.03034182561740613
1	0xbfb7d27e2f33a4c1	-0.0930556168783765
2	0x3fa209ad1494863d	0.03523007274840182
3	0x3f89b3ea285b2bab	0.01255019126565123

weight f8 [4, 4]
0	0x3fdd9df0c0000000	0.4627649188041687
1	0x3fe7e450943540e5	0.7466204542816085
2	0xbfc7924080000000	-0.18415075540542603
3	0x3fe0a61bc0000000	0.5202769041061401
4	0xbfced14740000000	-0.2407616674900055
5	0x3fdf203e1e6b914c	0.48634293528291006
6	0x3fe09c26a0000000	0.5190613865852356
7	0xbfe9abc940000000	-0.8022199869155884
8	0xbfe0c3ebe0000000	-0.5239161849021912
9	0xbfd534ad15359a2f	-0.3313400942919626
10	0xbfcce186a0000000	-0.22563250362873077
11	0x3feb73d3a0000000	0.8578889966011047
12	0xbfe734ca80000000	-0.7251942157745361
13	0xbfc1e7f10e884ec1	-0.1398907967528569
14	0xbfe2414a80000000	-0.5704700946807861
15	0xbfe60eb420000000	-0.6892948746681213

bias f8 [4]
0	0xbf7c4b1b0c4e7239	-0.006907563835650659
1	0x0000000000000000	0.0
2	0xbf7c4afe6e4a6f65	-0.0069074572280916945
3	0xbf9cd1b217baee12	-0.028143675516487283

weight f8 [4, 4]
0	0xbfdcd55c60000000	-0.4505225121974945
1	0xbfda4c9e40000000	-0.4109264016151428
2	0xbfc46e1e0e961000	-0.15961051666465664
3	0x3feb6abc98745297	0.8567793824791633
4	0xbfe10944c0000000	-0.5323814153671265
5	0xbfd69c6d60000000	-0.35329756140708923
6	0xbfe1abc6e0000000	-0.5522188544273376
7	0x3fbc06d820000000	0.10947943478822708
8	0xbfe81c6240000000	-0.7534648180007935
9	0x3fbc3bc980000000	0.11028727889060974
10	0x3fd0a392356b7e73	0.25998358933245597
11	0x3fc9ea9a724a678e	0.2024720247325686
12	0x3fb01fe529344ff9	0.0629866815182253
13	0x3feb4cf204821e63	0.8531427467396039
14	0xbfa314719bebe67a	-0.03726534870470473
15	0xbfe78973e22efb69	-0.7355288903853366

bias f8 [4]
0	0x0000000000000000	0.0
1	0xbf9c67fcced79138	-0.027740430950772693
2	0xbf8a700a56805b7d	-0.012909012570202933
3	0xbf9cb1a6778703cf	-0.02802143196618428

weight f8 [4, 4]
0	0x3fd88d0380000000	0.38360679149627686
1	0x3fe90e5be0000000	0.7830027937889099
2	0x3fd9d573c0000000	0.403653085231781
3	0xbfc4e6c740000000	-0.163292795419693
4	0x3fe50d0700000000	0.6578402519226074
5	0x3fe7045be0000000	0.7192820906639099
6	0x3feb0d5680000000	0.8453781604766846
7	0x3feb41f73f40d25d	0.8518024669088607
8	0x3fdbd6d4a0000000	0.43498721718788147
9	0x3fe11347c0000000	0.5336035490036011
10	0xbfe3830a00000000	-0.609745979309082
11	0x3fe1fab8256963db	0.5618553858467935
12	0x3fe8c2cb40000000	0.7737785577774048
13	0x3fe7c68060000000	0.7429811358451843
14	0x3feba65d20000000	0.8640580773353577
15	0x3fd12766db7c37f3	0.26802989420036666

bias f8 [4]
0	0xbf9cd62aea23bc17	-0.02816073469233168
1	0xbf9cd84fbba9881a	-0.02816891272448894
2	0x0000000000000000	0.0
3	0x0000000000000000	0.0

weight f8 [4, 4]
0	0x3feb77cbe0000000	0.8583735823631287
1	0x3fcff15b60000000	0.2495531290769577
2	0x3fe455c0e4fe6cc7	0.6354679558311539
3	0x3f9784e800000000	0.022967934608459473
4	0x3fe24cfd40000000	0.5718981027603149
5	0xbfdcc80bc0000000	-0.44970983266830444
6	0x3fca20115f5a3a15	0.2041036334598664
7	0x3fdd9c33a0000000	0.4626587927341461
8	0x3fe2e02fc0000000	0.5898665189743042
9	0x3fb1e13de0000000	0.06984316557645798
10	0xbfcb5b33c0000000	-0.21372076869010925
11	0xbfe3fc58c0000000	-0.6245540380477905
12	0xbfe934d260000000	-0.787697970867157
13	0x3fe1023ae0000000	0.5315222144126892
14	0xbfd7443700000000	-0.3635385036468506
15	0x3fe8ac03c0000000	0.7709978818893433

bias f8 [4]
0	0x0000000000000000	0.0
1	0x0000000000000000	0.0
2	0x0000000000000000	0.0
3	0x3f9159c45ce496ca	0.01694399659131455

weight f8 [4, 4]
0	0xbfabebafc0000000	-0.05453252047300339
1	0xbfe35cb820000000	-0.6050682663917542
2	0xbfccb12140000000	-0.22415557503700256
3	0xbfb6714600000000	-0.08766591548919678
4	0xbfbee4c0e0000000	-0.12067800015211105
5	0x3fbcf9bcc0000000	0.11318568885326385
6	0x3fe233d920000000	0.5688291192054749
7	0x3feba10620000000	0.863406240940094
8	0xbfe2bbf240000000	-0.5854426622390747
9	0x3fe1266480000000	0.5359365940093994
10	0x3fb5d57320000000	0.08528823405504227
11	0x3fe8c86500000000	0.7744622230529785
12	0x3fc6abb920844dad	0.1771155747197616
13	0x3fd7c99c20155931	0.3716802895845773
14	0x3fdda55c60000000	0.4632178246974945
15	0x3fca0eda00000000	0.20357823371887207

bias f8 [4]
0	0x0000000000000000	0.0
1	0x0000000000000000	0.0
2	0xbf60eaead9d2a2e0	-0.0020651423388538953
3	0xbf79ac223bcee385	-0.006267675137615285

weight f8 [4, 4]
0	0xbfd01f1380000000	-0.2518967390060425
1	0x3fadfb6840000000	0.05855870991945267
2	0x3f98819f80000000	0.023931972682476044
3	0xbfe6da9560000000	-0.7141825556755066
4	0xbfdd6277a0000000	-0.459134966135025
5	0x3fbfdf0900000000	0.12449699640274048
6	0xbfc37403c0000000	-0.15197798609733582
7	0xbfd4517e80000000	-0.31747400760650635
8	0xbfe50d8d40000000	-0.6579042673110962
9	0x3fe85afe00000000	0.7611074447631836
10	0x3fe0922860000000	0.5178415179252625
11	0x3fea135bfc7f9c48	0.8148631984339625
12	0xbfda42dd80000000	-0.410331130027771
13	0xbf8d653820000000	-0.014353216625750065
14	0x3fa2ab9820000000	0.03646541014313698
15	0x3fe251a7faa89342	0.5724677940057534

bias f8 [4]
0	0xbf9a3ea20cd118a7	-0.025629550964617078
1	0x3f8ab336d6abe4e6	0.01303713648438749
2	0x0000000000000000	0.0
3	0x0000000000000000	0.0

weight f8 [4, 4]
0	0xbfe260e920000000	-0.5743299126625061
1	0xbfd69fe820000000	-0.35350993275642395
2	0xbf96e96d80000000	-0.02237483114004135
3	0xbfe03b4760000000	-0.5072361826896667
4	0x3f9136be40000000	0.01681039109826088
5	0xbfc5d3cf20000000	-0.1705264002084732
6	0x3fb75e00d065ab20	0.0912781246931158
7	0xbfe60892934b47b3	-0.6885464550816692
8	0xbfe90973c0000000	-0.782403826713562
9	0xbfdced4dc0000000	-0.45198386907577515
10	0x3fe2236700000000	0.5668215751647949
11	0x3fe49d5d00000000	0.6442093849182129
12	0x3fc4c9d740000000	0.1624096930027008
13	0xbfcbace120000000	-0.21621336042881012
14	0x3fe67216e0000000	0.7014269232749939
15	0xbfe5072840000000	-0.6571236848831177

bias f8 [4]
0	0x3f9908bc32099774	0.02444738440899337
1	0x3f9998bfbea50708	0.0249967537031415
2	0x3f74013aae8bbd87	0.0048839847811302855
3	0x0000000000000000	0.0

weight f8 [4, 4]
0	0xbfd5775480000000	-0.3354083299636841
1	0xbfd80a12b142f31b	-0.3756148081845809
2	0xbfd72c7b00000000	-0.3620898723602295
3	0xbfe0b62820000000	-0.5222359299659729
4	0x3fe8a13d00000000	0.7696824073791504
5	0xbfe8f6e8f19544d9	-0.7801403730792585
6	0xbfc08a7d20000000	-0.12922634184360504
7	0x3fea379e40000000	0.8192893266677856
8	0xbfda6b5f60000000	-0.4128035008907318
9	0xbfdea2aece71187e	-0.4786793724091537
10	0xbfe4ef4bc0000000	-0.6542109251022339
11	0x3fd5ddb520000000	0.34165695309638977
12	0xbfb08fbe00000000	-0.06469333171844482
13	0x3fb11ade40000000	0.06681622564792633
14	0xbfd8203dc0000000	-0.3769678473472595
15	0x3fdfda8680000000	0.49771273136138916

bias f8 [4]
0	0xbf5ef7e28a00680a	-0.0018901550574867997
1	0x3f97f646262ffc52	0.023400398331429102
2	0x3f9a64cb9e4b83bd	0.025775128876265308
3	0x3f96a58b50f17467	0.022115876021747385

weight f8 [4, 4]
0	0xbfd87ba769140405	-0.382547237983147
1	0x3f93b5a8ad725972	0.019247661196084072
2	0xbfc12c3b5ae7bfad	-0.13416234911664784
3	0xbfcfb68e20000000	-0.2477586418390274
4	0xbfcf46646f99ab62	-0.2443357033656311
5	0xbfc27e4e198b4e05	-0.14447952506326103
6	0x3fd9fc3b0cfe189d	0.4060199381714343
7	0xbfe2046a40000000	-0.5630389451980591
8	0x3fe6355fbb07c71f	0.6940153744637633
9	0x3fcca48e897706db	0.22377187454372102
10	0x3fbb3d335ab3131b	0.1064025970873214
11	0x3fe3bd03c0000000	0.6168230772018433
12	0xbfe48aff04657ece	-0.6419673047893981
13	0x3fdcc9d29b543549	0.44981827896920784
14	0x3fc530fa497502d0	0.1655571802785034
15	0xbfe0945260000000	-0.518105685710907

bias f8 [4]
0	0xbf593aa27ad2619c	-0.0015398585049180907
1	0xbf9787c3d7f8f36b	-0.022978839928544142
2	0x0000000000000000	0.0
3	0x3f96ad325b295527	0.02214506799130791

weight f8 [4, 4]
0	0x3fe3fc0b800174d6	0.624517202387916
1	0x3fe316fcecbd8189	0.59655615080196
2	0xbfeb1efb33616f69	-0.847531891205546
3	0x3fd7cf16a0005e74	0.37201467156544443
4	0x3fe72b0de06f19f1	0.7240056403614387
5	0x3fdf2d5637958776	0.4871421377957782
6	0xbfe51cc79d6d2fc1	-0.6597631525742075
7	0x3fc900eea0384b9d	0.19534094641911973
8	0xbfe60f62a0000000	-0.6893780827522278
9	0xbfcd457a40000000	-0.22868278622627258
10	0x3fe23a6000000000	0.5696258544921875
11	0xbfc06a8de0000000	-0.12825177609920502
12	0x3f955fe6747619d7	0.02087364278625067
13	0xbfe601ce876db407	-0.687720551022381
14	0xbfd3c29dff89c295	-0.30875349001784375
15	0x3fbcb8951fa27403	0.11219150564507178

weight f8 [1, 4]
0	0x3fd475e8340f6716	0.31969647487641006
1	0x3fc05fee126de79e	0.12792755031460684
2	0x3fdaa482bf876c1f	0.4162909384155586
3	0x3fd9bb533d0fd6d2	0.40205841982911494

weight f8 [1, 4]
0	0x3fd92aeb6c3b907e	0.39324460572812103
1	0xbf6ed6ea737c9ba1	-0.0037645892260970847
2	0x3fc98b999af50d58	0.19957275453826173
3	0xbf881f123877dbc5	-0.011778013561508769

weight f8 [1, 4]
0	0x3fbb7debfc643fb7	0.10739016448883275
1	0xbfdae4c1bc785a39	-0.4202122059372502
2	0xbfd844573cd09c03	-0.37917118967965296
3	0x3fd3e2a748f8fed5	0.31070882917627546

weight f8 [1, 4]
0	0xbfd23b3bee17584f	-0.2848653626546182
1	0xbfdb4f27774beb18	-0.42670618677191063
2	0x3fb130b6fb6bcbf3	0.06714957845888118
3	0x3fcde3228d315989	0.2334941090982279

weight f8 [1, 4]
0	0x3fd5529b8026729d	0.33316695704142224
1	0x3fbccc8e0030c00d	0.11249625687264615
2	0x3fd996f03fee4f87	0.3998375534367757
3	0xbfd9a70b7fee4469	-0.4008206128428982

weight f8 [1, 4]
0	0xbfd1cbebeea9f15c	-0.27807138735785997
1	0xbfd5959b56f8aebd	-0.3372562741594541
2	0xbfaf3493cd8a420b	-0.060948008385029416
3	0x3fb31ba14a5d11f4	0.07464035096661076

weight f8 [1, 4]
0	0xbfd19acdc4f9d9bc	-0.27507347331939136
1	0x3fd4532e6ec45d6b	0.3175769883832433
2	0xbfcd4a1112c344c1	-0.228822836076267
3	0x3fc9140933cbb566	0.19592394856537537

weight f8 [1, 4]
0	0xbfd1977b9b283314	-0.2748707785802236
1	0xbfc9533f92737576	-0.19785303736618304
2	0xbfdcbd684fcc008f	-0.44906051438011557
3	0x3f793a68f6869873	0.006159219752964617

weight f8 [1, 4]
0	0xbfd1bdd7597ee539	-0.27721198787510876
1	0xbfb357df307cda21	-0.0755595677736456
2	0x3fd89bdcb6ab0a7c	0.3845130714291043
3	0x3fc58ef2b8440eba	0.16842493054729407

weight f8 [1, 4]
0	0x3fd8cf19dd105beb	0.3876404436900304
1	0xbfce251828189734	-0.23550703008475582
2	0x3fc3fe723857ab68	0.15620258093926087
3	0x3fdf59924ded21a9	0.4898420105933164

bias f8 [4]
0	0x0000000000000000	0.0
1	0x0000000000000000	0.0
2	0xbf9622535f7058a3	-0.021615317058682703
3	0x3f9a047b461393fe	0.02540772071087715

weight f8 [4, 4]
0	0x3fbf86e3c0000000	0.1231520026922226
1	0xbfe9634ec0000000	-0.7933725118637085
2	0xbfc23c9200000000	-0.14247345924377441
3	0xbfd61e3280000000	-0.34559309482574463
4	0xbfd73feba0000000	-0.3632763922214508
5	0xbfe8d48880000000	-0.7759439945220947
6	0x3fbdd8abe0000000	0.11658739298582077
7	0x3fe5179040000000	0.6591264009475708
8	0xbfd2851b8e538c39	-0.28937424563463626
9	0x3fe1379b94d4ed26	0.5380380541677467
10	0xbfd17cf4bee46918	-0.2732517112905426
11	0xbfc7fa2fdd213af1	-0.18732260033944884
12	0x3fc650519ba89e51	0.17432613468666827
13	0x3fdd0b0991c8c43c	0.45379866825811965
14	0x3fd6a6acdcf8819d	0.35392304972813254
15	0xbfe0d881caccd4a2	-0.5264290772380671

bias f8 [4]
0	0x0000000000000000	0.0
1	0x3f993a7159402bfb	0.024637003967693954
2	0xbf9b25237a5c4f32	-0.02650885996179326
3	0xbf9c0b8e1b0a8d5b	-0.02738782920881753

weight f8 [4, 4]
0	0xbfdb90f6a0000000	-0.4307228624820709
1	0x3fe1aa9360000000	0.5520722270011902
2	0xbfe936dd40000000	-0.7879472970962524
3	0xbfc67aabc0000000	-0.17561861872673035
4	0x3feb080573a5b47d	0.844729162095646
5	0x3fdc9e71c8080972	0.44717068228069146
6	0x3fce3774a33dd8c3	0.23606737108975126
7	0x3fdaaa3702c81c58	0.4166390921749943
8	0x3fe444dba0000000	0.6334055066108704
9	0xbfe6dc7b00000000	-0.714414119720459
10	0x3feb669620000000	0.8562727570533752
11	0xbfeaf9dae0000000	-0.8429998755455017
12	0xbfc59c2660000000	-0.1688278168439865
13	0x3fa03bbb20000000	0.03170571103692055
14	0x3fd4466b80000000	0.3167980909347534
15	0xbfc4eae380000000	-0.1634182333946228

bias f8 [4]
0	0x3fa5dc1c269f8a0d	0.04269493075823414
1	0x3f699990c71d8d1c	0.0031249835673620285
2	0x0000000000000000	0.0
3	0x3f8a742eaadb4e86	0.012916912640697175

weight f8 [4, 4]
0	0x3feb97e0a0000000	0.8622897267341614
1	0x3fe0e45b0b8fa28e	0.5278754449655751
2	0xbfe9fe6340000000	-0.8123031854629517
3	0xbfeb2d51a0000000	-0.8492820858955383
4	0x3fa9cadca0000000	0.050375837832689285
5	0x3fd518c61e652292	0.3296370789362665
6	0xbfe538e6c0000000	-0.6631959676742554
7	0x3fac86b100000000	0.05571511387825012
8	0x3fe0fa25c0000000	0.5305355787277222
9	0xbfe1a9b9a0000000	-0.5519683957099915
10	0xbfde6e6080000000	-0.4754868745803833
11	0xbfe8f6ffa0000000	-0.7801511883735657
12	0xbfd12a94e0000000	-0.26822397112846375
13	0x3fe816180ade753a	0.7526970112118427
14	0x3fe3fa95e0000000	0.6243390440940857
15	0xbfce342c20000000	-0.23596717417240143

bias f8 [4]
0	0xbf9814ac204e602e	-0.023516358825503562
1	0x3f9e63397b9972bb	0.02967538658991729
2	0x0000000000000000	0.0
3	0xbf7fb0ba7edc9fef	-0.007736900804765397

weight f8 [4, 4]
0	0xbfe65b11b7ac4f7a	-0.6986168467869753
1	0x3fea6bbffe4abc8d	0.8256530729903645
2	0xbfe3e41141a219fd	-0.6215902597330679
3	0x3fc31cf3d329e810	0.14932105837561993
4	0x3fd639abc3517be8	0.3472699553876155
5	0xbfd88aa6e9bc94f4	-0.3834626467308475
6	0x3fe3732cd7baf8ff	0.607809468601573
7	0x3fb8cad108915f3a	0.09684473475624325
8	0xbfc68ec4e0000000	-0.1762319654226303
9	0xbfe40387a0000000	-0.6254308819770813
10	0xbfdc45d4c0000000	-0.44176214933395386
11	0x3fd51e3f80000000	0.32997119426727295
12	0xbfc4b519a7ba9591	-0.1617767399776935
13	0x3fe50afa9783f530	0.6575901946340874
14	0x3fe638d9aaaf899a	0.6944397290902089
15	0x3fd76d7d04fc768c	0.3660576389973833

bias f8 [4]
0	0xbf9ccec7308e4c98	-0.02813254579411914
1	0x0000000000000000	0.0
2	0x3f93492fa63e94bc	0.018833870431667718
3	0x0000000000000000	0.0

weight f8 [4, 4]
0	0x3fe3f25c20000000	0.6233349442481995
1	0xbfe6a1a900000000	-0.7072339057922363
2	0x3fe6e71c00000000	0.7157115936279297
3	0x3fcafa257fda0543	0.21075886481052394
4	0xbfe2202920000000	-0.5664258599281311
5	0xbfe9a47040000000	-0.8013230562210083
6	0xbfdf106960000000	-0.4853766858577728
7	0xbfe277fce0000000	-0.5771469473838806
8	0x3fc29445f5742fc8	0.14514994130183667
9	0xbfa5006bfd7537a7	-0.041018843354876204
10	0x3fdd737840000000	0.46017271280288696
11	0x3fe9d3a4aa36ac8b	0.8070853542789264
12	0xbfddd112c0000000	-0.46588581800460815
13	0xbfe869a1c0000000	-0.7628945112228394
14	0xbfe87617c0000000	-0.7644156217575073
15	0xbfe020bf80000000	-0.5039975643157959

bias f8 [4]
0	0xbf9cd8ae34ef34b6	-0.028170320492610222
1	0x3f9caedb7026e9c5	0.028010777206626054
2	0xbf9cd28955d7d8f1	-0.028146882881594008
3	0x3f9cb7582f0a6b86	0.028043153639923733

weight f8 [4, 4]
0	0x3fd18341be832724	0.2736362801048122
1	0x3fe70c37560039ea	0.72024122998283
2	0xbfda42328039a691	-0.41029036066047647
3	0x3fe36ca6a0000000	0.6070130467414856
4	0xbfc828f180000000	-0.1887494921684265
5	0xbfca791e60000000	-0.2068212479352951
6	0x3fbdbde8b2877997	0.11617903097746872
7	0x3fe5e2cb60000000	0.6839348673820496
8	0x3fb08d9200000000	0.06466019153594971
9	0xbfe3193620000000	-0.5968275666236877
10	0x3fe1afaefaad9d21	0.5526957412775212
11	0xbfe5ba30a0000000	-0.6789782643318176
12	0xbfe11e0fc0000000	-0.5349196195602417
13	0xbfa627a400000000	-0.04327118396759033
14	0x3fbfd03c94248d90	0.12427118889586652
15	0x3fd8dd3e80000000	0.38850367069244385

bias f8 [4]
0	0xbf8d33edbe746892	-0.014259202360836807
1	0x3f9a464a5ca410b6	0.025658761886931024
2	0xbf9cd7cfe9218df6	-0.028167008022490912
3	0x0000000000000000	0.0

weight f8 [4, 4]
0	0x3fea630acc00462a	0.8245901092906867
1	0xbfc01c5b0fafbe0b	-0.1258653475374419
2	0x3fe6ef299f6ec7ad	0.7166946519775955
3	0xbfd57655f67799d8	-0.3353476435571827
4	0xbfdecd882baa3ed7	-0.4812946726242279
5	0xbfd4ed955b3495bd	-0.32700094134119323
6	0x3fc5b6ed55fc6b49	0.1696449918607306
7	0x3fcc59351cc57add	0.22147239594320114
8	0x3fea7f2768e5f678	0.8280217217249648
9	0xbfe488ea20000000	-0.6417132019996643
10	0x3fc7aa4c9141dca9	0.18488461582794471
11	0xbfd3427cc0000000	-0.3009330630302429
12	0xbfe58a4340000000	-0.6731277704238892
13	0xbfdb7f0d00000000	-0.4296295642852783
14	0xbfe8785f00000000	-0.7646937370300293
15	0x3fa9cf18e0000000	0.050408151000738144

bias f8 [4]
0	0xbf88c3793697dd98	-0.01209158609252263
1	0xbfa1eb00f8e0d6e9	-0.03499606168808873
2	0xbf9cdbb5b2c638c2	-0.028181876217382003
3	0xbf9cd3ea2ae9123e	-0.028152140492482262

weight f8 [4, 4]
0	0x3fd3e751d515230d	0.3109936314472613
1	0x3fb333c6ae3e2a5d	0.0750087905309242
2	0x3fce1e89c55fe5eb	0.23530695092612972
3	0xbfe1795960000000	-0.5460631251335144
4	0x3fe4bacc76bac797	0.6478025740564018
5	0xbfe040a55ee7a4da	-0.5078913549051791
6	0x3fbec08b6a5c5570	0.12012549730964905
7	0x3fe3e2efa0000000	0.6214521527290344
8	0xbfe86cb990790b90	-0.7632720777258886
9	0x3fc13540a14a479e	0.1344376361417376
10	0xbfdfbc5240000000	-0.4958692193031311
11	0xbfe55b9ec0000000	-0.6674340963363647
12	0xbfcdd7457edfb006	-0.23313206381806156
13	0xbfe8860900000000	-0.7663617134094238
14	0x3f832b1dc0000000	0.009359581395983696
15	0x3fe17d22f7ff70fc	0.5465254634578112

bias f8 [4]
0	0x3f716c254978a183	0.004253526356059803
1	0xbfa547f246f60d56	-0.04156453243470064
2	0xbfaf641c9df396bc	-0.06131066730612875
3	0x3f90186feb5f6f68	0.01571822046376728

weight f8 [4, 4]
0	0xbfca2894ff447cc4	-0.20436346496805957
1	0x3fe343798d008572	0.6019866708704014
2	0x3fd23f1559f4a158	0.28510030541157994
3	0x3fe6a92b1aad9afb	0.7081504365022221
4	0x3fc497991a002fa1	0.16087640542570816
5	0x3fea70c6afc8aa4c	0.826266616180257
6	0xbfbad3857ff4d54b	-0.10479006170210885
7	0xbfd9e27d601e1182	-0.404448837151243
8	0x3fb624436a4aace3	0.086490834665415
9	0x3fe699e67095f86b	0.7062866400663216
10	0xbfcd70d037d2cf3e	-0.23000529027705768
11	0x3fe205cf72b2f017	0.5632092704977393
12	0xbfe208f36596f9f1	-0.5635926231551008
13	0xbfb4454c6fbe4514	-0.07918241241556628
14	0xbf9f70d14ec6a27a	-0.03070380252180136
15	0x3fe21754ad0da605	0.5653479938457059

bias f8 [5]
0	0x3fbc5ca2679d3966	0.1107884886707545
1	0x3f9f5899b4e04ee2	0.03061142126541839
2	0x3fda9d8fc343abd4	0.41586679524215
3	0x3fe017ff228786e6	0.5029292749788652
4	0x3fe1540a64d5da00	0.5415088624420719

weight f8 [5, 4]
0	0xbfbc17d72ee26fab	-0.10973877806321634
1	0x3fe6e3fc374cac58	0.7153302269047215
2	0xbfe07f105eebfa79	-0.5155107358876442
3	0xbfd0913dd036679d	-0.258864835102594
4	0xbfeb19ba4f4ac907	-0.846890597217027
5	0x3feb90725e836523	0.8613826604807041
6	0xbfe591bf4c4c0632	-0.674041413323897
7	0x3fe295837ceba922	0.5807511749128802
8	0x3fe1b63d6b6a1d13	0.5534960840167592
9	0x3fc383831401ad2f	0.15245092846758143
10	0x3fd0d64aa4ef8fdf	0.2630793200207772
11	0x3fbb88b6ca47704c	0.10755484045461222
12	0x3fca281e56824afa	0.2043493196875586
13	0x3f00fcfd1f04c81b	3.240249123094581e-05
14	0xbfa86b23e8f2b766	-0.04769241541485662
15	0x3fe68c233fb3b2c8	0.7046066517046592
16	0x3fe0b387a5ebc511	0.521915268005758
17	0x3f9199491222fac2	0.017186300022099095
18	0x3f7fdd453084c079	0.007779379149994375
19	0x3fe0c347c3c745af	0.5238379310414326
