code/models/InterGVAE_v1.pt (torch, 36499 bytes, 16 tensors)

bias f4 [4]
0.6839887 0.5327368 -0.09764652 0.677387
00000000: e219 2f3f 7061 083f e6fa c7bd 3c69 2d3f

weight f4 [4, 3]
-1.2677876 0.093559146 -0.63139904 -0.75199884 0.76627123 -1.6948953 0.15044549 0.4307765
0.23909968 -0.2166888 0.46719554 -0.08949628
00000000: dd46 a2bf f09b bf3d 5ea3 21bf ff82 40bf
00000010: 5a2a 443f 54f2 d8bf 620e 1a3e bd8e dc3e
00000020: 8cd6 743e abe3 5dbe 4134 ef3e d349 b7bd

bias f4 [2]
1.2421318 0.3531421
00000000: 2dfe 9e3f 0bcf b43e

weight f4 [2, 4]
1.1204513 0.19970779 -2.2488837 0.44173235 -0.709272 -1.0803083 1.1861172 -1.4900608
00000000: f36a 8f3f 3380 4c3e b6ed 0fc0 be2a e23e
00000010: da92 35bf 8b47 8abf b0d2 973f 50ba bebf

weight f4 [1, 2]
0.17905506 -0.41870987
00000000: 365a 373e 2461 d6be

weight f4 [1, 2]
0.040650044 0.5049353
00000000: a980 263d 7143 013f

bias f4 [2]
0.05099034 -0.3739484
00000000: 3fdb 503d 2a76 bfbe

weight f4 [2, 2]
-1.5861781 1.2404895 1.8756715 1.439298
00000000: e207 cbbf 5cc8 9e3f 0116 f03f eb3a b83f

bias f4 [2]
-2.5312366 -2.6574214
00000000: c8ff 21c0 3113 2ac0

weight f4 [2, 2]
0.36460927 -0.731155 -0.8969181 -0.65361625
00000000: 11ae ba3e f92c 3bbf 6d9c 65bf 6553 27bf

bias f4 [6]
0.36931527 -0.21331589 -0.23476654 0.71715784 -0.348589 0.12041348
00000000: e416 bd3e 7b6f 5abe a466 70be a897 373f
00000010: 427a b2be 589b f63d

weight f4 [6, 2]
0.6744232 -0.022857064 0.2260799 0.39318 0.42100912 1.0398445 0.76258767 -0.7530974
0.02987529 0.018679932 0.73890054 0.8433455
00000000: 00a7 2c3f bd3e bbbc 7d81 673e e44e c93e
00000010: 828e d73e a019 853f f238 433f feca 40bf
00000020: 06bd f43c a806 993c 9628 3d3f 7ee5 573f

bias f4 [3]
0.9418935 0.9656656 0.8324921
00000000: ef1f 713f dc35 773f 341e 553f

weight f4 [3, 6]
-0.32769543 0.075748555 0.15457107 0.962792 0.6135478 0.5303633 0.5160247 -1.6756204
-1.8579924 1.0826199 -1.3260536 -1.2137098 0.43957624 -0.6051907 -0.34047225 0.30043173
0.31261608 0.9542881
00000000: b2c7 a7be 0f22 9b3d e147 1e3e 8979 763f
00000010: 7811 1d3f e4c5 073f 321a 043f bb7a d6bf
00000020: b2d2 edbf 4a93 8a3f 20bc a9bf d85a 9bbf
00000030: 2310 e13e c7ed 1abf 6152 aebe 30d2 993e
00000040: 370f a03e 3a4c 743f

__mu__ f4 [101, 2]
-1.1886098 0.614565 0.3172149 0.1088745 -0.0018319525 0.4724586 -0.3985034 0.4143383
-0.3948196 0.4664747 -0.64064884 0.292993 0.53847337 0.25500357 0.11506225 0.41865265
-0.4989183 0.6154562 -0.71491635 0.7291871 -0.85162354 0.9649407 -0.6604875 0.21415079
-0.2847852 0.4643939 -0.18374556 0.079308 -0.35114193 0.6073513 -1.0269716 0.6347304
-1.1947241 0.7008044 0.5224324 0.19089186 -0.5546373 0.16105342 -1.5969776 1.2069702
-1.5442096 1.0413554 -0.14032218 0.68602794 -0.005957447 0.14728564 -0.93412673 0.86271566
0.3810266 0.010258615 -0.0286753 0.476403 -0.38594684 0.36887044 -0.16098335 0.26276982
-1.2368667 0.9386459 -0.7592917 1.0618346 0.20908226 0.39173847 -0.10041544 0.23785639
-0.057480786 0.36217237 -0.25652897 0.71508723 0.0014360063 0.5524017 0.04950154 0.053126335
-1.4682573 0.9930572 0.0045707673 0.06824657 -0.55265146 0.5222151 0.49916503 0.14970261
-0.6382324 0.25803608 -1.4005055 1.2349548 -1.5454851 1.3585277 -1.0088925 0.8978464
0.0038846172 0.8341878 -0.40215105 0.6479221 0.33491045 0.269601 -0.4278481 0.1689812
-0.590925 0.7724691 -0.21361351 0.032492936 -1.1577836 0.9067165 -1.0072099 0.93430895
0.47385186 0.07363546 0.14805454 0.6789711 0.34114125 0.7324533 -0.90963614 0.39494246
-0.4649256 0.30316967 -0.16534191 -0.012759805 -0.43456563 0.27115923 0.47523445 0.030570924
-0.6354491 0.49355358 0.318898 0.43764758 -0.70642877 0.1904009 -0.31986463 0.03861919
0.25738442 0.0884358 0.105609335 0.7404445 -0.65567285 0.91258365 -0.29680437 0.6853425
0.22185783 0.49996734 -0.56650203 0.39617616 -0.014662366 0.72662705 -0.09723769 0.6852284
-0.37712005 0.9269995 0.3473697 0.32855862 -0.2715512 0.8092347 0.023282452 0.37107188
0.48007256 0.21395075 -0.06464873 0.6795772 0.13980694 0.57681257 -1.6802123 1.2939677
-0.4334217 0.2832994 -1.5042634 1.1212928 0.27853513 0.15127552 0.23124924 0.45736545
0.021131067 0.5654233 0.17302029 0.29052556 -1.1878115 0.6040948 0.05515138 0.70276266
-0.8732219 0.7660231 0.14237098 0.1088337 -0.22869283 0.23447877 -0.42605165 0.70123833
-0.78494406 0.37093437 -1.549529 0.9971433 -0.7061595 0.7879246 -0.6634285 0.7678041
0.33155572 -0.023230582 -0.58047146 0.50887674 -0.1836855 0.25607908 -0.05880015 0.24990058
-0.63195264 0.28073376
00000000: 5e24 98bf 2254 1d3f fe69 a23e 98f9 de3d
00000010: 201e f0ba 18e6 f13e a308 ccbe 2624 d43e
00000020: cb25 cabe c6d5 ee3e 9001 24bf 2e03 963e
00000030: 64d9 093f d48f 823e c2a5 eb3d a459 d63e
00000040: 3872 ffbe 8a8e 1d3f c204 37bf 01ac 3a3f
00000050: 0004 5abf 5b06 773f b515 29bf 584a 5b3e
00000060: 5ecf 91be 0ac5 ed3e cc27 3cbe 3c6c a23d
00000070: e0c8 b3be 607b 1b3f ce73 83bf b17d 223f
00000080: b8ec 98bf eb67 333f 21be 053f 2879 433e
00000090: b6fc 0dbf 30eb 243e c369 ccbf 007e 9a3f
000000a0: a9a8 c5bf 224b 853f 9eb0 0fbe 879f 2f3f
000000b0: b036 c3bb 0cd2 163e ee22 6fbf efda 5c3f
000000c0: eb15 c33e c013 283c 76e8 eabc 18eb f33e
000000d0: d39a c5be 96dc bc3e d2d8 24be c489 863e
000000e0: a651 9ebf 194b 703f f160 42bf 32ea 873f
000000f0: a919 563e f291 c83e 9ca6 cdbd a090 733e
00000100: f970 6bbd a86e b93e c457 83be f50f 373f
00000110: 6038 bc3a 336a 0d3f 20c2 4a3d 009b 593d
00000120: dbef bbbf ff38 7e3f 60c6 953b dcc4 8b3d
00000130: 917a 0dbf e4af 053f 8f92 ff3e a44b 193e
00000140: 3363 23bf 4e1d 843e c443 b3bf 0013 9e3f
00000150: 75d2 c5bf 3ce4 ad3f 6423 81bf 43d9 653f
00000160: 1095 7e3b 558d 553f bee6 cdbe 39de 253f
00000170: 6279 ab3e 2409 8a3e e80e dbbe 6809 2d3e
00000180: dc46 17bf 89c0 453f 80bd 5abe 5017 053d
00000190: 4132 94bf 931e 683f 41ec 80bf df2e 6f3f
000001a0: b69c f23e 30ce 963d 9c9b 173e 0dd1 2d3f
000001b0: 11aa ae3e 0f82 3b3f eadd 68bf e635 ca3e
000001c0: ba0a eebe 0e39 9b3e 644f 29be 800e 51bc
000001d0: 637f debe 62d5 8a3e ee51 f33e e06f fa3c
000001e0: cbac 22bf 0eb3 fc3e 9946 a33e 5813 e03e
000001f0: 84d8 34bf 74f8 423e 4cc5 a3be 282f 1e3d
00000200: e4c7 833e d41d b53d b549 d83d c58d 3d3f
00000210: 2dda 27bf 159f 693f bef6 97be 9b72 2f3f
00000220: b32e 633e b8fb ff3e 4706 11bf 9ad7 ca3e
00000230: 6c3a 70bc 3b04 3a3f 8e24 c7bd 216b 2f3f
00000240: e115 c1be d74f 6d3f 71da b13e d638 a83e
00000250: c208 8bbe 012a 4f3f d7ba be3c 22fd bd3e
00000260: 12cc f53e e815 5b3e 8e66 84bd c5f8 2d3f
00000270: 8d29 0f3e fda9 133f 3211 d7bf bca0 a53f
00000280: 73e9 ddbe 9e0c 913e b48b c0bf 8686 8f3f
00000290: 289c 8e3e f8e7 1a3e 9acc 6c3e ce2b ea3e
000002a0: 0f1b ad3c 95bf 103f 3b2c 313e c4bf 943e
000002b0: 350a 98bf f5a5 1a3f 6ae6 613d 41e8 333f
000002c0: 788b 5fbf 171a 443f b3c9 113e 34e4 de3d
000002d0: 742e 6abe 341b 703e 7123 dabe 5b84 333f
000002e0: 18f2 48bf 1ceb bd3e f756 c6bf c944 7f3f
000002f0: dec6 34bf 6db5 493f 73d6 29bf cf8e 443f
00000300: acc1 a93e 104e bebc c799 14bf bf45 023f
00000310: 0d18 3cbe cc1c 833e 6dd8 70bd f0e5 7f3e
00000320: a6c7 21bf 56bc 8f3e

__logstd__ f4 [101, 2]
-2.1730397 -3.1358023 -2.7148447 -2.8787942 -2.6394053 -3.0528178 -2.4673169 -3.0313084
-2.4768336 -3.055566 -2.3490891 -2.9781415 -2.8282843 -2.9438114 -2.6792314 -3.0260825
-2.4568772 -3.1264982 -2.3854816 -3.1825712 -2.3654284 -3.2944221 -2.3288288 -2.9416595
-2.5217762 -3.053045 -2.5042398 -2.8720682 -2.5164201 -3.1206367 -2.2426233 -3.1429267
-2.1837595 -3.176099 -2.8118467 -2.9141443 -2.3642209 -2.91541 -2.0959752 -3.4177766
-2.0922644 -3.339812 -2.615214 -3.15435 -2.5878043 -2.9012585 -2.315803 -3.2479205
-2.7259588 -2.8319135 -2.6289687 -3.0550354 -2.4655042 -3.009931 -2.5417585 -2.9572897
-2.2029254 -3.2875907 -2.418279 -3.3382993 -2.7137756 -3.0122085 -2.5628493 -2.9448197
-2.5995889 -3.0021791 -2.5718727 -3.169537 -2.6530182 -3.0900466 -2.5961666 -2.8565733
-2.1160946 -3.3162217 -2.5800052 -2.8642566 -2.4204648 -3.0837803 -2.7959547 -2.8952668
-2.3447185 -2.9618082 -2.1810877 -3.428056 -2.1404157 -3.4877172 -2.29044 -3.2653546
-2.6972706 -3.2213998 -2.5016642 -3.1402724 -2.74679 -2.9534864 -2.4175916 -2.9173198
-2.4431272 -3.201005 -2.484769 -2.8506608 -2.2305558 -3.2715886 -2.296728 -3.282332
-2.7738683 -2.860156 -2.7327533 -3.1469955 -2.8203862 -3.1692114 -2.2540889 -3.029468
-2.4229338 -2.98041 -2.4976807 -2.8288805 -2.4305096 -2.965057 -2.767828 -2.840057
-2.3820076 -3.071583 -2.765993 -3.0320668 -2.3062863 -2.9312332 -2.4420035 -2.8550146
-2.687097 -2.8701074 -2.7247279 -3.176257 -2.4379966 -3.2672482 -2.5507407 -3.1562357
-2.7356405 -3.062492 -2.3954244 -3.0252075 -2.6731343 -3.1715093 -2.632814 -3.1533701
-2.55479 -3.2700443 -2.7609632 -2.9808009 -2.580142 -3.2136467 -2.6341763 -3.0051906
-2.797961 -2.9254928 -2.645352 -3.1502757 -2.7136827 -3.0994787 -2.0750885 -3.4595137
-2.4328432 -2.9707012 -2.1209638 -3.3765213 -2.7054412 -2.8991096 -2.7329655 -3.0424957
-2.663118 -3.0958407 -2.6834087 -2.9655242 -2.1717613 -3.130909 -2.6981893 -3.159398
-2.3260167 -3.2019777 -2.6429174 -2.8812392 -2.5095649 -2.9450526 -2.5000153 -3.1654687
-2.3016956 -3.0165164 -2.083291 -3.3192725 -2.398098 -3.209835 -2.4125874 -3.1998515
-2.7004697 -2.8169959 -2.406974 -3.077953 -2.5313933 -2.95449 -2.581816 -2.9498491
-2.3507848 -2.972303
00000000: 1513 0bc0 fcb0 48c0 04c0 2dc0 2a3e 38c0
00000010: 04ec 28c0 5e61 43c0 85e8 1dc0 f500 42c0
00000020: 7184 1ec0 658e 43c0 7a57 16c0 df99 3ec0
00000030: 9c02 35c0 6867 3cc0 8778 2bc0 56ab 41c0
00000040: 7a3d 1dc0 8c18 48c0 bbab 18c0 3faf 4bc0
00000050: 2e63 17c0 d0d7 52c0 880b 15c0 2644 3cc0
00000060: c864 21c0 1765 43c0 7745 20c0 f7cf 37c0
00000070: 070d 21c0 83b8 47c0 2487 0fc0 b625 49c0
00000080: b7c2 0bc0 3545 4bc0 4cf5 33c0 5781 3ac0
00000090: 654f 17c0 1496 3ac0 7524 06c0 dabc 5ac0
000000a0: a9e7 05c0 7bbf 55c0 ab5f 27c0 dfe0 49c0
000000b0: 969e 25c0 38ae 39c0 1e36 14c0 eedd 4fc0
000000c0: 1c76 2ec0 123e 35c0 0641 28c0 b385 43c0
000000d0: d2ca 1dc0 b6a2 40c0 2cac 22c0 3c44 3dc0
000000e0: bbfc 0cc0 e367 52c0 15c5 1ac0 b2a6 55c0
000000f0: 80ae 2dc0 06c8 40c0 b905 24c0 ed77 3cc0
00000100: aa5f 26c0 b423 40c0 9099 24c0 b2d9 4ac0
00000110: 0dcb 29c0 53c3 45c0 9827 26c0 19d2 36c0
00000120: 186e 07c0 fa3c 54c0 ce1e 25c0 fb4f 37c0
00000130: e5e8 1ac0 a85c 45c0 ecf0 32c0 0d4c 39c0
00000140: de0f 16c0 448e 3dc0 f196 0bc0 4565 5bc0
00000150: 92fc 08c0 c236 5fc0 9296 12c0 92fb 50c0
00000160: 15a0 2cc0 6a2b 4ec0 441b 20c0 39fa 48c0
00000170: 68cb 2fc0 ec05 3dc0 d2b9 1ac0 5eb5 3ac0
00000180: 325c 1cc0 44dd 4cc0 7506 1fc0 3a71 36c0
00000190: 6dc1 0ec0 b561 51c0 97fd 12c0 ba11 52c0
000001a0: 0f87 31c0 cc0c 37c0 6ee5 2ec0 6068 49c0
000001b0: 3581 34c0 5cd4 4ac0 fe42 10c0 cee2 41c0
000001c0: 5911 1bc0 0abf 3ec0 00da 1fc0 610c 35c0
000001d0: 788d 1bc0 7ec3 3dc0 1824 31c0 7ec3 35c0
000001e0: d072 18c0 d194 44c0 0806 31c0 620d 42c0
000001f0: 329a 13c0 5399 3bc0 c949 1cc0 8fb8 36c0
00000200: 66f9 2bc0 d7af 37c0 f161 2ec0 cb47 4bc0
00000210: 2308 1cc0 981a 51c0 563f 23c0 c4ff 49c0
00000220: bc14 2fc0 deff 43c0 a24e 19c0 009d 41c0
00000230: a214 2bc0 02fa 4ac0 0680 28c0 d1d0 49c0
00000240: ae81 23c0 6848 51c0 9fb3 30c0 71c5 3ec0
00000250: 0c21 25c0 63ac 4dc0 5896 28c0 0b55 40c0
00000260: cb11 33c0 463b 3bc0 724d 29c0 1e9e 49c0
00000270: faac 2dc0 dc5d 46c0 40ce 04c0 ac68 5dc0
00000280: b4b3 1bc0 f81f 3ec0 dfbd 07c0 ed18 58c0
00000290: f325 2dc0 038b 39c0 e8e8 2ec0 40b8 42c0
000002a0: 8670 2ac0 4122 46c0 f8bc 2bc0 26cb 3dc0
000002b0: 23fe 0ac0 d060 48c0 22af 2cc0 9433 4ac0
000002c0: 75dd 14c0 34ed 4cc0 8f25 29c0 3966 38c0
000002d0: b69c 20c0 be7b 3cc0 4000 20c0 0a97 4ac0
000002e0: fb4e 13c0 9b0e 41c0 a454 05c0 f66e 54c0
000002f0: 707a 19c0 f06d 4dc0 d567 1ac0 5eca 4cc0
00000300: 7fd4 2cc0 a949 34c0 dd0b 1ac0 2ffd 44c0
00000310: 5902 22c0 5d16 3dc0 793c 25c0 54ca 3cc0
00000320: 4273 16c0 363a 3ec0
