code/models/InterGVAE.pt (torch, 32538 bytes, 14 tensors)

bias f4 [4]
0.016661502 0.54952276 0.018971529 -0.09412119
00000000: b47d 883c 86ad 0c3f 2e6a 9b3c 9cc2 c0bd

weight f4 [4, 3]
0.18755879 0.4153492 -0.42241102 0.02435405 -0.6315587 -0.5883149 0.8741087 -0.78141093
0.35164464 0.42520046 0.83110255 0.85238516
00000000: 690f 403e a6a8 d43e 4246 d8be 2582 c73c
00000010: d5ad 21bf ce9b 16bf 96c5 5f3f 8c0a 48bf
00000020: c40a b43e e0b3 d93e 23c3 543f ea35 5a3f

bias f4 [2]
-0.094668984 0.009774247
00000000: d0e1 c1bd 2a24 203c

weight f4 [2, 4]
-0.87434375 1.0771598 -0.47712743 0.8399654 -0.22891723 -1.3836364 -0.73019063 0.39205968
00000000: fed4 5fbf 5fe0 893f 0c4a f4be f907 573f
00000010: 4769 6abe ff1a b1bf c6ed 3abf 0cbc c83e

bias f4 [2]
0.14750227 0.09295666
00000000: d60a 173e 1060 be3d

weight f4 [2, 2]
0.6396779 1.3697118 0.5821548 -0.4568187
00000000: eec1 233f b752 af3f 1908 153f 24e4 e9be

bias f4 [2]
-0.09331381 -0.2196055
00000000: 501b bfbd 44e0 60be

weight f4 [2, 2]
0.33351228 -0.827121 -0.09745244 0.58556896
00000000: 1fc2 aa3e 34be 53bf 2595 c7bd d9e7 153f

bias f4 [6]
-0.32668304 0.07161719 0.48864645 -0.39535743 0.37540916 0.2950734
00000000: 0043 a7be 09ac 923d de2f fa3e 4a6c cabe
00000010: a135 c03e dc13 973e

weight f4 [6, 2]
0.40525776 1.0884802 -0.3826983 -0.060830113 -0.5388658 0.5963996 -0.670644 0.47049847
-0.73937345 0.5005565 0.5886504 0.43240777
00000000: f27d cf3e 5253 8b3f 08f1 c3be ff28 79bd
00000010: 1cf3 09bf a5ad 183f 53af 2bbf 2de5 f03e
00000020: 9447 3dbf 7924 003f cbb1 163f 8d64 dd3e

bias f4 [3]
0.4280101 0.6223961 0.7072443
00000000: 2424 db3e 5a55 1f3f f60d 353f

weight f4 [3, 6]
0.15044683 -0.026835807 0.6216857 -0.33700886 0.6023628 0.7557943 0.35433796 -1.4120028
-0.45518488 -0.7132537 -0.6965544 0.13056481 -0.9207458 -1.3500007 0.37937897 -1.2909802
-0.2841625 -0.19536266
00000000: bc0e 1a3e c4d6 dbbc cb26 1f3f 6d8c acbe
00000010: 7334 1a3f bc7b 413f c96b b53e 82bc b4bf
00000020: fe0d e9be cb97 36bf 6451 32bf c8b2 053e
00000030: ffb5 6bbf d3cc acbf f63d c23e d73e a5bf
00000040: bf7d 91be 260d 48be

__mu__ f4 [101, 2]
0.5970897 0.18124858 1.3891288 0.14817432 1.5148742 0.14743987 0.6872523 0.18352997
0.7209275 0.12993899 0.27603567 0.17887436 0.41885918 0.15915793 1.4118304 0.14966926
0.43868133 0.22458163 1.0954095 0.18597135 0.90137696 0.2116448 0.34681368 0.1375558
0.53095627 0.20007545 0.41757056 0.21649167 1.3009583 0.22241625 0.56135714 0.15269214
0.42781714 0.21932429 0.6786202 0.2523891 1.3993169 0.2313917 0.54875994 0.23239055
0.6236572 0.08595543 1.3367236 0.18212512 1.4269807 0.21012843 0.69677556 0.19097564
0.6578946 0.1513327 0.25452304 0.20172799 0.46827966 0.17760167 0.7585654 0.22202009
0.87895155 0.07204163 1.0596924 0.16799176 1.3159711 0.17448875 0.80603135 0.08638919
0.7433907 0.2715332 0.8991473 0.08131779 1.446283 0.14371765 0.41450587 0.17112906
0.18515328 0.20898813 0.90696645 0.13938747 0.8728709 0.13226512 0.45464846 0.12862596
0.8381238 0.19668397 0.83453274 0.21737862 0.64566934 0.26004782 0.32064474 0.17794317
0.70390975 0.17764354 0.5282221 0.21483675 0.24957728 0.22053808 0.60196245 0.2672159
0.5233977 0.1519436 0.6150393 0.08588709 0.19643891 0.20143263 0.92423177 0.24535519
0.49680287 0.25836307 0.7584604 0.093164995 1.2460834 0.11803888 1.0643578 0.23580351
0.3361658 0.19301733 0.6100842 0.2150488 0.868258 0.11792465 0.7836423 0.066857286
0.92511296 0.27211934 1.1175823 0.23445562 0.9803473 0.12756774 0.8637941 0.24975139
1.567275 0.16330895 0.81680226 0.18215771 0.23348865 0.15966436 0.6804309 0.26606026
0.8046342 0.16931549 0.54260474 0.17054194 0.8642664 0.20334423 0.71680725 0.17541888
1.2245891 0.121310554 1.2028519 0.23482874 0.120048754 0.19452912 1.4239405 0.26866913
0.6074866 0.13192022 1.0557231 0.28084186 0.93236125 0.21219468 0.14575589 0.18465847
0.3527152 0.15753025 0.7393832 0.2358202 1.2377677 0.21209842 0.12548631 0.19772199
0.4462427 0.13395026 0.76557374 0.22636744 0.2679119 0.15126973 1.5336291 0.1841529
0.9486171 0.16092095 1.1928217 0.26363254 1.0261425 0.18803573 0.5650619 0.12157501
1.2334757 0.2711172 0.6643566 0.17042631 0.7497896 0.07010053 0.64538854 0.1865148
0.20768426 0.20375258 1.1570477 0.1318124 0.4245629 0.20528375 0.27233878 0.18586749
0.7382895 0.11709511
00000000: dfda 183f 3a99 393e f9ce b13f 02bb 173e
00000010: 66e7 c13f 7afa 163e c4ef 2f3f 48ef 3b3e
00000020: b48e 383f ba0e 053e 8c54 8d3e d72a 373e
00000030: b674 d63e 4cfa 223e dcb6 b43f e642 193e
00000040: d79a e03e baf8 653e 6136 8c3f 466f 3e3e
00000050: a4c0 663f 6ab9 583e 9091 b13e 6ddb 0c3e
00000060: c0ec 073f 94e0 4c3e cfcb d53e feaf 5d3e
00000070: cd85 a63f 16c1 633e 1ab5 0f3f 545b 1c3e
00000080: d90a db3e 8c96 603e 0eba 2d3f 2539 813e
00000090: d11c b33f f2f1 6c3e 887b 0c3f caf7 6d3e
000000a0: 00a8 1f3f 6709 b03d c219 ab3f 027f 3a3e
000000b0: 4ea7 b63f e82b 573e e25f 323f 1e8f 433e
000000c0: c86b 283f f6f6 1a3e d850 823e c891 4e3e
000000d0: 5ac2 ef3e 36dd 353e 5831 423f 3c59 633e
000000e0: f802 613f 908a 933d 00a4 873f 0806 2c3e
000000f0: be71 a83f 2ead 323e 1258 4e3f d1ec b03d
00000100: da4e 3e3f 6606 8b3e 842e 663f f189 a63d
00000110: cd1f b93f b82a 133e 1d3a d43e 753c 2f3e
00000120: d298 3d3e fc00 563e f42e 683f 97bb 0e3e
00000130: 7874 5f3f 8270 073e afc7 e83e 86b6 033e
00000140: 488f 563f 8667 493e f0a3 553f 8098 5e3e
00000150: 964a 253f fd24 853e 8c2b a43e bc36 363e
00000160: 6e33 343f 30e8 353e 9039 073f 2afe 5b3e
00000170: 3091 7f3e bcd4 613e 361a 1a3f 86d0 883e
00000180: 64fd 053f 1a97 1b3e 3773 1d3f 92e5 af3d
00000190: 4827 493e 5b44 4e3e 749a 6c3f 643e 7b3e
000001a0: f25c fe3e 2a48 843e 762a 423f 4acd be3d
000001b0: a97f 9f3f 5ebe f13d e03c 883f 7a76 713e
000001c0: ec1d ac3e 56a6 453e 7a2e 1c3f c135 5c3e
000001d0: 2846 5e3f 7b82 f13d c89c 483f 79ec 883d
000001e0: 34d4 6c3f 3a53 8b3e f00c 8f3f 2215 703e
000001f0: 0af8 7a3f 1ea1 023e 9c21 5d3f d4be 7f3e
00000200: 789c c83f 763a 273e f419 513f 8d87 3a3e
00000210: a617 6f3e 0e7f 233e b830 2e3f 0d39 883e
00000220: 82fc 4d3f 0a61 2d3e 25e8 0a3f 8ca2 2e3e
00000230: 9040 5d3f 7839 503e ae80 373f 02a1 333e
00000240: 56bf 9c3f ab71 f83d 0df7 993f f276 703e
00000250: 1fdc f53d a432 473e af43 b63f 008f 893e
00000260: 3e84 1b3f 1816 073e ef21 873f 81ca 8f3e
00000270: 3aaf 6e3f 9049 593e 0841 153e 1c17 3d3e
00000280: 1697 b43e 9c4f 213e 3848 3d3f da7a 713e
00000290: 2c6f 9e3f 5430 593e 7c7f 003e a277 4a3e
000002a0: ec79 e43e 422a 093e a4fc 433f decc 673e
000002b0: c02b 893e 74e6 1a3e f54d c43f 9492 3c3e
000002c0: 92d8 723f 76c8 243e 62ae 983f d8fa 863e
000002d0: a358 833f 708c 403e e6a7 103f 52fc f83d
000002e0: 88e2 9d3f e0cf 8a3e 4613 2a3f 3c84 2e3e
000002f0: 36f2 3f3f de90 8f3d 2f38 253f bcfd 3e3e
00000300: 2fab 543e 84a4 503e 241a 943f d4f9 063e
00000310: 4f60 d93e e735 523e fd6f 8b3e 0c54 3e3e
00000320: 8a00 3d3f 90cf ef3d

__logstd__ f4 [101, 2]
-0.1492387 -0.13847423 -0.41843227 0.092385456 -0.45708317 0.12693115 -0.17441158 -0.11501341
-0.23307562 -0.08086522 -0.054399915 -0.22469516 -0.11538556 -0.1766532 -0.42393744 0.09786327
-0.062175833 -0.20176728 -0.29550254 -0.005131379 -0.21365707 -0.06988004 -0.11316778 -0.18617724
-0.11222522 -0.16524139 -0.06311857 -0.20373732 -0.32461998 0.03378515 -0.16428319 -0.13487834
-0.063650884 -0.20227101 -0.10949761 -0.14946903 -0.3462118 0.05635403 -0.08836361 -0.17546661
-0.24348924 -0.08681446 -0.3718812 0.06230043 -0.37380853 0.07379334 -0.17055136 -0.1158948
-0.19467622 -0.10798588 -0.027222365 -0.24120288 -0.11362638 -0.1718106 -0.16112727 -0.113563135
-0.3332007 -0.010885656 -0.3009814 -0.006463036 -0.3725218 0.060216352 -0.2981901 -0.0374102
-0.11174182 -0.1407777 -0.3309082 -0.009717613 -0.43973047 0.110009655 -0.103238545 -0.18341924
0.0003027618 -0.263457 -0.2807267 -0.03466752 -0.27687138 -0.040620595 -0.1538236 -0.15268192
-0.2080861 -0.08010918 -0.18827596 -0.09073548 -0.09261362 -0.16200289 -0.06871843 -0.21212712
-0.18476987 -0.10773781 -0.098042704 -0.17286798 -0.008708231 -0.2513189 -0.07292424 -0.17723371
-0.15349334 -0.14485443 -0.24094768 -0.08912672 -0.009943008 -0.25686428 -0.19005883 -0.07938194
-0.049167037 -0.20170961 -0.27768838 -0.05350913 -0.4024874 0.06752811 -0.24103215 -0.03681332
-0.059767503 -0.21493413 -0.12258048 -0.15070006 -0.28845367 -0.03518866 -0.30909973 -0.03439282
-0.16610783 -0.091621816 -0.25833037 -0.021707535 -0.31358922 -0.009196326 -0.1678234 -0.09787107
-0.45855403 0.13378493 -0.21478894 -0.07913545 -0.05892882 -0.22731088 -0.097674444 -0.1553511
-0.22273321 -0.07645714 -0.14246711 -0.14830208 -0.20995703 -0.076103866 -0.19067906 -0.1031923
-0.39303386 0.060156032 -0.28375176 0.0013121367 0.006887093 -0.27442372 -0.3199203 0.045670047
-0.1970136 -0.11264542 -0.19767132 -0.0601625 -0.22251955 -0.061708584 -0.009810068 -0.2628288
-0.09687693 -0.1938857 -0.14284566 -0.12521547 -0.31486675 0.02140811 0.008133516 -0.27443346
-0.14646666 -0.15745096 -0.15931073 -0.11368394 -0.07692348 -0.21403338 -0.42952952 0.114913955
-0.27382463 -0.033379003 -0.25465906 -0.014846772 -0.2727098 -0.024934873 -0.1935583 -0.119361304
-0.26016772 -0.0072786957 -0.1793517 -0.11513116 -0.2959386 -0.04511313 -0.1590642 -0.12779227
-0.011240929 -0.25488725 -0.36312786 0.03688772 -0.07537224 -0.19660933 -0.046955474 -0.2289615
-0.2499421 -0.07015383
00000000: 08d2 18be 30cc 0dbe c13c d6be 9634 bd3d
00000010: ce06 eabe 3dfa 013e f398 32be 278c ebbd
00000020: 60ab 6ebe aa9c a5bd 72d2 5ebd 7d16 66be
00000030: 444f ecbd 94e4 34be 540e d9be 8a6c c83d
00000040: 16ac 7ebd 159c 4ebe 1c4c 97be 2025 a8bb
00000050: ebc8 5abe 441d 8fbd 82c4 e7bd 3fa5 3ebe
00000060: 56d6 e5bd 0a35 29be 4f44 81bd 84a0 50be
00000070: 9734 a6be 4c62 0a3d da39 28be 8c1d 0abe
00000080: 655b 82bd 2220 4fbe 4840 e0bd 690e 19be
00000090: ac42 b1be 7cd3 663d fbf7 b4bd 85ad 33be
000000a0: 3e55 79be c8cb b1bd 3667 bebe bc2e 7f3d
000000b0: d563 bfbe f620 973d 04a5 2ebe 415a edbd
000000c0: 3459 47be b327 ddbd 7001 dfbc e3fd 76be
000000d0: f3b4 e8bd 1eef 2fbe 8cfe 24be ca93 e8bd
000000e0: 4899 aabe c059 32bc 3c1a 9abe e0c7 d3bb
000000f0: 2dbb bebe 6ca5 763d 5fac 98be 703b 19bd
00000100: e5d8 e4bd 0828 10be cd6c a9be a036 1fbc
00000110: 5a24 e1be be4c e13d bb6e d3bd 41d2 3bbe
00000120: 00bc 9e39 d6e3 86be 69bb 8fbe 88ff 0dbd
00000130: 16c2 8dbe c861 26bd ef83 1dbe a658 1cbe
00000140: 8614 55be 4810 a4bd 6acb 40be 86d3 b9bd
00000150: 36ac bdbd 16e4 25be 40bc 8cbd da37 59be
00000160: 5034 3dbe a4a5 dcbd 9dca c8bd 4e04 31be
00000170: f8ac 0ebc dfac 80be 4e59 95bd c17c 35be
00000180: 5c2d 1dbe b854 14be fdba 76be 1288 b6bd
00000190: 00e8 22bc b783 83be c89e 42be 0093 a2bd
000001a0: 6063 49bd f78c 4ebe 2c2d 8ebe 642c 5bbd
000001b0: d412 cebe 2e4c 8a3d 22d1 76be 90c9 16bd
000001c0: c5ce 74bd b117 5cbe 7a0b fbbd 1e51 1abe
000001d0: 33b0 93be fc21 10bd 5242 9ebe 7cdf 0cbd
000001e0: 2c18 2abe 38a4 bbbd e143 84be 00d4 b1bc
000001f0: c48e a0be 30ac 16bc e6d9 2bbe a170 c8bd
00000200: 98c7 eabe ebfe 083e a2f1 5bbe c411 a2bd
00000210: 595f 71bd 2fc4 68be 8a09 c8bd 5c14 1fbe
00000220: 2d14 64be 9095 9cbd e6e2 11be 80dc 17be
00000230: fafe 56be 58dc 9bbd 5f41 43be 7c56 d3bd
00000240: bc3b c9be 2c66 763d e947 91be 00fc ab3a
00000250: 20ad e13b 4481 8cbe 98cc a3be 8410 3b3d
00000260: efbd 49be a4b2 e6bd 5a6a 4abe f46c 76bd
00000270: 2adc 63be 24c2 7cbd 68ba 20bc 7f91 86be
00000280: 6967 c6bd f989 46be 2246 12be 7c38 00be
00000290: 3736 a1be 1060 af3c 7042 053c 8b82 8cbe
000002a0: 5bfb 15be d33a 21be 5a22 23be 20d3 e8bd
000002b0: 0f8a 9dbd 912b 5bbe 4beb dbbe 0258 eb3d
000002c0: be32 8cbe 6cb8 08bd ac62 82be e03f 73bc
000002d0: 9ea0 8bbe 3844 ccbc 2634 46be b373 f4bd
000002e0: b434 85be 2082 eebb f9a7 37be e3c9 ebbd
000002f0: 4485 97be 8cc8 38bd bae1 22be fadb 02be
00000300: e02b 38bc 9580 82be e5eb b9be 9417 173d
00000310: c35c 9abd f553 49be 6254 40bd e274 6abe
00000320: d2f0 7fbe d0ac 8fbd
