code/models/InterGVAE_large20.pt (torch, 52578 bytes, 14 tensors)

bias f4 [4]
1.1175421 1.3448353 0.7423705 0.78263825
00000000: 9f0b 8f3f 9023 ac3f fe0b 3e3f fb5a 483f

weight f4 [4, 3]
-0.1230286 0.014793663 -0.22340302 -1.9719777 -3.0596817 0.8377622 -0.0033071437 -0.13615847
-0.11913195 0.024971835 -0.16801524 -0.10221291
00000000: 6bf6 fbbd 1f61 723c c3c3 64be c469 fcbf
00000010: d3d1 43c0 9577 563f aabc 58bb 206d 0bbe
00000020: 74fb f3bd bc91 cc3c 300c 2cbe 0155 d1bd

bias f4 [2]
0.034246415 3.0142314
00000000: f845 0c3d 2be9 4040

weight f4 [2, 4]
-1.1035383 2.1720748 1.482859 2.6371944 -3.1346862 -1.508867 -2.0816808 -1.7868336
00000000: be40 8dbf 4603 0b40 53ce bd3f cbc7 2840
00000010: b39e 48c0 8e22 c1bf 423a 05c0 f7b6 e4bf

bias f4 [2]
-1.1006335 -1.9144574
00000000: 8fe1 8cbf f10c f5bf

weight f4 [2, 2]
3.196561 0.48135802 3.1354492 -2.9907591
00000000: 7594 4c40 8f74 f63e 33ab 4840 9968 3fc0

bias f4 [2]
-5.382679 -5.504349
00000000: e83e acc0 a123 b0c0

weight f4 [2, 2]
-4.1127086 -0.34355766 -4.299325 -0.07861571
00000000: 4f9b 83c0 cae6 afbe 1294 89c0 4601 a1bd

bias f4 [6]
0.31160098 0.5496705 0.2695262 0.7425567 -0.0150263375 -0.29826248
00000000: 2a8a 9f3e 35b7 0c3f 57ff 893e 3218 3e3f
00000010: 0731 76bc dcb5 98be

weight f4 [6, 2]
-1.8076414 -0.2536264 0.5154227 -0.2617049 -0.44318673 0.060827434 -0.731796 1.0007381
0.33986422 -0.06695159 -4.530858 -0.32214636
00000000: cb60 e7bf 52db 81be bef2 033f 2ffe 85be
00000010: 5fe9 e2be 3026 793d fc56 3bbf 3018 803f
00000020: af02 ae3e ea1d 89bd cafc 90c0 5ef0 a4be

bias f4 [3]
1.3467572 0.9591469 1.0951501
00000000: 8a62 ac3f a78a 753f e12d 8c3f

weight f4 [3, 6]
1.5995961 -0.2030482 -1.9124143 -0.86572295 -1.3548863 -1.3705522 1.6837051 -0.672349
-0.12673393 0.05087571 0.45554295 -0.5027594 0.013110431 0.5258754 -5.5671697 -2.2356863
0.9525143 0.3925797
00000000: 91bf cc3f deeb 4fbe fec9 f4bf 05a0 5dbf
00000010: ea6c adbf 416e afbf a683 d73f 101f 2cbf
00000020: 8ac6 01be 0c63 503d ed3c e93e d7b4 00bf
00000030: 22cd 563c c59f 063f 4126 b2c0 7c15 0fc0
00000040: fad7 733f 3500 c93e

__mu__ f4 [202, 2]
-0.05840099 -0.67521703 -0.75736356 -2.3651211 -0.007514119 -0.5847459 -0.115691304 -0.92962366
0.011442423 -0.909794 0.34768593 0.07466388 -0.5689628 -1.6116661 0.5259851 -0.26194036
-0.44714177 -0.91540855 -0.6180064 -1.2177415 0.21646035 -1.0777717 -0.08705902 -0.22707462
-0.20923263 -0.5416398 0.30841827 -0.37540078 0.30305052 -0.7967433 0.3954444 -0.55353355
0.042767406 -1.5329819 0.10160768 -1.0819902 -0.08572328 -1.1574271 -0.073721886 -0.52753234
-0.2802269 -0.93234444 -0.3795957 -1.969267 0.453712 -0.44068515 0.13655639 -0.45086443
-0.052622676 -0.46555054 -0.074584365 -1.79516 1.6013185 1.4790463 -0.5560186 -1.0693835
-0.12757933 -1.317093 0.81852996 0.52608895 -0.431835 -1.057455 0.074713826 -0.9910955
-0.07776272 -1.1014205 -0.32081008 -0.71611273 0.498307 0.041294813 1.4436246 0.6743493
-0.08230138 -0.8005245 0.110693574 -0.44314146 0.01621139 -0.53920305 0.20196962 -0.04659474
-0.407817 -2.2012417 2.2374792 1.8712795 1.0447534 1.0013213 1.260398 0.45477724
0.5394665 -0.52497566 0.23449802 0.10756278 0.51699305 -0.2757331 1.2082504 0.9848881
-0.38844222 -0.84517026 -0.0070222616 -0.7593744 -0.00103724 -0.35963082 -0.11847502 -0.62090683
0.7009697 0.62648296 0.5489942 0.072318316 0.17522418 -0.53972805 -0.5150523 -1.0867743
0.5901302 0.30941248 -0.42022347 -0.8426051 -0.60705423 -1.1762812 -0.057293415 -0.94239205
-0.55318284 -1.7793489 -0.07400942 -0.30137897 -0.346947 -2.1515396 0.25243056 -0.47286856
-0.088867664 -1.122957 0.6047778 0.45683765 -0.5099858 -1.0819952 -0.14380705 -1.1333268
-0.1582874 -1.7242411 -0.21863121 -1.0172158 0.3901639 -0.10133815 0.08712423 -0.8600813
-0.6302111 -1.5931289 1.9591528 1.5895848 -0.054940462 -1.4617833 -0.34423918 -1.7096862
2.1687846 1.973923 -0.05645168 -0.3947152 0.5505581 -0.7676792 0.23168671 -0.9865846
0.6870321 0.034181952 0.1998136 -1.3278012 2.2374792 1.8712795 -0.4326303 -1.6468846
-0.00035381317 -0.49091136 -0.8080251 -2.222421 0.15577495 -0.34388566 0.487661 -0.22857058
1.2444843 1.1338012 -0.54373515 -1.8804117 -0.52429336 -1.085401 -0.14054912 -1.7289393
-0.08709991 -0.45319152 -0.45294303 -1.4491212 -0.24463218 -1.752928 -0.74194586 -2.1749594
-0.118346274 -1.7081062 0.13981378 -0.29801607 1.9733533 1.544209 0.08737707 -0.4359169
0.28441048 -0.15225112 -0.05346656 -0.64955163 -0.76336086 -2.3746154 -0.004247546 -0.5716181
-0.09379423 -0.93471533 0.029725313 -0.9020783 0.3303256 0.048761368 -0.57175636 -1.6054502
0.543978 -0.26249504 -0.4489296 -0.9393623 -0.6256984 -1.236877 0.26010382 -1.0251609
-0.08752239 -0.22485769 -0.20935744 -0.5436046 0.29996514 -0.43406856 0.33779395 -0.7286651
0.3830366 -0.59732914 0.02171719 -1.5227025 0.0997864 -1.0765996 -0.078769684 -1.1865556
-0.06671512 -0.50554025 -0.26456302 -0.88840115 -0.3683406 -1.9511738 0.47460163 -0.43374777
0.14033079 -0.43578827 -0.04264617 -0.47677517 -0.0703876 -1.7934699 1.5984441 1.4764497
00000000: e035 6fbd 06db 2cbf 94e2 41bf 255e 17c0
00000010: 0039 f6bb e8b1 15bf 90ef ecbd d1fb 6dbf
00000020: 0079 3b3c 42e8 68bf e403 b23e 60e9 983d
00000030: 8ca7 11bf 134b cebf f6a6 063f 0c1d 86be
00000040: c4ef e4be 3758 6abf ab35 1ebf f4de 9bbf
00000050: c8a7 5d3e 6cf4 89bf 004c b2bd 4086 68be
00000060: 1441 56be e8a8 0abf 00e9 9d3e 8834 c0be
00000070: 7029 9b3e 5ef7 4bbf b077 ca3e 60b4 0dbf
00000080: e02c 2f3d c038 c4bf b017 d03d a87e 8abf
00000090: b08f afbd 9226 94bf 80fb 96bd 5c0c 07bf
000000a0: e679 8fbe 20ae 6ebf 5e5a c2be f110 fcbf
000000b0: f04c e83e 7ca1 e1be 70d5 0b3e b4d7 e6be
000000c0: e08a 57bd a45c eebe b0bf 98bd cec7 e5bf
000000d0: 01f8 cc3f 6451 bd3f 3c57 0ebf 8fe1 88bf
000000e0: 28a4 02be 8196 a8bf 2e8b 513f c4ad 063f
000000f0: 7a19 ddbe af5a 87bf 9003 993d 6fb8 7dbf
00000100: 1042 9fbd 59fb 8cbf 3841 a4be 2a53 37bf
00000110: 1822 ff3e c024 293d b1c8 b83f 28a2 2c3f
00000120: a08d a8bd 2cef 4cbf 50b3 e23d 70e3 e2be
00000130: c0cd 843c 3609 0abf 20d1 4e3e 20da 3ebd
00000140: 64cd d0be 25e1 0cc0 dc32 0f40 1686 ef3f
00000150: 7bba 853f 4c2b 803f b954 a13f 90d8 e83e
00000160: 7a1a 0a3f ce64 06bf 4020 703e e049 dc3d
00000170: a859 043f e42c 8dbe f3a7 9a3f a021 7c3f
00000180: e6e1 c6be 145d 58bf 001b e6bb 5c66 42bf
00000190: 00f4 87ba 8821 b8be 08a3 f2bd c0f3 1ebf
000001a0: c072 333f 3061 203f e28a 0c3f a01b 943d
000001b0: f86d 333e 9e2b 0abf 78da 03bf 6c1b 8bbf
000001c0: c612 173f 506b 9e3e 8827 d7be f8b4 57bf
000001d0: e867 1bbf 6290 96bf 80ac 6abd 9b40 71bf
000001e0: 649d 0dbf b4c1 e3bf 4092 97bd 584e 9abe
000001f0: 0aa3 b1be d3b2 09c0 943e 813e d41b f2be
00000200: 4000 b6bd 0ebd 8fbf b8d2 1a3f a0e6 e93e
00000210: 6e8e 02bf d27e 8abf 2842 13be da10 91bf
00000220: 1816 22be efb3 dcbf dce0 5fbe 2134 82bf
00000230: 90c3 c73e 608a cfbd 306e b23d 4a2e 5cbf
00000240: 8455 21bf a6eb cbbf 85c5 fa3f 8477 cb3f
00000250: 4009 61bd b71b bbbf 1e40 b0be ffd6 dabf
00000260: 5ecd 0a40 82a9 fc3f e039 67bd 1c18 cabe
00000270: 60f1 0c3f a086 44bf 483f 6d3e cf90 7cbf
00000280: 56e1 2f3f 6002 0c3d f09b 4c3e 64f5 a9bf
00000290: dc32 0f40 1686 ef3f b881 ddbe 1dcd d2bf
000002a0: 0080 b9b9 bc58 fbbe bcda 4ebf 253c 0ec0
000002b0: 7883 1f3e c811 b0be b4ae f93e 680e 6abe
000002c0: 434b 9f3f 6620 913f 3a32 0bbf 55b1 f0bf
000002d0: 1738 06bf 6cee 8abf 1cec 0fbe e24d ddbf
000002e0: 7061 b2bd b808 e8be 26e8 e7be ce7c b9bf
000002f0: dc80 7abe f25f e0bf 2af0 3dbf 8932 0bc0
00000300: 885f f2bd 39a3 dabf 582b 0f3e 9095 98be
00000310: d796 fc3f a4a8 c53f c0f2 b23d 8030 dfbe
00000320: 409e 913e b8e7 1bbe c0ff 5abd 0449 26bf
00000330: 9e6b 43bf b3f9 17c0 002f 8bbb 9055 12bf
00000340: 3017 c0bd 8149 6fbf 8082 f33c 9aee 66bf
00000350: 7020 a93e 00ba 473d a05e 12bf 647f cdbf
00000360: 2442 0b3f c065 86be 1ada e5be 0c7a 70bf
00000370: c52d 20bf fc51 9ebf 542c 853e 7938 83bf
00000380: f03e b3bd 1841 66be cc61 56be ac29 0bbf
00000390: 0895 993e 3c3e debe 54f3 ac3e cc89 3abf
000003a0: 601d c43e 90ea 18bf 40e8 b13c eae7 c2bf
000003b0: d05c cc3d 04ce 89bf 0052 a1bd 0ee1 97bf
000003c0: f0a1 88bd 166b 01bf ce74 87be 426e 63bf
000003d0: 2497 bcbe 10c0 f9bf fcfe f23e 3014 debe
000003e0: e0b2 0f3e a41f dfbe c0ad 2ebd e01b f4be
000003f0: 6027 90bd 6c90 e5bf d199 cc3f 4efc bc3f

__logstd__ f4 [202, 2]
-6.740974 -6.9417706 -5.7616725 -5.8366766 -6.809677 -7.016876 -6.651474 -6.8321514
-6.8066936 -6.985915 -7.291459 -7.5457106 -6.049371 -6.1834984 -7.4801197 -7.701487
-6.2520514 -6.4421034 -6.02148 -6.1901565 -7.0410757 -7.201026 -6.7420387 -6.98147
-6.5693355 -6.785156 -7.208154 -7.4252825 -7.1681046 -7.349705 -7.299135 -7.499042
-6.794909 -6.920615 -6.9019413 -7.0643663 -6.669544 -6.830203 -6.734223 -6.9478965
-6.4524174 -6.636921 -6.249734 -6.348928 -7.37854 -7.586561 -6.9944496 -7.209428
-6.7646585 -6.9830575 -6.6322064 -6.738616 -8.918331 -9.260536 -6.1082096 -6.287914
-6.606243 -6.7544203 -7.896429 -8.1772785 -6.2592344 -6.4368873 -6.8766804 -7.0474615
-6.683626 -6.8488283 -6.420597 -6.624402 -7.470825 -7.718539 -8.66366 -8.941648
-6.7021093 -6.89289 -6.9638095 -7.1800795 -6.8419766 -7.0524454 -7.1057034 -7.3532844
-6.1971507 -6.277407 -9.7183695 -10.078088 -8.207673 -8.523167 -8.424742 -8.6886635
-7.4754596 -7.674233 -7.1572933 -7.4171195 -7.468154 -7.6885757 -8.403949 -8.714022
-6.328584 -6.5231338 -6.796361 -6.9887686 -6.835436 -7.061528 -6.672701 -6.8795753
-7.762356 -8.0546 -7.5345516 -7.783642 -7.0341005 -7.240605 -6.156332 -6.3335543
-7.6031504 -7.8712926 -6.2903814 -6.4859314 -6.038018 -6.2099338 -6.7210307 -6.8991876
-6.0550838 -6.17463 -6.7518897 -6.9847107 -6.2746706 -6.3576326 -7.1327295 -7.342989
-6.6684904 -6.832144 -7.632595 -7.9128532 -6.162835 -6.3403373 -6.60127 -6.7654004
-6.536701 -6.6511765 -6.520095 -6.6958966 -7.328774 -7.5670824 -6.9021144 -7.083678
-5.976829 -6.1140356 -9.359575 -9.702314 -6.6825013 -6.816642 -6.3131394 -6.433431
-9.643528 -10.013628 -6.7656736 -6.9901624 -7.469531 -7.6474895 -7.0667405 -7.2340336
-7.698332 -7.940791 -7.001042 -7.1402416 -9.71837 -10.078088 -6.211322 -6.3391075
-6.8258047 -7.040769 -5.7118154 -5.8001456 -7.0261965 -7.2497554 -7.4364634 -7.6616
-8.4595995 -8.781382 -6.0584507 -6.1692114 -6.145273 -6.3228397 -6.557763 -6.671404
-6.723977 -6.9442725 -6.202527 -6.3475513 -6.430069 -6.5442452 -5.795452 -5.8861704
-6.586255 -6.7011113 -7.010561 -7.2383957 -9.373123 -9.711671 -6.9362073 -7.153663
-7.196916 -7.4335227 -6.7489815 -6.951829 -5.753669 -5.8280168 -6.81467 -7.0228996
-6.6775312 -6.857238 -6.829403 -7.008827 -7.268416 -7.520903 -6.0464897 -6.1812124
-7.5018196 -7.722697 -6.247983 -6.4360514 -6.01066 -6.177907 -7.098009 -7.2613363
-6.741655 -6.9812856 -6.569028 -6.784685 -7.193265 -7.405637 -7.2155147 -7.4020205
-7.280652 -7.477158 -6.770289 -6.8973837 -6.90017 -7.063096 -6.6756277 -6.8336496
-6.744442 -6.9598045 -6.474848 -6.6626844 -6.264777 -6.365225 -7.404338 -7.6124306
-7.0002117 -7.216373 -6.7758207 -6.993024 -6.6374125 -6.743862 -8.914651 -9.256706
00000000: 0fb6 d7c0 fc22 dec0 9f5f b8c0 0ec6 bac0
00000010: e0e8 d9c0 408a e0c0 e0d8 d4c0 fca0 dac0
00000020: 6fd0 d9c0 9e8c dfc0 a253 e9c0 7676 f1c0
00000030: 7294 c1c0 38df c5c0 245d efc0 9572 f6c0
00000040: ce10 c8c0 b625 cec0 f7af c0c0 c315 c6c0
00000050: 7e50 e1c0 ce6e e6c0 c8be d7c0 3468 dfc0
00000060: ff37 d2c0 ff1f d9c0 33a9 e6c0 ea9b edc0
00000070: 1d61 e5c0 c930 ebc0 8492 e9c0 27f8 efc0
00000080: e56f d9c0 ae75 ddc0 b4dc dcc0 4a0f e2c0
00000090: e86c d5c0 0691 dac0 c17e d7c0 2b55 dec0
000000a0: 347a cec0 a861 d4c0 d2fd c7c0 6b2a cbc0
000000b0: 001d ecc0 1cc5 f2c0 88d2 dfc0 a2b3 e6c0
000000c0: 1578 d8c0 3575 dfc0 093b d4c0 bea2 d7c0
000000d0: 7cb1 0ec1 282b 14c1 7476 c3c0 9736 c9c0
000000e0: 5866 d3c0 3624 d8c0 8caf fcc0 22d6 02c1
000000f0: a64b c8c0 fbfa cdc0 c40d dcc0 ce84 e1c0
00000100: 44e0 d5c0 9a29 dbc0 8875 cdc0 1afb d3c0
00000110: 0011 efc0 46fe f6c0 5a9e 0ac1 fd10 0fc1
00000120: ae77 d6c0 8e92 dcc0 87d7 dec0 36c3 e5c0
00000130: 79f1 dac0 a2ad e1c0 ec61 e3c0 1b4e ebc0
00000140: 0f4f c6c0 85e0 c8c0 717e 1bc1 d93f 21c1
00000150: a152 03c1 e45e 08c1 becb 06c1 c404 0bc1
00000160: f736 efc0 5193 f5c0 8c08 e5c0 0b59 edc0
00000170: 1efb eec0 d008 f6c0 9376 06c1 a26c 0bc1
00000180: c383 cac0 83bd d0c0 ca7b d9c0 fea3 dfc0
00000190: e4bb dac0 0af8 e1c0 c486 d5c0 7b25 dcc0
000001a0: 3865 f8c0 a4df 00c1 0c1b f1c0 9813 f9c0
000001b0: 5a17 e1c0 09b3 e7c0 ac00 c5c0 7aac cac0
000001c0: 024d f3c0 a1e1 fbc0 ce4a c9c0 c08c cfc0
000001d0: 7237 c1c0 c7b7 c6c0 af12 d7c0 25c6 dcc0
000001e0: 3fc3 c1c0 9296 c5c0 7b0f d8c0 c082 dfc0
000001f0: 1aca c8c0 ba71 cbc0 523f e4c0 c4f9 eac0
00000200: 4664 d5c0 eca0 dac0 383e f4c0 1836 fdc0
00000210: f235 c5c0 0be4 cac0 9b3d d3c0 297e d8c0
00000220: a82c d1c0 70d6 d4c0 9ea4 d0c0 c944 d6c0
00000230: 5185 eac0 8a25 f2c0 1fde dcc0 7dad e2c0
00000240: 2f42 bfc0 2ea6 c3c0 d2c0 15c1 ae3c 1bc1
00000250: 0dd7 d5c0 ee21 dac0 3d05 cac0 abde cdc0
00000260: e44b 1ac1 d237 20c1 6680 d8c0 69af dfc0
00000270: 6606 efc0 3cb8 f4c0 bd22 e2c0 347d e7c0
00000280: bc58 f6c0 f61a fec0 8908 e0c0 dc7c e4c0
00000290: 727e 1bc1 d93f 21c1 26c3 c6c0 f8d9 cac0
000002a0: fe6c dac0 fb4d e1c0 31c7 b6c0 cb9a b9c0
000002b0: 9ad6 e0c0 fffd e7c0 82f7 edc0 d42b f5c0
000002c0: 855a 07c1 8a80 0cc1 d4de c1c0 2e6a c5c0
000002d0: 14a6 c4c0 b454 cac0 32d9 d1c0 247c d5c0
000002e0: d22a d7c0 7b37 dec0 1a7b c6c0 241f cbc0
000002f0: 20c3 cdc0 756a d1c0 5874 b9c0 825b bcc0
00000300: 9ac2 d2c0 816f d6c0 8456 e0c0 f0a0 e7c0
00000310: 50f8 15c1 0163 1bc1 69f5 ddc0 cfea e4c0
00000320: 234d e6c0 6bdf edc0 a8f7 d7c0 6275 dec0
00000330: 0e1e b8c0 1d7f bac0 c711 dac0 98bb e0c0
00000340: 56ae d5c0 7e6e dbc0 788a dac0 5048 e0c0
00000350: dd96 e8c0 3dab f0c0 d87c c1c0 7ecc c5c0
00000360: e80e f0c0 5520 f7c0 7aef c7c0 22f4 cdc0
00000370: 5457 c0c0 6ab1 c5c0 e422 e3c0 de5c e8c0
00000380: a3bb d7c0 b166 dfc0 7a35 d2c0 241c d9c0
00000390: 3a2f e6c0 fafa ecc0 7fe5 e6c0 5add ecc0
000003a0: 1afb e8c0 e144 efc0 35a6 d8c0 5eb7 dcc0
000003b0: 31ce dcc0 e204 e2c0 be9e d5c0 42ad dac0
000003c0: 78d2 d7c0 b8b6 dec0 f431 cfc0 b634 d5c0
000003d0: 0e79 c8c0 ecaf cbc0 56f0 ecc0 0899 f3c0
000003e0: bc01 e0c0 87ec e6c0 86d3 d8c0 dac6 dfc0
000003f0: af65 d4c0 b8cd d7c0 69a2 0ec1 781b 14c1
