code/models/InterGVAE_para_melt_v1.pt (torch, 136475 bytes, 16 tensors)

bias f4 [4]
0	0x3e2b32cb	0.16718595
1	0x3effd1f5	0.49964872
2	0xbe575dbe	-0.21031854
3	0xbe3b6a00	-0.18302155

weight f4 [4, 3]
0	0x3e2b86c8	0.16750634
1	0x3e9a8071	0.30176118
2	0x3dcbb167	0.09945946
3	0x3f2ffa3c	0.687412
4	0x3e8a2a84	0.26985562
5	0x3d3920e8	0.045197397
6	0xbdbc647b	-0.09198853
7	0xbdabcd4c	-0.08388767
8	0xbe11a8e5	-0.14224584
9	0x3fb7f3e0	1.43713
10	0x3f5f19c0	0.87148666
11	0x3f209333	0.6272461

bias f4 [2]
0	0xbff2336e	-1.8921945
1	0xbfc6767c	-1.5504909

weight f4 [2, 4]
0	0x3f5dc26a	0.8662478
1	0x3f975d0f	1.1825274
2	0x3fd14427	1.6348923
3	0xbf29f985	-0.6639636
4	0xbf09b4c4	-0.5379145
5	0xbe472309	-0.19446959
6	0x3fe8d49e	1.8189886
7	0x3f619c30	0.8812895

weight f4 [1, 2]
0	0x3ee13697	0.4398696
1	0x3d54e68d	0.051977683

weight f4 [1, 2]
0	0x3bab0484	0.005219044
1	0x3b1094cc	0.0022061346

bias f4 [2]
0	0x3f07e94d	0.53090364
1	0x3f1d888f	0.61536497

weight f4 [2, 2]
0	0x404a99b8	3.1656322
1	0xbf00554d	-0.5013016
2	0x407154a5	3.7707913
3	0x3e9d384e	0.3070702

bias f4 [2]
0	0xc00c1676	-2.188871
1	0xc02ebb2a	-2.7301736

weight f4 [2, 2]
0	0x40825e7c	4.0740337
1	0xbf4c3a2f	-0.7977628
2	0x402b4342	2.67598
3	0xbfc72d2d	-1.5560662

bias f4 [6]
0	0x3eefe535	0.4685456
1	0x3f86f623	1.0543865
2	0x3e73dbcc	0.23814315
3	0x3f07dc4f	0.5307054
4	0x3e546a23	0.20743613
5	0x3eef81d8	0.4677875

weight f4 [6, 2]
0	0xbf073eae	-0.52830017
1	0xbe733ead	-0.23754378
2	0x3f56e732	0.83946526
3	0x3f491853	0.7855274
4	0xbf11c9f0	-0.5694876
5	0x3f75b050	0.95972157
6	0x3f5b5775	0.85680324
7	0x3fe14c14	1.7601342
8	0xbec51898	-0.38495326
9	0x3edc7c04	0.43063366
10	0xbf1ed919	-0.62050015
11	0xbf081f75	-0.53173

bias f4 [3]
0	0x3feb6331	1.8389646
1	0x3fd747fd	1.6818844
2	0x3ff1d729	1.8893787

weight f4 [3, 6]
0	0x3f0a3c8d	0.53998643
1	0xbfa077db	-1.2536577
2	0x3f920e9b	1.1410707
3	0xbfc4b9cd	-1.5369202
4	0x3cb11af5	0.0216193
5	0xbf329afc	-0.6976774
6	0x3f43d8b5	0.76502544
7	0x3e9e2e42	0.30894667
8	0x3eb592fd	0.35463706
9	0xbf891bb6	-1.0711582
10	0x3f0d67a9	0.552363
11	0xbefbda07	-0.4918978
12	0xbf96b358	-1.1773481
13	0x3fb2697a	1.3938439
14	0x3f4c6f18	0.79857016
15	0x4027cd7b	2.6219165
16	0x3d4295ae	0.047506027
17	0xbfcd3b0e	-1.6033647

__mu__ f4 [864, 2]
0	0xbfd4cee6	-1.662564
1	0x3f1cfb71	0.6132117
2	0xc01340ce	-2.3008304
3	0x3fd1966e	1.6374032
4	0xbfb2c694	-1.3966851
5	0x3f4eca8d	0.8077782
6	0xbf3f7e69	-0.7480226
7	0x3f1bb041	0.6081582
8	0xbfa9215c	-1.3213305
9	0x3f679101	0.90455633
10	0xbf0ed861	-0.5579892
11	0xbdbbddc8	-0.09173161
12	0xc00c8f41	-2.1962435
13	0x3f9f2dd3	1.243586
14	0xc054e5fd	-3.3265374
15	0x400cdee2	2.2011037
16	0xc03bf065	-2.9365475
17	0x3fde260a	1.7355359
18	0xbf0c727b	-0.54862183
19	0xbd06eff0	-0.032943666
20	0xc0101dce	-2.2518191
21	0x3f938c03	1.1527103
22	0xc03aa798	-2.916479
23	0x3ffff884	1.9997716
24	0xc0143752	-2.3158765
25	0x3faf2a79	1.3684837
26	0xc0070f1c	-2.1102972
27	0x3f48cc36	0.784366
28	0xbf32d2a9	-0.6985269
29	0x3eb5bcb6	0.35495538
30	0xc0498aff	-3.1491086
31	0x40081556	2.1263022
32	0xbe43ca9c	-0.19120258
33	0xbea98d78	-0.33115745
34	0xbffbca5c	-1.967113
35	0x3faff422	1.3746378
36	0xc0073b64	-2.113
37	0x3fb92372	1.4463942
38	0xbf41dea1	-0.7573033
39	0x3e970329	0.29494599
40	0xbf951700	-1.1647644
41	0x3f558b7d	0.8341597
42	0xc02ff96c	-2.7495985
43	0x3fee694a	1.8625882
44	0xbf8cb6f0	-1.0993328
45	0x3eb73917	0.35785744
46	0xc02b2106	-2.6738906
47	0x3fea9658	1.8327131
48	0xbfed0f16	-1.8520229
49	0x3f3aab00	0.72917175
50	0xc0177e7a	-2.3670945
51	0x3fc5fee6	1.5468414
52	0xbe659fb4	-0.22424203
53	0xbd7d9c70	-0.06191677
54	0xbffb2f8e	-1.9623888
55	0x3fa2765a	1.2692368
56	0xbff424b2	-1.9073699
57	0x3f9e8ab0	1.2386074
58	0xbf828a1e	-1.01984
59	0x3e8e428e	0.27785152
60	0xbf963c36	-1.1737125
61	0x3f5dccba	0.8664051
62	0xbfae4016	-1.3613307
63	0x3f7cffd2	0.9882785
64	0xc002b23d	-2.0421288
65	0x3f658522	0.8965627
66	0xbfcbba02	-1.591614
67	0x3f6574f8	0.89631605
68	0xc04bb1b0	-3.1827202
69	0x3fefd4d2	1.8736823
70	0xbfca21bc	-1.5791545
71	0x3f2b5300	0.6692352
72	0xc007d327	-2.1222627
73	0x3f7857aa	0.97008765
74	0xc00c615f	-2.193443
75	0x3fc473c2	1.5347826
76	0xbfc131e2	-1.5093348
77	0x3efdc074	0.49560893
78	0xbf92c4ee	-1.1466348
79	0x3da59cd0	0.0808655
80	0xbf70ab31	-0.9401122
81	0x3ed6a203	0.4192048
82	0xc012de85	-2.2948315
83	0x3fcf5e46	1.6200645
84	0xc00054e9	-2.0051825
85	0x3fbaf14d	1.4604889
86	0xbfa58808	-1.2932138
87	0x3f89b124	1.0757184
88	0xbf9569a4	-1.1672864
89	0x3eb7fb76	0.35934037
90	0xbe48ee68	-0.19622195
91	0xbd7b6f70	-0.061385572
92	0xc0174d6b	-2.3641002
93	0x3fca9eaa	1.582967
94	0xc04f8630	-3.2425652
95	0x3fca9b80	1.5828705
96	0xc03eb618	-2.9798641
97	0x3fe84716	1.8146694
98	0xc021ef96	-2.5302482
99	0x3fd38f34	1.6528077
100	0xbfbbe9a2	-1.4680674
101	0x3f9883ba	1.19152
102	0xbfc840e0	-1.5644798
103	0x3f487bc4	0.7831385
104	0xbffe10e4	-1.9848905
105	0x3f9a7382	1.20665
106	0xbf5db8ab	-0.86609906
107	0x3f0c95f5	0.54916316
108	0xbf8f87f6	-1.1213367
109	0x3f4ae537	0.79256004
110	0xc037cbbb	-2.8718097
111	0x3fbd5122	1.4790385
112	0xbf2a73cd	-0.6658295
113	0x3efe1efe	0.4963302
114	0xc02835a7	-2.6282747
115	0x3fdbee9a	1.718219
116	0xbf62a4cf	-0.8853273
117	0x3f4da03c	0.80322623
118	0xc069e23d	-3.6544335
119	0x3fd50480	1.6641998
120	0xbee96bd6	-0.45590085
121	0x3eb01aed	0.34395543
122	0xbd99cce0	-0.0750978
123	0xbd4af1d0	-0.049547017
124	0xc047df7c	-3.1230154
125	0x3ff2aeae	1.8959558
126	0xbfff64d6	-1.9952648
127	0x3f85a97c	1.0442348
128	0xbf686edd	-0.90794164
129	0x3f1b32ed	0.6062458
130	0xc00dd57b	-2.2161548
131	0x3fa51496	1.2896907
132	0xbf821840	-1.016365
133	0x3f4a458f	0.7901239
134	0xc00c4eac	-2.1923018
135	0x3fd1409a	1.634784
136	0xbf91bf72	-1.138655
137	0x3f45a596	0.7720579
138	0xbf360c1b	-0.7111222
139	0xbd80f100	-0.06295967
140	0xbf8e0184	-1.1094213
141	0x3f2c5be3	0.6732771
142	0xc06609c3	-3.5943458
143	0x3fb2234a	1.3917019
144	0xc02147c1	-2.5200045
145	0x3fc1b5fa	1.513366
146	0xbf9972a0	-1.1988106
147	0x3f36c244	0.71390176
148	0xc030624a	-2.755999
149	0x3fefc526	1.873204
150	0xc05579c7	-3.3355577
151	0x400d8f78	2.2118816
152	0xbe8fc79c	-0.28081977
153	0x3e16d4e2	0.14729646
154	0xbfaef164	-1.3667417
155	0x3f8d4d36	1.1039188
156	0xbfda7b00	-1.7068787
157	0x3f5e4e5a	0.86838305
158	0xbdd2cf30	-0.10293424
159	0xbda435e0	-0.08018088
160	0xc024aa0b	-2.5728786
161	0x3febbf42	1.8417742
162	0xbfe028ba	-1.7512429
163	0x3fa404ea	1.2814
164	0xbff8fa82	-1.9451449
165	0x3f7c1c12	0.9848033
166	0xbff2134e	-1.8912141
167	0x3f95b4d6	1.1695812
168	0xc0445d3f	-3.0681913
169	0x40077d29	2.1170142
170	0xc0510cc3	-3.266404
171	0x3ff2918e	1.895067
172	0xbd2f2320	-0.042758107
173	0xbc55c080	-0.013046384
174	0xbe9af1c2	-0.30262572
175	0x3e85e596	0.26151723
176	0xc02e89a4	-2.727151
177	0x3ff0eca4	1.8822217
178	0xbfdf1fb0	-1.7431545
179	0x3f80249a	1.001117
180	0xbf075163	-0.5285856
181	0xbdffec10	-0.12496197
182	0xc0371972	-2.860928
183	0x3fe92842	1.8215411
184	0xc06d6f7f	-3.7099302
185	0x3ff24866	1.8928344
186	0xbf2129bf	-0.62954324
187	0x3e2749aa	0.16336694
188	0xbff4f50a	-1.913728
189	0x3f7c7690	0.9861841
190	0xbf7e91bb	-0.9944112
191	0x3f5e58fc	0.8685453
192	0xc0103275	-2.2530797
193	0x3fc863ef	1.5655497
194	0xc03510ab	-2.8291423
195	0x3fcc6fba	1.5971596
196	0xbf8e1104	-1.1098943
197	0x3f61341e	0.8797015
198	0xc0471015	-3.1103566
199	0x3fb688f8	1.426055
200	0xbfcaf89a	-1.5857117
201	0x3f5d1540	0.8636055
202	0xbf8b8012	-1.0898459
203	0x3f4b638c	0.7944877
204	0xc00cf5ce	-2.2025027
205	0x3fc7e41a	1.5616486
206	0xbfc1487e	-1.5100248
207	0x3f5ec500	0.8701935
208	0xc02f03d6	-2.7346091
209	0x3ff2effa	1.8979485
210	0xbfcc58f8	-1.5964651
211	0x3f978521	1.1837503
212	0xbed796e4	-0.42107308
213	0xbe90853c	-0.2822665
214	0xbfaf7aac	-1.3709311
215	0x3f3ecf2b	0.74534863
216	0xc0243589	-2.5657675
217	0x3fc04671	1.5021497
218	0xbf3f0261	-0.74613005
219	0x3e68b3f6	0.227249
220	0xc032b88f	-2.7925146
221	0x3f9b851d	1.2149998
222	0xbfd23256	-1.6421611
223	0x3f89223f	1.0713576
224	0xbfe1771a	-1.7614472
225	0x3f4ddfa3	0.8041937
226	0xc03563fc	-2.8342276
227	0x3fbc1b56	1.4695842
228	0xc05604bc	-3.344039
229	0x3fdd6564	1.7296567
230	0xc01876bd	-2.3822472
231	0x3f8665cc	1.0499816
232	0xbddfcd40	-0.1092782
233	0xbe248448	-0.16066086
234	0xc03beb29	-2.936228
235	0x3f9acf20	1.209446
236	0xbfa3cc88	-1.2796793
237	0x3f5ec2b8	0.8701587
238	0xc036af6a	-2.8544564
239	0x3fa9aeb2	1.3256438
240	0xc089cb9d	-4.306105
241	0x4020e46b	2.5139415
242	0xbf4d17d7	-0.801145
243	0x3f42c6af	0.7608442
244	0x3b051100	0.0020304322
245	0xbe5b73b8	-0.21430862
246	0xc04f75cb	-3.2415645
247	0x400b6970	2.1783104
248	0xbff7e624	-1.9367108
249	0x3f0a9f8f	0.5414972
250	0xbe7d8e70	-0.24761367
251	0xbea67668	-0.32512212
252	0xbfde35ae	-1.7360132
253	0x3f968001	1.1757814
254	0xc02ceaff	-2.701843
255	0x3fb77ae3	1.4334377

__logstd__ f4 [864, 2]
0	0xc0ae79f0	-5.452385
1	0xc0fb506e	-7.853568
2	0xc0d26647	-6.574985
3	0xc12a0b40	-10.627747
4	0xc0a2ddf9	-5.0895963
5	0xc0ef3a47	-7.475864
6	0xc082e6fa	-4.0906954
7	0xc0b6b81c	-5.7099743
8	0xc09fcd3c	-4.993803
9	0xc0ed7874	-7.4209538
10	0xc06c25b0	-3.6898003
11	0xc08c7622	-4.3894205
12	0xc0cb4ae5	-6.3528924
13	0xc11e3e1c	-9.890163
14	0xc103245c	-8.196377
15	0xc15bb0fa	-13.730707
16	0xc0f13327	-7.537494
17	0xc143c7dc	-12.236294
18	0xc06be3e3	-3.685784
19	0xc08e1de2	-4.441148
20	0xc0cd72b4	-6.420252
21	0xc11e7ff8	-9.906242
22	0xc0f1abde	-7.55223
23	0xc148531a	-12.520288
24	0xc0d1a9df	-6.551986
25	0xc12537e8	-10.326149
26	0xc0c4b850	-6.147499
27	0xc111d3f2	-9.114244
28	0xc07e5b1e	-3.9743114
29	0xc0a8df09	-5.277226
30	0xc0fd6e7d	-7.9197373
31	0xc1538ee8	-13.222389
32	0xc046a198	-3.103613
33	0xc04ee002	-3.2324224
34	0xc0c11711	-6.0340657
35	0xc1184d04	-9.518803
36	0xc0c86c98	-6.263256
37	0xc11f318c	-9.949596
38	0xc081a70e	-4.0516424
39	0xc0aadcac	-5.3394375
40	0xc097f768	-4.748951
41	0xc0def0e6	-6.9669065
42	0xc0e8fbf7	-7.2807574
43	0xc13f5604	-11.9585
44	0xc0924744	-4.5711994
45	0xc0c6f60e	-6.217536
46	0xc0e537ce	-7.163062
47	0xc13be814	-11.74416
48	0xc0b81fb7	-5.7538714
49	0xc1071090	-8.441544
50	0xc0d510cf	-6.658302
51	0xc12ab508	-10.669197
52	0xc04caf97	-3.1982172
53	0xc069651c	-3.6467962
54	0xc0c04bbf	-6.0092463
55	0xc1160329	-9.3757715
56	0xc0bd82bc	-5.922209
57	0xc1135766	-9.2088375
58	0xc08e0fa9	-4.4394116
59	0xc0bdcf74	-5.931574
60	0xc0989110	-4.767708
61	0xc0e0e6fe	-7.0281973
62	0xc0a22894	-5.0674534
63	0xc0f3d11c	-7.619276
64	0xc0c2147b	-6.065
65	0xc11186e6	-9.095434
66	0xc0aca082	-5.3945932
67	0xc100ad30	-8.042282
68	0xc0fdaaee	-7.9271154
69	0xc14fc0e2	-12.984591
70	0xc0aaceaa	-5.3377275
71	0xc0f75251	-7.7287984
72	0xc0c64af3	-6.196649
73	0xc115ff18	-9.374779
74	0xc0ccbb60	-6.397873
75	0xc123f8f0	-10.248276
76	0xc0a68b86	-5.2045317
77	0xc0eb247d	-7.348204
78	0xc09308e4	-4.5948353
79	0xc0bf6616	-5.9812117
80	0xc08b073e	-4.344634
81	0xc0bd8330	-5.922264
82	0xc0d2052e	-6.5631323
83	0xc12978e4	-10.592014
84	0xc0c35dd2	-6.1052027
85	0xc11b71c8	-9.715279
86	0xc09f6326	-4.980853
87	0xc0f23a0e	-7.5695868
88	0xc09585a7	-4.672565
89	0xc0cc1a34	-6.3781986
90	0xc04a05f2	-3.1566129
91	0xc0653f25	-3.581979
92	0xc0d51e41	-6.659943
93	0xc12b51aa	-10.7074375
94	0xc0fef255	-7.9670815
95	0xc14c2a14	-12.760273
96	0xc0f3b095	-7.6153054
97	0xc146fc66	-12.436621
98	0xc0dd681e	-6.9189596
99	0xc132ee50	-11.183182
100	0xc0a856ac	-5.26058
101	0xc101f8c0	-8.12323
102	0xc0aab946	-5.3351164
103	0xc0fac9dc	-7.837141
104	0xc0c10780	-6.0321655
105	0xc1159987	-9.349982
106	0xc08834ba	-4.2564363
107	0xc0bd2f6c	-5.912039
108	0xc095ac84	-4.677309
109	0xc0da06bd	-6.8133225
110	0xc0ecbb62	-7.397874
111	0xc13c3886	-11.7638
112	0xc07cc4e8	-3.9495182
113	0xc0ac175e	-5.3778524
114	0xc0e26d77	-7.0758624
115	0xc137e82a	-11.494181
116	0xc08a7e62	-4.3279276
117	0xc0c8cdde	-6.2751303
118	0xc1097fab	-8.593669
119	0xc15d31c0	-13.824646
120	0xc06721a0	-3.6114273
121	0xc096493b	-4.6964393
122	0xc03e9dc0	-2.9783783
123	0xc054144d	-3.313739
124	0xc0faf1f2	-7.8420343
125	0xc14df79e	-12.872953
126	0xc0c0a566	-6.0201902
127	0xc112bbc2	-9.170839
128	0xc08a81b3	-4.3283324
129	0xc0c29a12	-6.0813074
130	0xc0cc7d5b	-6.390302
131	0xc11fe930	-9.994431
132	0xc090a994	-4.5207005
133	0xc0d2141e	-6.5649557
134	0xc0cd37bb	-6.413053
135	0xc125eef2	-10.370836
136	0xc0966347	-4.699619
137	0xc0da7ff8	-6.828121
138	0xc07b0a8b	-3.9225185
139	0xc09910f4	-4.7833195
140	0xc094765a	-4.639447
141	0xc0d45af3	-6.636102
142	0xc1075510	-8.458267
143	0xc1557cdc	-13.342983
144	0xc0dc2a73	-6.880182
145	0xc12fc104	-10.984623
146	0xc098f026	-4.779315
147	0xc0dcab05	-6.8958764
148	0xc0e958ac	-7.292074
149	0xc13fc9bc	-11.986752
150	0xc10362ca	-8.211618
151	0xc15c3e9c	-13.7652855
152	0xc0545573	-3.3177154
153	0xc0814ff1	-4.0410085
154	0xc0a30a6c	-5.095022
155	0xc0f8db01	-7.776734
156	0xc0b1f6ee	-5.561393
157	0xc1046d42	-8.276674
158	0xc040efad	-3.0146286
159	0xc055c99e	-3.3404307
160	0xc0e07507	-7.0142856
161	0xc1384fa4	-11.5194435
162	0xc0b64ec2	-5.697114
163	0xc10e5c68	-8.89756
164	0xc0bdf048	-5.935581
165	0xc10fab27	-8.979285
166	0xc0bc5e5d	-5.886519
167	0xc1115ab2	-9.084642
168	0xc0f9874b	-7.7977653
169	0xc15058b2	-13.021654
170	0xc100e248	-8.055244
171	0xc1534f9e	-13.206938
172	0xc03bee44	-2.9364176
173	0xc0522af0	-3.2838707
174	0xc057a4ea	-3.3694406
175	0xc0878526	-4.2350035
176	0xc0e8057d	-7.25067
177	0xc13ee3da	-11.930628
178	0xc0b468a4	-5.6377735
179	0xc1087154	-8.527668
180	0xc068fcf7	-3.6404397
181	0xc088ee52	-4.279092
182	0xc0ee104a	-7.4394884
183	0xc142ad26	-12.167273
184	0xc10b6ff8	-8.714836
185	0xc163d9b6	-14.240652
186	0xc075b78c	-3.8393278
187	0xc09c08f4	-4.876093
188	0xc0bc733b	-5.889066
189	0xc10e8582	-8.907595
190	0xc0900a66	-4.5012693
191	0xc0d3944f	-6.611854
192	0xc0cfbcde	-6.491805
193	0xc126d19c	-10.426174
194	0xc0eb5698	-7.3543205
195	0xc13cfdf8	-11.812004
196	0xc0959986	-4.6749907
197	0xc0dca9a1	-6.8957067
198	0xc0f7cdf0	-7.743889
199	0xc1441430	-12.254929
200	0xc0ac2b56	-5.38029
201	0xc0ff99cf	-7.9875255
202	0xc0942f52	-4.6307764
203	0xc0d7bfa3	-6.742143
204	0xc0cd4ef5	-6.4158883
205	0xc124d976	-10.303091
206	0xc0a899d8	-5.2687798
207	0xc0fa3468	-7.8188972
208	0xc0e87624	-7.2644215
209	0xc13f7be8	-11.967751
210	0xc0ae690e	-5.450324
211	0xc1069df4	-8.413563
212	0xc05d0ce4	-3.4539118
213	0xc0752ca4	-3.8308496
214	0xc0a14db9	-5.0407376
215	0xc0eaccc9	-7.337498
216	0xc0de48c7	-6.946384
217	0xc1313d8c	-11.077526
218	0xc080c141	-4.0235906
219	0xc0a7504a	-5.228551
220	0xc0e787bc	-7.235319
221	0xc133f726	-11.247839
222	0xc0affaae	-5.4993505
223	0xc10612e0	-8.379608
224	0xc0b4375a	-5.631757
225	0xc1052e5a	-8.323816
226	0xc0eae431	-7.3403554
227	0xc13aa046	-11.664129
228	0xc102491c	-8.142849
229	0xc152e652	-13.181231
230	0xc0d31a8c	-6.5969906
231	0xc121518a	-10.082407
232	0xc040abca	-3.0104852
233	0xc050494d	-3.254474
234	0xc0ee57e0	-7.448227
235	0xc1393a54	-11.57674
236	0xc09da1f5	-4.92602
237	0xc0e8fa30	-7.2805405
238	0xc0eb13c3	-7.3461623
239	0xc1387f9a	-11.531153
240	0xc11b4ef0	-9.706772
241	0xc1834b26	-16.411694
242	0xc08641a2	-4.195512
243	0xc0c0cf74	-6.025324
244	0xc0357dce	-2.8358035
245	0xc03b56b2	-2.9271665
246	0xc1010eb4	-8.06609
247	0xc1580eae	-13.503584
248	0xc0bb248e	-5.8482122
249	0xc1067894	-8.404438
250	0xc04c118c	-3.188571
251	0xc057cbc4	-3.3718119
252	0xc0b50316	-5.6566267
253	0xc10bacdf	-8.729705
254	0xc0e4647d	-7.1372666
255	0xc134f3a6	-11.3094845
