code/models/InterGVAE_para_crystal_v1.pt (torch, 144567 bytes, 16 tensors)

bias f4 [4]
00000000: 1d52 c6bf 5e94 fbbf 15c3 1abf 6815 49bf
-1.5493809 -1.9654653 -0.6045392 -0.7854829

weight f4 [4, 3]
00000000: f2b5 c23f dad6 25bf e35f 92bf c324 96bf
00000010: 2887 e23e e27c 0bbf c21a aa3b b986 8b3d
00000020: b97c 223f c6c1 043f 0b58 743f 4b3c cf3d
1.5211775 -0.6478096 -1.1435512 -1.1729969 0.4424374 -0.5448743 0.005191178 0.06812806
0.6347156 0.51858175 0.9544684 0.10118922

bias f4 [2]
00000000: 9f6d 273f d19c c6be
0.65401644 -0.38791516

weight f4 [2, 4]
00000000: 4dd3 30c0 8292 52bf c3b6 523f 3524 c63e
00000010: 849d 533d e20d cabf 13ce 013e 11f0 293f
-2.7628968 -0.82254803 0.8231012 0.386995 0.05166389 -1.5785487 0.12676267 0.6638194

weight f4 [1, 2]
00000000: 7525 93be 5a7b 813e
-0.28739515 0.25289422

weight f4 [1, 2]
00000000: a555 26bf 9bd0 2b3f
-0.64974433 0.6711518

bias f4 [2]
00000000: de72 0c3f 93e0 e5bf
0.54862773 -1.795916

weight f4 [2, 2]
00000000: 90e1 fabe 17c2 fcbf a721 0c40 9525 e1bf
-0.49000216 -1.9746732 2.189554 -1.7589594

bias f4 [2]
00000000: 7732 61bf a575 9dbf
-0.8796763 -1.2301527

weight f4 [2, 2]
00000000: c017 a0bf d7a1 cbbf 3f9d 46bf a219 db3d
-1.2507248 -1.5908765 -0.7758369 0.106982484

bias f4 [6]
00000000: d540 bbbe 2a8d ae3f 1f07 a4bf adb3 e93e
00000010: 2405 3b3e 27df 66bf
-0.365729 1.363683 -1.2814673 0.45644894 0.1826368 -0.90184253

weight f4 [6, 2]
00000000: acd6 f5be e2a1 793e d172 46bb 9f9b 663e
00000010: 6561 3bbe ad37 a83f c01e b7bf ad4f 2bbf
00000020: 2231 92bf 6649 f73e d2f4 32bf 2ad1 eabe
-0.48015344 0.2437816 -0.0030280838 0.22520302 -0.18298872 1.3141991 -1.4306259 -0.6691845
-1.1421244 0.48298186 -0.69904816 -0.45862705

bias f4 [3]
00000000: 5604 0f40 e027 e63f d206 fd3f
2.2346396 1.7980919 1.9767706

weight f4 [3, 6]
00000000: 7a05 6abe d2bd 8fbf f159 443f efb5 553f
00000010: 73e5 d0be a092 6fbf 0e70 8ebf 6d82 94bf
00000020: 1e76 c7be 99bc 62be 3efe 913f 5c17 333e
00000030: 5ad7 3abf ba5d 9abe 9ed6 323f d2a3 46be
00000040: 7d03 d43e 8c45 8b3e
-0.22853652 -1.1229804 0.7669974 0.83480734 -0.40800056 -0.93583107 -1.1127946 -1.1602303
-0.38957304 -0.22142257 1.1405714 0.1748938 -0.7298485 -0.30149633 0.6985873 -0.1939843
0.4140891 0.27201498

__mu__ f4 [864, 2]
00000000: 5aa4 acc0 c789 e1c0 000a a2c0 6f76 e6c0
00000010: 6252 57bf 00f9 273c 8ae5 d2c0 788b d1c0
00000020: 0ef5 4fc0 657e acc0 2cc2 45c0 fe3a a1c0
00000030: 5437 15c0 3a3c 0940 bed5 65bf c9b2 e63f
00000040: 61de e6bf c414 79c0 9662 2dc0 c670 4b40
00000050: b5c3 81bf 2ac8 2f40 cc6b eac0 00aa a53b
00000060: a2d9 3bc0 29e2 8040 3cef 8bbf 3c27 5340
00000070: c7c1 1cc1 be87 5c3f 8406 3dc0 4536 9a40
00000080: 35b7 97bf 8e1e 5840 78a5 15c1 d147 973f
00000090: 93fc 9ac0 958a 973f 9268 1ec0 caf1 533f
000000a0: cd6e dbbf 3c01 74c0 5c2b 90c0 7983 d53f
000000b0: 8cb7 0ec0 772b a73f d07b e0bd 4a1f 5a3f
000000c0: c2ba 67c0 c5cb e63f 1f67 d3bf b568 d33f
000000d0: e011 c7bd fda8 a23f 6463 59c0 a8e4 1540
000000e0: 4e6b b0bf c6eb 0540 c07e 423c fe81 673f
000000f0: dcae 7fc0 7cc2 5d40 d105 d2bf 606f 4140
00000100: 99da 09c1 4059 10bd 2c04 81c0 bfca 9440
00000110: 65b7 c7bf 088f 5f40 85bb 17c1 44fa e13e
00000120: 74ee b2c0 0edc 0c3f d0db 04c0 144d 933e
00000130: 6c88 64c0 401e b740 51b3 b1c0 656b 8d3f
00000140: 2a34 37c0 05da 813f 26f1 16bf 54f7 ee3e
00000150: 162b 9ac0 1d1e af3f 3898 23c0 a594 ac3f
00000160: 3c24 89be 105e 17be 9728 96c0 8830 1440
00000170: ea08 16c0 cb66 f43f b077 83bd e84b 71bf
00000180: d389 a5c0 56da 4240 acfd 05c0 87ee ce3f
00000190: 7ca2 ad3d 9c5e a3bf ad75 96c0 ca10 4b40
000001a0: 5351 f6bf 5532 b13f 6e71 18c1 1c3f 963e
000001b0: 144e cfc0 74f3 cb3e cc1b 4cc0 ac98 893e
000001c0: 506e 88c0 320d a040 68d4 d4c0 7e8f 5a3f
000001d0: e482 6fc0 70bc fbbd 36a4 6dc0 e66d 9340
000001e0: a8cd aac0 5621 5c3f e225 59c0 bb24 d5bf
000001f0: 3831 a7bd 947b 1bc0 215b a2c0 87ad 813f
00000200: 9eac 31c0 8f1e 2cc0 54cc c0be 5a4c 43c0
00000210: c681 95c0 fa35 103f be3a 19c0 85da 6dc0
00000220: 1eee a5be a4df 2fc0 b1b0 a6c0 8225 9dbf
00000230: fc5a 10c0 9294 8cc0 361c 09c1 fed4 d5bf
00000240: 8d1b 87c0 543c 92be 4865 efc0 3991 8340
00000250: 7a16 91c0 36a6 7140 4cf6 edc0 809d 8fbf
00000260: 9d44 0fc1 5ca4 9440 4715 bec0 b734 a040
00000270: 26ac d8c0 c2b8 6cc0 7044 52c0 4c49 a6c0
00000280: ef45 aec0 192b a840 1f1d aec0 a39a 98c0
00000290: b618 73c0 76fd bec0 b2fb 9bc0 441e a540
000002a0: 1236 a9c0 5113 b9c0 3ccf 7ac0 7cc8 bdc0
000002b0: 1504 a1bf 5c53 5ac0 27a9 a3c0 d009 c2c0
000002c0: bd57 85c0 d404 c2c0 d9c5 cdbf c2ee 6dc0
000002d0: 529c b5c0 4832 b2c0 ce17 0ec1 bf5f 8140
000002e0: 27fe 97c0 74bb 3240 5b2e bcc0 fbbe f0c0
000002f0: c3f2 11c1 1324 8c40 a0f5 81c0 66ca 2f40
00000300: b5ef a0c0 7132 e2c0 3ca3 ffc0 442d 8b40
00000310: 55ab a7c0 8842 8f40 0982 acc0 c9ad e7c0
00000320: f777 aec0 b6d1 4e40 b9fd b0c0 3779 9d40
00000330: aaad 91c0 ba96 cfc0 d350 82c0 3344 bdc0
00000340: 0ab8 e7c0 081a c340 ca75 a9c0 e185 ecc0
00000350: 4cef 7bc0 ee58 b9c0 d680 cfc0 03bf 8d40
00000360: 307f c5c0 e8d7 f6c0 2675 65c0 ee2b b3c0
00000370: 165c 09c1 c71a 22c1 875f a1c0 f5a2 dec0
00000380: bc1e 67c0 4ae9 b0c0 066b 34c1 0c54 1cc1
00000390: 8b40 91c0 6d0f ccc0 f611 1dc0 e3c7 8fc0
000003a0: 30b9 3cc1 13bb 03c1 5a7a a1bf e0ad 3540
000003b0: a061 ffc0 a2b5 623f 4c60 ccc0 acb8 983e
000003c0: 8cb6 04c0 a9aa 9240 72f3 28c1 cb22 fa3f
000003d0: ad8d dfc0 0600 403f 97c7 ebbf 25e9 9640
000003e0: 8514 0cc1 9ddd d13f 890e e0c0 81b3 aa3f
000003f0: 705a 2dc0 a662 6f3f de29 2dc0 fa4d 96c0
-5.3950624 -7.0480685 -5.0637207 -7.201957 -0.8411008 0.010252237 -6.59052 -6.548275
-3.249332 -5.390429 -3.0899763 -5.038451 -2.331502 2.144301 -0.8977927 1.8023311
-1.8036615 -3.8918924 -2.7091422 3.1787581 -1.013785 2.746592 -7.325659 0.005055666
-2.9351583 4.0276074 -1.0932384 3.2992697 -9.797309 0.86144626 -2.9535227 4.8191247
-1.1852785 3.376865 -9.352898 1.1818792 -4.843332 1.1839167 -2.4751325 0.82790816
-1.7143189 -3.8125753 -4.505293 1.6680747 -2.2299528 1.306014 -0.10961115 0.85203993
-3.6207738 1.8030936 -1.6515845 1.6516329 -0.09720206 1.2707821 -3.3966913 2.342081
-1.3782747 2.0925155 0.01187104 0.9043273 -3.9950476 3.4649954 -1.6408025 3.0224228
-8.615869 -0.035241365 -4.0317593 4.6497493 -1.5602843 3.493105 -9.483281 0.4413625
-5.591608 0.55023277 -2.0759163 0.28769743 -3.5708265 5.7224426 -5.553139 1.1048399
-2.8625588 1.0144659 -0.58961713 0.4667307 -4.8177595 1.3681065 -2.5561657 1.3482863
-0.26785457 -0.14781976 -4.692455 2.315462 -2.344294 1.909387 -0.06419313 -0.9425645
-5.1730742 3.0445762 -2.093608 1.6166543 0.08478257 -1.2763247 -4.7018647 3.1728997
-1.9243568 1.3843485 -9.527693 0.29345024 -6.478281 0.39834177 -3.1891966 0.26874292
-4.263466 5.0016108 -6.6509285 0.853752 -3.742364 -0.12291801 -3.7131476 4.6071653
-5.3376045 0.85988367 -3.3929372 -1.6651834 -0.081636846 -2.4294176 -5.073624 1.0131081
-2.7761607 -2.6893651 -0.3765589 -3.0515351 -4.6720915 0.5633236 -2.3942103 -3.7164624
-0.32408231 -2.748025 -5.209069 -1.2277071 -2.2555532 -4.393136 -8.569387 -1.6705625
-4.222113 -0.28561652 -7.4811134 4.1114774 -4.5339937 3.7757697 -7.4363155 -1.121994
-8.954251 4.6450634 -5.9400973 5.006435 -6.771014 -3.6987767 -3.285427 -5.1964474
-5.446037 5.255261 -5.441055 -4.7688766 -3.7983832 -5.96844 -4.8744745 5.1599445
-5.2878504 -5.783608 -3.9188986 -5.930723 -1.2579371 -3.4113379 -5.1143985 -6.063698
-4.1669602 -6.0630894 -1.6076003 -3.7176976 -5.675332 -5.568638 -8.880812 4.0429378
-4.7497745 2.7926912 -5.8806586 -7.523313 -9.121768 4.3794036 -4.0612335 2.7467284
-5.029261 -7.0686574 -7.988676 4.3492756 -5.2396646 4.4768715 -5.3908734 -7.239964
-5.452144 3.2315497 -5.530972 4.9210467 -4.552449 -6.4871492 -4.072366 -5.914575
-7.2412157 6.0969276 -5.2956285 -7.3913426 -3.9364805 -5.7921057 -6.484477 4.429567
-6.171776 -7.7138557 -3.5852752 -5.5991125 -8.584982 -10.131537 -5.042911 -6.957392
-3.6112509 -5.5284777 -11.276129 -9.770519 -4.539129 -6.376883 -2.4542212 -4.49315
-11.795212 -8.233172 -1.2615464 2.8387375 -7.980667 0.885584 -6.386755 0.29828393
-2.0736418 4.5833325 -10.559435 1.9541868 -6.9860444 0.75000036 -1.8420285 4.71596
-8.75501 1.6395756 -7.0017743 1.333603 -2.7086449 0.935099 -2.7056804 -4.6970186

__logstd__ f4 [864, 2]
00000000: 52d2 b5c0 d4c9 6bbf 8498 a8c0 8f42 4dbf
00000010: 1c75 3fc0 5670 05c0 0ff6 e4c0 6ecc aabf
00000020: 05b7 77c0 54b4 75bf 3be1 73c0 f22b 84bf
00000030: 2e42 aac0 d5f6 43c0 84d1 68c0 3646 29c0
00000040: 7092 31c0 241f 8dbf f64a c2c0 4276 5dc0
00000050: 8a53 82c0 985b 3dc0 888c 21c1 bace 5fc0
00000060: cb12 d3c0 f636 71c0 a8e0 8ac0 2646 49c0
00000070: 855b 51c1 e084 89c0 2ff9 dbc0 8079 80c0
00000080: 37ea 8ec0 5613 4cc0 4c3c 4bc1 4d8d 89c0
00000090: c055 f8c0 543a 54c0 b490 a1c0 c839 2cc0
000000a0: bcf5 2cc0 17bb 8dbf 8887 f1c0 befa 58c0
000000b0: 0bf4 9dc0 8e27 32c0 81b5 1dc0 d6b1 0bc0
000000c0: 91ea d3c0 7e47 4fc0 2446 8dc0 0ed8 30c0
000000d0: ed92 25c0 ccb5 13c0 e4ad d1c0 68b1 56c0
000000e0: 8649 88c0 04a7 35c0 5447 16c0 b405 0bc0
000000f0: 8560 f2c0 f8ff 74c0 9f31 9bc0 ea7f 4bc0
00000100: aef6 37c1 2405 71c0 d502 00c1 1157 86c0
00000110: 8447 9dc0 a294 53c0 f3a8 49c1 9538 83c0
00000120: f9fb 05c1 9646 52c0 f3ed 8dc0 9017 1cc0
00000130: 930b fbc0 f39c 8dc0 bc33 08c1 a095 5cc0
00000140: 4a19 b1c0 7547 35c0 1657 37c0 53db 0ac0
00000150: fa5b f9c0 1279 57c0 c3d5 a9c0 4a88 37c0
00000160: 60f3 13c0 2cb3 f4bf 97d8 fec0 2040 68c0
00000170: c341 a8c0 828c 3fc0 182c eabf 2aef cfbf
00000180: 4fa7 0bc1 c436 7dc0 5d69 9cc0 b153 36c0
00000190: 1259 c7bf 4cb9 bebf 4c0f 04c1 3026 79c0
000001a0: 7a0d 94c0 3c6c 2fc0 d7aa 49c1 a815 82c0
000001b0: 97bd 14c1 0ead 5bc0 b7c6 b4c0 e540 2bc0
000001c0: c5e8 05c1 9665 8bc0 a824 1ac1 88fd 66c0
000001d0: 6917 c4c0 e44f 2bc0 5e67 f4c0 7fb3 83c0
000001e0: 2025 03c1 88c9 54c0 fdbf a7c0 1447 08c0
000001f0: c895 aebf fe44 96bf 4ca1 fec0 c219 54c0
00000200: 9d6f 87c0 fc49 d7bf ae00 bebf e12a 86bf
00000210: 31db ebc0 f2b3 45c0 92a7 5ec0 0976 a4bf
00000220: ce4d c3bf db92 90bf ef01 ecc0 ae2b 2ac0
00000230: 0dd0 46c0 8720 86bf b59e 2ec1 7c64 50c0
00000240: 4f38 d3c0 e2d2 2ec0 deb0 39c1 a223 99c0
00000250: 9742 04c1 554c 81c0 919c 1dc1 ca4f 4bc0
00000260: 6a4e 56c1 fda1 a8c0 df55 23c1 cf23 97c0
00000270: a981 04c1 daa3 0fc0 1a4b 7ec0 3272 83bf
00000280: 29f8 1bc1 5620 96c0 2735 cfc0 5851 d0bf
00000290: a915 89c0 f221 67bf 1373 11c1 0e35 91c0
000002a0: 1840 bfc0 315b a4bf 66b4 8dc0 f2ce 70bf
000002b0: 6e51 15c0 58b0 90bf e73e b6c0 da8f 94bf
000002c0: 2006 95c0 4f4c 74bf 1d74 27c0 b676 8ebf
000002d0: 0b15 cfc0 6a93 b7bf d4e0 51c1 ab3b a2c0
000002e0: c1ea 02c1 ec61 72c0 29e5 c1c0 beb6 61bf
000002f0: bedb 57c1 2c34 a7c0 d934 edc0 9ee0 67c0
00000300: 11c7 a8c0 85c3 55bf e3d4 43c1 4501 9fc0
00000310: 7f4a 14c1 6f13 8dc0 50ac b3c0 5a8b 5cbf
00000320: b985 11c1 c161 82c0 3db7 1bc1 7473 93c0
00000330: d81e 9ec0 fea3 68bf 6641 93c0 d3a2 7abf
00000340: b6d6 3fc1 f0e0 aac0 f6c0 aec0 5a63 4bbf
00000350: 64c4 8fc0 e3a1 7cbf 7fdf 29c1 074c 95c0
00000360: 1c1e cac0 400e 63bf 7c76 85c0 fc20 78bf
00000370: 78c4 02c1 869d 2cbf b76a aac0 923a 5fbf
00000380: 501c 87c0 841a 7fbf 70d7 33c1 eb84 afbf
00000390: afcd 9ec0 ba85 70bf 59a9 52c0 4cc2 87bf
000003a0: 31f6 44c1 2e21 fabf 10fa 8bc0 cc9d 42c0
000003b0: 8fa0 31c1 382a 7ac0 229d 12c1 4271 58c0
000003c0: b9a7 bac0 fa0f 70c0 bd6b 64c1 1785 99c0
000003d0: 877a 1fc1 0ca3 69c0 60ea b3c0 b26c 6fc0
000003e0: 5d23 43c1 3bdb 89c0 50cc 22c1 d444 75c0
000003f0: 79df aac0 6a94 31c0 f70b 60c0 58cd 86bf
-5.681924 -0.9210484 -5.2686176 -0.80179685 -2.9915228 -2.0849814 -7.1550364 -1.3343637
-3.8705456 -0.95978284 -3.810622 -1.0325911 -5.3205786 -3.0619404 -3.6377878 -2.6449103
-2.7745628 -1.1025128 -6.0716505 -3.460343 -4.0726976 -2.9587154 -10.096809 -3.4969926
-6.596044 -3.7689795 -4.339924 -3.1449065 -13.084844 -4.29747 -6.874168 -4.0148315
-4.4660907 -3.1886802 -12.702221 -4.2984986 -7.7604675 -3.31606 -5.048914 -2.6910267
-2.7024984 -1.107272 -7.5477943 -3.390304 -4.9360404 -2.7836642 -2.4642031 -2.1827292
-6.6223836 -3.2387385 -4.414812 -2.763187 -2.5870926 -2.307971 -6.552477 -3.354578
-4.258975 -2.8383188 -2.3481035 -2.172223 -7.574282 -3.828123 -4.8498073 -3.1796823
-11.497725 -3.7659388 -8.000691 -4.198128 -4.91498 -3.3059468 -12.603747 -4.100657
-8.374017 -3.2855582 -4.4352965 -2.4389381 -7.845163 -4.425409 -8.51263 -3.4466324
-5.534337 -2.8324864 -2.8646903 -2.1696365 -7.7924776 -3.3667645 -5.307344 -2.8676934
-2.3117294 -1.9117179 -7.963939 -3.6289139 -5.2580276 -2.992951 -1.8294706 -1.6244862
-8.728347 -3.9564676 -4.8878617 -2.848858 -1.5574057 -1.4900298 -8.253735 -3.8929558
-4.626645 -2.740981 -12.604209 -4.0651436 -9.296287 -3.4324374 -5.649257 -2.6758358
-8.3693285 -4.3561506 -9.633949 -3.6092243 -6.1278577 -2.6767511 -7.637618 -4.115661
-8.196564 -3.3248005 -5.242186 -2.1293383 -1.363946 -1.1739805 -7.9571896 -3.3140721
-4.2323747 -1.6819453 -1.4843957 -1.0481836 -7.370507 -3.089108 -3.4789777 -1.2848521
-1.5258119 -1.1294817 -7.375236 -2.658916 -3.1064484 -1.0478677 -10.913747 -3.256133
-6.6006236 -2.7316213 -11.60568 -4.7855997 -8.266257 -4.040568 -9.850724 -3.176745
-13.394144 -5.269774 -10.208465 -4.723121 -8.281655 -2.2443757 -3.9733338 -1.0269225
-9.748086 -4.6914473 -6.4752383 -1.6274824 -4.283894 -0.9028617 -9.090594 -4.5377264
-5.976574 -1.284033 -4.4282713 -0.94065773 -2.333095 -1.1303816 -5.6951785 -1.16064
-4.6569977 -0.9542894 -2.616462 -1.1129978 -6.4713187 -1.4341862 -13.11739 -5.0697837
-8.182313 -3.7872267 -6.0592237 -0.8816947 -13.491148 -5.2251186 -7.412701 -3.6230845
-5.2743 -0.83501464 -12.239474 -4.968905 -9.2681875 -4.4086223 -5.6147842 -0.86150134
-9.095147 -4.074433 -9.732236 -4.6078434 -4.941265 -0.9087523 -4.601733 -0.979047
-11.98992 -5.339958 -5.461055 -0.79448473 -4.4927235 -0.9868452 -10.617064 -4.6655307
-6.3161755 -0.8869362 -4.1707134 -0.9692533 -8.172966 -0.6742786 -5.3255267 -0.87198746
-4.222206 -0.99649835 -11.240097 -1.3712438 -4.962608 -0.9395405 -3.2915862 -1.060617
-12.310105 -1.9541376 -4.374275 -3.0408812 -11.101699 -3.9088268 -9.1633625 -3.3819127
-5.832974 -3.7509751 -14.276303 -4.7974963 -9.967414 -3.6505766 -5.62236 -3.7410092
-12.196134 -4.3080115 -10.174881 -3.832326 -5.3397794 -2.7746835 -3.5007303 -1.0531416
