code/models/Inter_both.pt (torch, 76075 bytes, 14 tensors)

bias f4 [4]
-0.027142612 0.19348112 -0.31789818 0.098838426
00000000: 2f5a debc ea1f 463e 8dc3 a2be cd6b ca3d

weight f4 [4, 3]
-0.27057043 0.7929383 -0.22768095 0.40126488 -0.28562754 -0.6874417 0.5079747 0.38165566
-0.38865194 0.08233878 0.007997068 -0.4721402
00000000: 3588 8abe 01fe 4a3f 3225 69be 9772 cd3e
00000010: c63d 92be 2efc 2fbf a10a 023f 5f68 c33e
00000020: 63fd c6be 3ca1 a83d 2206 033c 5cbc f1be

bias f4 [2]
0.8403754 -0.13005543
00000000: d822 573f 402d 05be

weight f4 [2, 4]
-0.12784477 -1.1589458 -0.11538669 -1.1340759 1.0028746 1.0235623 -0.010313678 -0.6842402
00000000: bde9 02be 5658 94bf db4f ecbd 6629 91bf
00000010: 325e 803f 1704 833f b3fa 28bc 5e2a 2fbf

bias f4 [2]
0.3909732 -0.023250166
00000000: a42d c83e 2277 bebc

weight f4 [2, 2]
-2.054516 0.8613466 1.6837304 -1.5422372
00000000: 317d 03c0 3681 5c3f 7a84 d73f 0768 c5bf

bias f4 [2]
-0.94816506 -2.8152242
00000000: f2ba 72bf a22c 34c0

weight f4 [2, 2]
-0.92712754 0.5535258 -0.5496404 -1.1722883
00000000: 3b58 6dbf deb3 0d3f 3cb5 0cbf 8b0d 96bf

bias f4 [6]
-0.27914038 0.404567 -0.32350594 0.5867394 0.61235857 0.6576671
00000000: 7deb 8ebe 6823 cf3e 92a2 a5be 8e34 163f
00000010: 88c3 1c3f df5c 283f

weight f4 [6, 2]
-0.3971825 1.166948 -0.4236967 1.536326 -0.49787852 1.1117612 -0.87715954 -1.4017248
-0.90216374 -0.4975037 0.7265412 -0.073583744
00000000: 815b cbbe 8d5e 953f c6ee d8be 55a6 c43f
00000010: efe9 febe 314e 8e3f 878d 60bf b86b b3bf
00000020: 34f4 66bf ceb8 febe 9bfe 393f 13b3 96bd

bias f4 [3]
4.621661 4.688194 4.700651
00000000: a6e4 9340 af05 9640 bc6b 9640

weight f4 [3, 6]
-0.5861479 0.5493435 -0.5001432 -0.22029331 0.12684761 0.38859463 -0.8401669 -1.3366967
-0.54375595 0.9677574 0.300579 0.6443903 -0.6138582 0.33937508 -0.8962069 -0.014104487
0.07849444 0.0695204
00000000: ca0d 16bf c7a1 0c3f 6209 00bf 9294 61be
00000010: 57e4 013e e0f5 c63e 2e15 57bf e118 abbf
00000020: 9733 0bbf f3be 773f 7ee5 993e c3f6 243f
00000030: d025 1dbf 92c2 ad3e d16d 65bf 8216 67bc
00000040: b1c1 a03d b660 8e3d

__mu__ f4 [101, 2]
-0.46290088 0.19215386 -0.6533185 0.055762023 -0.49637163 0.26387212 -0.55134976 0.18153827
-0.45474255 0.05292292 -0.4915558 0.17108473 -0.30662096 -0.015544273 -0.5516118 0.31963485
-0.6572019 0.29758015 -0.19224483 -0.083572425 -0.45352763 -0.11370907 -0.5669336 0.10803246
-0.27566993 -0.09738578 -0.62777495 0.026417179 -0.5080805 0.2708691 -0.4283362 0.20115905
-0.66192293 0.39685386 -0.56167114 0.33472434 -0.2164731 -0.13968933 -0.32599318 -0.08985341
-0.3255062 -0.14228395 -0.61030924 0.20698105 -0.26088715 -0.07645567 -0.39742345 0.2921182
-0.18422621 -0.028701866 -0.3475032 0.069239564 -0.7947074 0.24478889 -0.42123622 -0.10814962
-0.56059444 0.31295797 -0.6664072 0.20589645 -0.23140484 -0.09580428 -0.37774277 -0.07115105
-0.21837187 -0.0631761 -0.47456902 0.26533282 -0.36215454 0.101871975 -0.58446 0.21444617
-0.59349376 0.06739381 -0.47661614 0.1072252 -0.34187388 -0.080987066 -0.43022835 0.11999648
-0.6312337 0.27886972 -0.6241238 0.3274003 -0.27764004 -0.1462428 -0.68140256 0.17635798
-0.46257514 0.18551889 -0.7981806 0.22774404 -0.38934362 0.2308934 -0.35926354 -0.0048053116
-0.3966329 0.12804204 -0.365741 0.23479283 -0.6410861 0.28475296 -0.15445203 -0.1092895
-0.4445799 0.23804957 -0.6829653 0.35013452 -0.46459943 0.15707278 -0.543412 -0.03471503
-0.57516325 0.30679256 -0.58873683 0.019715393 -0.4090098 -0.06437082 -0.59859645 0.27982628
-0.4773531 0.20872776 -0.5452408 0.25138327 -0.5437496 0.07226156 -0.57573426 0.31009164
-0.24017471 -0.051104225 -0.50163114 0.26423344 -0.7624247 0.33718988 -0.34543526 -0.12560421
-0.5051167 0.074881 -0.5887045 0.36435196 -0.32231128 -0.11218787 -0.49191427 0.070405096
-0.5477416 0.054529585 -0.58079404 0.24358422 -0.4461844 0.025025332 -0.5036402 -0.04152605
-0.6333394 -0.0055752937 -0.16484028 -0.14230649 -0.3192219 -0.06508602 -0.3765713 0.025803695
-0.47482586 0.20405218 -0.6490022 0.190627 -0.21703792 -0.14695643 -0.55927646 0.28236362
-0.37730026 0.02300456 -0.42248785 -0.058335483 -0.21187747 -0.142522 -0.4493857 0.05553922
-0.4572661 0.31727698 -0.5958647 0.355381 -0.7506888 0.27197585 -0.27596825 -0.1330454
-0.3407668 0.04633198 -0.5330856 0.25864714 -0.73113763 0.3006042 -0.41875726 0.034759484
-0.4490013 0.08492201 -0.64252245 0.22203344 -0.54463553 0.32715365 -0.4739611 0.19018847
-0.33757597 -0.006317146
00000000: 5801 edbe fbc3 443e e23f 27bf b866 643d
00000010: 6c24 febe 3f1a 873e 4225 0dbf 2be5 393e
00000020: 04d4 e8be b4c5 583d 34ad fbbe d630 2f3e
00000030: 6cfd 9cbe 68ad 7ebc 6e36 0dbf 2ea7 a33e
00000040: 623e 28bf 6d5c 983e d4db 44be 0528 abbd
00000050: c634 e8be 4de0 e8bd 8f22 11bf 1f40 dd3d
00000060: 9c24 8dbe 3272 c7bd dcb5 20bf d768 d83c
00000070: 9011 02bf 5baf 8a3e e24e dbbe a3fc 4d3e
00000080: c873 29bf 6e30 cb3e aec9 0fbf fd60 ab3e
00000090: 20ab 5dbe b80a 0fbe 94e8 a6be 1105 b8bd
000000a0: c0a8 a6be e2b2 11be 3a3d 1cbf d7f2 533e
000000b0: 0093 85be ca94 9cbd 167b cbbe 8490 953e
000000c0: cca5 3cbe 2d20 ebbc f0eb b1be 79cd 8d3d
000000d0: f271 4bbf f0a9 7a3e 46ac d7be 8c7d ddbd
000000e0: 1e83 0fbf 073c a03e aa99 2abf 85d6 523e
000000f0: 64f5 6cbe 0935 c4bd 8067 c1be a4b7 91bd
00000100: e09c 5fbe 7962 81bd b6fa f2be b4d9 873e
00000110: 526c b9be 41a2 d03d 2c9f 15bf c797 5b3e
00000120: 35ef 17bf c405 8a3d 0807 f4be e398 db3d
00000130: 180a afbe 8cdc a5bd e446 dcbe b7c0 f53d
00000140: 8898 21bf 03c8 8e3e 94c6 1fbf 03a1 a73e
00000150: d626 8ebe acc0 15be 6670 2ebf 3097 343e
00000160: a6d6 ecbe aaf8 3d3e 9055 4cbf bc35 693e
00000170: 0c58 c7be 526f 6c3e 64f1 b7be e075 9dbb
00000180: 7813 cbbe 741d 033e 6842 bbbe 886d 703e
00000190: 381e 24bf 24cb 913e ac28 1ebe 2cd3 dfbd
000001a0: fa9f e3be 44c3 733e d0d6 2ebf d544 b33e
000001b0: fadf edbe b0d7 203e 0d1d 0bbf 5931 0ebd
000001c0: e63d 13bf ea13 9d3e 75b7 16bf 2d82 a13c
000001d0: bc69 d1be d9d4 83bd 9e3d 19bf 6445 8f3e
000001e0: a067 f4be bbbc 553e e794 0bbf 4fb5 803e
000001f0: 2c33 0bbf defd 933d 5263 13bf 55c4 9e3e
00000200: 5cf0 75be aa52 51bd e66a 00bf 9b49 873e
00000210: 442e 43bf 27a4 ac3e e4dc b0be 649e 00be
00000220: 544f 01bf 365b 993d 57b5 16bf 578c ba3e
00000230: fc05 a5be c1c2 e5bd 30dc fbbe 8c30 903d
00000240: cb38 0cbf 6a5a 5f3d ebae 14bf 246e 793e
00000250: 4872 e4be ed01 cd3c 90ee 00bf 3817 2abd
00000260: 8822 22bf f4b0 b6bb e4cb 28be cbb8 11be
00000270: 0e71 a3be d24b 85bd f4cd c0be 4562 d33c
00000280: 601c f3be 0ef3 503e 0225 26bf b933 433e
00000290: 303f 5ebe bf7b 16be be2c 0fbf f791 903e
000002a0: 802d c1be 0f74 bc3c 5450 d8be 30f1 6ebd
000002b0: 68f6 58be 4af1 11be e215 e6be 187d 633d
000002c0: c81e eabe 2172 a23e 978a 18bf 80f4 b53e
000002d0: 242d 40bf 6b40 8b3e b64b 8dbe 0e3d 08be
000002e0: fc78 aebe 9ac6 3d3d 4c78 08bf 666d 843e
000002f0: d62b 3bbf cbe8 993e 5a67 d6be f65f 0e3d
00000300: 80e3 e5be 97eb ad3d 5a7c 24bf bc5c 633e
00000310: 3c6d 0bbf af80 a73e 08ab f2be c4c0 423e
00000320: c2d6 acbe 1000 cfbb

__logstd__ f4 [101, 2]
-1.2380302 -3.85628 -1.2663238 -4.3977747 -1.2618626 -3.790947 -1.2615663 -4.0193415
-1.2082266 -4.0764265 -1.2421807 -3.9386795 -1.1518145 -3.948021 -1.2888584 -3.7881293
-1.3151067 -3.9985285 -1.1052668 -3.8742974 -1.1750345 -4.3539386 -1.251595 -4.168232
-1.126717 -4.034472 -1.2531391 -4.4050484 -1.2666342 -3.7984395 -1.2297897 -3.784411
-1.3360395 -3.8397608 -1.2947469 -3.7793384 -1.1012274 -4.008216 -1.1427827 -4.1044803
-1.1323085 -4.191627 -1.2836642 -4.073489 -1.1265585 -3.9750872 -1.238759 -3.581071
-1.1137574 -3.7690892 -1.1803695 -3.872944 -1.344545 -4.3128977 -1.1667738 -4.291583
-1.2901452 -3.8140807 -1.2997048 -4.1674356 -1.1142027 -3.9591253 -1.1614631 -4.1580944
-1.1168568 -3.8829913 -1.2558331 -3.752692 -1.191046 -3.842268 -1.2776456 -4.018517
-1.2512819 -4.280017 -1.2252665 -4.021262 -1.1491315 -4.115688 -1.2143424 -3.9236593
-1.303895 -3.987267 -1.3113993 -3.894186 -1.117659 -4.11966 -1.2982283 -4.241609
-1.2366282 -3.8668747 -1.3421922 -4.3471923 -1.2243516 -3.6704998 -1.1691842 -4.0164595
-1.2061937 -3.8549922 -1.2182813 -3.6251974 -1.3079091 -3.9935784 -1.089248 -3.8553698
-1.2417669 -3.7492075 -1.3329291 -3.9526842 -1.2316085 -3.917914 -1.2166469 -4.369047
-1.2931515 -3.8483481 -1.240507 -4.3521795 -1.171859 -4.1980696 -1.2946267 -3.9320643
-1.2454842 -3.852213 -1.2735612 -3.8921514 -1.2378278 -4.1901593 -1.293967 -3.843752
-1.1255534 -3.8985476 -1.2634579 -3.7989788 -1.3534014 -4.104889 -1.1413703 -4.196377
-1.22715 -4.1223207 -1.308419 -3.7740364 -1.1373141 -4.1358976 -1.2224425 -4.108147
-1.2354897 -4.2264585 -1.2823259 -3.9636207 -1.2002487 -4.109167 -1.2037807 -4.315156
-1.2484462 -4.46785 -1.0857509 -3.927812 -1.1457019 -4.0518155 -1.1802316 -3.9935398
-1.2438304 -3.8559058 -1.2916524 -4.164465 -1.0999588 -4.021333 -1.2837337 -3.863235
-1.1798912 -3.9994323 -1.1769538 -4.2100806 -1.0993376 -4.0054207 -1.20719 -4.063241
-1.2610569 -3.6371458 -1.3087256 -3.800843 -1.3371487 -4.1950054 -1.1197755 -4.094777
-1.173903 -3.9003062 -1.2714709 -3.860005 -1.3371258 -4.1148763 -1.1942201 -4.047797
-1.2128694 -4.013323 -1.2959645 -4.101143 -1.2883189 -3.7640605 -1.2408476 -3.8777404
-1.1626023 -3.9833794
00000000: c677 9ebf 4bcd 76c0 e616 a2bf 92ba 8cc0
00000010: b784 a1bf e09e 72c0 017b a1bf 729e 80c0
00000020: 2ba7 9abf 1672 82c0 c7ff 9ebf 5313 7cc0
00000030: a86e 93bf 60ac 7cc0 50f9 a4bf b670 72c0
00000040: 6b55 a8bf e4e7 7fc0 6279 8dbf 7df4 77c0
00000050: 8867 96bf 7753 8bc0 4434 a0bf 2862 85c0
00000060: 4338 90bf 651a 81c0 dd66 a0bf 28f6 8cc0
00000070: 1221 a2bf a219 73c0 c069 9dbf ca33 72c0
00000080: 5803 abbf a4be 75c0 44ba a5bf aee0 71c0
00000090: 05f5 8cbf 4e43 80c0 b446 92bf e757 83c0
000000a0: 7cef 90bf cf21 86c0 1c4f a4bf 065a 82c0
000000b0: 1233 90bf d467 7ec0 a88f 9ebf 4430 65c0
000000c0: 9a8f 8ebf c238 71c0 5916 97bf 51de 77c0
000000d0: 0d1a acbf 4203 8ac0 d858 95bf a654 89c0
000000e0: 7a23 a5bf e619 74c0 ba5c a6bf a25b 85c0
000000f0: 329e 8ebf 4f62 7dc0 d3aa 94bf 1c0f 85c0
00000100: 2af5 8ebf ee82 78c0 24bf a0bf 1b2c 70c0
00000110: 3274 98bf b8e7 75c0 e489 a3bf b197 80c0
00000120: 012a a0bf e6f5 88c0 88d5 9cbf 2eae 80c0
00000130: be16 93bf b7b3 83c0 926f 9bbf 3c1d 7bc0
00000140: 08e6 a6bf 622f 7fc0 efdb a7bf 583a 79c0
00000150: 730f 8fbf 41d4 83c0 582c a6bf 43bb 87c0
00000160: d549 9ebf e07a 77c0 f4cc abbf 331c 8bc0
00000170: 8eb7 9cbf 78e9 6ac0 d4a7 95bf d686 80c0
00000180: 8e64 9abf 31b8 76c0 a4f0 9bbf 3c03 68c0
00000190: 9169 a7bf ca96 7fc0 7a6c 8bbf 61be 76c0
000001a0: 38f2 9ebf 04f3 6fc0 6c9d aabf c7f8 7cc0
000001b0: 59a5 9dbf 1abf 7ac0 16bb 9bbf 3ccf 8bc0
000001c0: fd85 a5bf 564b 76c0 efc8 9ebf 0e45 8bc0
000001d0: 7aff 95bf 9656 86c0 54b6 a5bf f1a6 7bc0
000001e0: 076c 9fbf a88a 76c0 0e04 a3bf 0219 79c0
000001f0: 2471 9ebf c915 86c0 b6a0 a5bf 0800 76c0
00000200: 2212 90bf ce81 79c0 fdb8 a1bf 7822 73c0
00000210: 423c adbf 405b 83c0 6c18 92bf b848 86c0
00000220: 4013 9dbf 0dea 83c0 467a a7bf d089 71c0
00000230: 8293 91bf 4659 84c0 ff78 9cbf f175 83c0
00000240: 8724 9ebf 263f 87c0 4123 a4bf f6ab 7dc0
00000250: c0a1 99bf 4c7e 83c0 7c15 9abf c215 8ac0
00000260: 16cd 9fbf a1f8 8ec0 e3f9 8abf 4661 7bc0
00000270: 5ca6 92bf 79a8 81c0 d411 97bf 2896 7fc0
00000280: d635 9fbf 29c7 76c0 de54 a5bf 4c43 85c0
00000290: 73cb 8cbf c3ae 80c0 6351 a4bf 3e3f 77c0
000002a0: ad06 97bf b3f6 7fc0 6ca6 96bf fbb8 86c0
000002b0: 18b7 8cbf 682c 80c0 3485 9abf 1206 82c0
000002c0: 506a a1bf ffc6 68c0 5284 a7bf 0341 73c0
000002d0: b027 abbf 7c3d 86c0 ce54 8fbf 6a08 83c0
000002e0: 7442 96bf 9e9e 79c0 8fbf a2bf 520a 77c0
000002f0: f026 abbf 11ad 83c0 34dc 98bf 8e87 81c0
00000300: 4e3f 9bbf 246d 80c0 2ae2 a5bf 903c 83c0
00000310: a2e7 a4bf 5ee6 70c0 18d4 9ebf e62c 78c0
00000320: 27d0 94bf b0ef 7ec0
