code/models/InterGVAE_ada.pt (torch, 32606 bytes, 14 tensors)

bias f4 [4]
00000000: 585b ed3e 13b9 f93e 42c9 2fbd eefb 313f
0.46358752 0.48774013 -0.042916544 0.6952504

weight f4 [4, 3]
00000000: 8ec3 1fbf 7c56 0fbf 2347 403f 6bdf 6e3e
00000010: 6dcd 383e a0a2 27bf 5ac2 503f 0a03 2a3f
00000020: 6367 c53e 7a2b c3be f67a 3f3e 4ef6 debb
-0.6240777 -0.5599134 0.75108546 0.23327415 0.18047114 -0.6548252 0.81546557 0.6641089
0.3855544 -0.38119107 0.1869925 -0.006804264

bias f4 [2]
00000000: 7faf 57be 854a 833e
-0.2106304 0.2564279

weight f4 [2, 4]
00000000: 8e14 93be fe52 59be 53a4 7abf 042b 6dbf
00000010: 3c92 b43e f7ae 023f efd6 b4bd c3ca 5b3f
-0.2872662 -0.21223065 -0.9790699 -0.9264376 0.35267818 0.51048225 -0.08830058 0.85856265

bias f4 [2]
00000000: 8ecf ffbe 535b 06bf
-0.4996304 -0.524831

weight f4 [2, 2]
00000000: 2c91 5ebf e4df 983f 67f7 71bf 7050 983f
-0.86940265 1.1943326 -0.9451813 1.1899548

bias f4 [2]
00000000: 1bd5 a7bc f0ed 9ebc
-0.020487359 -0.019400567

weight f4 [2, 2]
00000000: 7587 413f d941 553e 7937 e43e 14aa afbf
0.75597316 0.208259 0.44573572 -1.3723779

bias f4 [6]
00000000: 92df f63e 5bb4 063f 0903 093f e629 cdbe
00000010: 5db2 e7be 5534 ed3e
0.48217446 0.5261895 0.53520256 -0.40071028 -0.45253268 0.4632899

weight f4 [6, 2]
00000000: 4649 c43e 4a52 90bf 21d7 55bf 4770 7dbf
00000010: 47ab f13d fd13 8dbe baef f13e 072b c93e
00000020: d967 433f 9c07 0c3d 05fc 96bf 3d70 16bf
0.38337153 -1.1275113 -0.83531386 -0.98999447 0.11800247 -0.27554312 0.4725321 0.3929064
0.76330334 0.034186944 -1.179566 -0.5876501

bias f4 [3]
00000000: 8ce0 f63e e04f c93e 10a3 e03e
0.4821819 0.39318752 0.43874407

weight f4 [3, 6]
00000000: 869b da3e 4e76 8a3f 7de6 8fbd 6de0 9fbf
00000010: 9e60 81bf 68fd 903d a572 6f3f 10c0 413e
00000020: 9818 383f 9444 c5be 0626 f1bc 8f68 893f
00000030: 9995 903e 303b b63e eb8f 483f 33fa 9ebf
00000040: 48a4 14bf 41d9 593f
0.4269678 1.0817354 -0.07026384 -1.2490364 -1.010761 0.070795834 0.9353431 0.18920922
0.7191253 -0.38528883 -0.029437076 1.0735034 0.28239134 0.3559203 0.783446 -1.2420105
-0.58063173 0.8509713

__mu__ f4 [101, 2]
00000000: b2b1 a73e 768b a43e 60eb 653e d42d 5c3e
00000010: 9c80 a13e f69e 9d3e 2230 be3e be51 bb3e
00000020: cca9 523e 5488 4c3e f022 5b3e b40c 553e
00000030: 8ed5 ce3e 0e20 cc3e b603 a93e 0658 a53e
00000040: a0f5 04bd 48b6 2ebd 00f5 c0ba c03c 54bc
00000050: c441 cdbd 0879 e5bd d07a 793e 48e7 6f3e
00000060: 8284 883e 4097 853e 5817 d13d 38d9 bf3d
00000070: 3056 823d 40b6 5d3d c8d4 b73e 9251 b53e
00000080: c094 c7bb a076 81bc 7c9b 453e 807e 403e
00000090: 9483 0c3e 987c 043e e0c4 763d c08a 583d
000000a0: f041 8d3d d050 6c3d 8673 893e 7002 863e
000000b0: a899 4d3e 38ac 453e 24de cb3e 5289 c93e
000000c0: 6209 e43e 8ee9 e13e 18a0 143e 88a3 0d3e
000000d0: 48e5 883e 6ac8 843e 3cee a13e 764d 9f3e
000000e0: 7c27 bc3e 8812 b93e baa6 8d3e f2a3 893e
000000f0: 1034 073e 98b7 f93d 3801 6c3e 586f 633e
00000100: 500d e63d a8ed da3d ac02 373e a44f 2c3e
00000110: 243b 983e f232 943e c0d8 e63d 9043 d73d
00000120: 94e1 4c3e f0d6 483e fa13 8f3e 5ead 8b3e
00000130: b287 933e 76c8 8f3e 88e2 a4bd 7872 bfbd
00000140: 2e69 bb3e 7ca2 b83e 5016 803e a464 793e
00000150: b4d6 283e 18ee 233e caac 833e 3ce8 7f3e
00000160: 00da d03d 606e c23d b8ae f83d 9023 e73d
00000170: f8da ac3d 18eb 9e3d 022e 873e 96df 853e
00000180: 0ccb 0a3e 987c fe3d 088c 803e 54d2 773e
00000190: b0f9 2b3e 040d 273e 805a e0bc 50b7 15bd
000001a0: 7873 023e 38fc fa3d 6c86 953e b2d3 913e
000001b0: 2e2d 863e 7c8a 813e 08cf 063e 68f9 fe3d
000001c0: 403a b93d 787e ab3d d076 c43e 4a77 c23e
000001d0: d815 853e 3cc9 813e 8813 793e 8cec 6f3e
000001e0: 40e1 803d e021 643d 0070 babc 2821 09bd
000001f0: c01f 6d3e 4c43 633e b02a 263e bc0d 1f3e
00000200: 60a7 c63e e4b8 c33e acd9 223e f88e 1b3e
00000210: ec27 2a3e 6cb1 203e 881e 823d b097 683d
00000220: 08ca 773e a891 6e3e 00d2 863e e455 823e
00000230: 80db ae3c 0004 433c 0843 603e 3c71 5b3e
00000240: 404b c43e c45a c13e 40bc 6e3d a010 483d
00000250: 101d aa3d d06f 9b3d ecac 453e 1427 413e
00000260: 1cc5 3a3e d002 323e 98c0 cb3d 101b bf3d
00000270: 00e4 bdbc 7804 08bd 609f 143d a05a e53c
00000280: 2405 b63e a4fd b23e 88d0 bcbd 0043 d4bd
00000290: 2cd9 9c3e 4e0f 9a3e 60a2 8a3d 4069 793d
000002a0: c207 ba3e f0a1 b63e 20bc 1ebc 8075 a9bc
000002b0: fe81 803e 844f 783e 54f8 723e a097 6a3e
000002c0: 06e9 bc3e 240a ba3e a095 843d b063 6c3d
000002d0: 40e7 003e c036 f13d 92f6 9a3e baf0 963e
000002e0: c0b6 183e e415 123e 6a6a 833e 9c47 7e3e
000002f0: 6011 6b3e a884 623e cc4a 4c3e 3cee 443e
00000300: 60e9 ce3c 60d6 8b3c 207c f23d 485f db3d
00000310: 3cef 623e 403a 5c3e c829 573e b47c 503e
00000320: a60f cb3e bc30 c83e
0.32752758 0.3213765 0.2245307 0.21501857 0.31543434 0.3078534 0.37146097 0.36585802
0.20572585 0.1997388 0.21400046 0.20805627 0.40397304 0.39868206 0.33010644 0.3229372
-0.03246081 -0.042654306 -0.0014721453 -0.012953937 -0.100223094 -0.112047255 0.24363256 0.2342807
0.26663595 0.26091957 0.102095306 0.09367603 0.06364095 0.054128885 0.35904527 0.35413796
-0.0060907304 -0.015803635 0.19297594 0.18798256 0.13722068 0.12938154 0.06024635 0.052866697
0.06897342 0.057694256 0.2684595 0.26173735 0.20078146 0.19303977 0.39817917 0.3936258
0.4453841 0.441235 0.14514196 0.13831913 0.26737428 0.25934154 0.3162707 0.31113786
0.36748874 0.3614695 0.27666265 0.26882893 0.13203454 0.12193221 0.2304734 0.22210443
0.11233008 0.106898606 0.17872113 0.16827255 0.2973262 0.28945118 0.112718105 0.105109334
0.20007926 0.19613242 0.27944928 0.27280706 0.28814465 0.28082627 -0.0805102 -0.09348005
0.36603683 0.36061466 0.25017023 0.24354798 0.16488153 0.16008794 0.25717765 0.24990934
0.1019783 0.094937086 0.121427 0.1128608 0.084402025 0.07759684 0.2640229 0.26147145
0.13554019 0.12426108 0.25106835 0.24201328 0.16794467 0.16313559 -0.027386904 -0.036551774
0.1273936 0.12255138 0.29204118 0.28481823 0.26206344 0.25300968 0.13164914 0.12449914
0.090443134 0.083737314 0.38371897 0.37981635 0.25993228 0.25348842 0.24323857 0.23430079
0.06292963 0.05569637 -0.022758484 -0.033478886 0.23156643 0.2219364 0.16227221 0.15532583
0.38799572 0.38226998 0.15903348 0.15191257 0.16616791 0.15692681 0.063534796 0.056785285
0.24198163 0.23297751 0.26332092 0.25456154 0.0213449 0.011902809 0.2190057 0.21429914
0.3833866 0.3776456 0.058284998 0.04884398 0.083063245 0.07589686 0.19304246 0.18862563
0.18239254 0.17383885 0.09948844 0.09331334 -0.023180008 -0.033207387 0.036284804 0.027997315
0.35550797 0.34959137 -0.09219462 -0.10364342 0.3063444 0.30089802 0.06769252 0.06089139
0.36334044 0.35670424 -0.009688407 -0.020685911 0.25099176 0.24249083 0.23727542 0.22909403
0.36896533 0.36335862 0.06473851 0.057712257 0.12588215 0.11778021 0.30266243 0.29480535
0.14913464 0.14266163 0.25667125 0.24832004 0.22955847 0.22120917 0.19950408 0.19231504
0.025257766 0.017069995 0.11840081 0.10711533 0.22161573 0.21506596 0.21012032 0.2036007
0.39660376 0.3909968

__logstd__ f4 [101, 2]
00000000: af12 05be 02ad 50bf 2df2 d6bd 6615 39bf
00000010: cdc4 ebbd 40c3 4fbf dc92 05be c253 5cbf
00000020: 0981 17be 375a 2dbf 51e3 16be b9a7 2fbf
00000030: d9d6 04be 341e 65bf 6d7c f1bd 5b3e 53bf
00000040: 4f45 06be 3ccb e0be e9d2 e5bd 603d f7be
00000050: 2085 f8bd 19ab bfbe 368b d5bd 1f4a 3ebf
00000060: 0770 12be 5762 3ebf c8eb 08be 6be9 13bf
00000070: 4945 01be 11d0 0abf 7d70 0fbe 5882 57bf
00000080: a75a 08be c63c eebe 21ed 24be 2de7 27bf
00000090: 68fd 0abe 0ff9 1cbf ecd2 1abe fe02 06bf
000000a0: b981 d7bd 1584 0fbf fc5a 06be 69b6 40bf
000000b0: 9386 03be e313 2fbf f94d 0ebe ee20 62bf
000000c0: f6aa 0cbe a9fa 6ebf 7be0 15be 8f6d 1dbf
000000d0: 5c28 eebd 5ac0 42bf 0795 12be 9b9c 4bbf
000000e0: 1736 01be 87ee 5bbf 9653 f0bd c710 45bf
000000f0: 9b1e e2bd 758a 1fbf 923d f0bd 02be 38bf
00000100: ebb1 2abe f57e 11bf f351 cdbd b196 2dbf
00000110: 69c0 e9bd 2515 4bbf 4705 11be 4b83 15bf
00000120: 8f47 30be 9711 28bf 72ce 05be d9ba 43bf
00000130: 2258 f9bd 7b71 47bf f736 d8bd e81d cfbe
00000140: ab6f 08be 6371 5abf 6d02 0abe fc45 3bbf
00000150: 3115 2bbe 0e77 1fbf fc74 01be 9372 3ebf
00000160: 9f27 19be f767 11bf bb92 04be 24bc 19bf
00000170: f74f 1ebe 9aed 0bbf 8609 38be 9ff4 37bf
00000180: be78 c5bd f2a8 22bf fe82 dabd 58e5 3fbf
00000190: 197c 2abe b75f 20bf 22b0 11be b305 e0be
000001a0: d396 2fbe 63c5 14bf 8388 fabd 9264 48bf
000001b0: 5e91 d7bd 260e 43bf 3dda 13be 7f22 1abf
000001c0: f3a9 1ebe b87c 0dbf baeb 17be 89cd 5cbf
000001d0: ebc8 0abe d9c2 3dbf f565 dfbd ee6e 3dbf
000001e0: 312f 1cbe 4585 06bf f082 fdbd c743 e8be
000001f0: ed43 d2bd 8551 3bbf 061a 12be 8393 22bf
00000200: 24e3 01be 8c4d 61bf 767c 10be 39f5 21bf
00000210: 8e23 edbd 0dd0 27bf 67cb 21be b8d3 05bf
00000220: 152d debd e330 3dbf 0a27 debd 9fe3 42bf
00000230: dbd2 07be ec0b fdbe 1bc6 24be eedf 2ebf
00000240: f454 02be 3901 60bf 18d5 02be 1d25 09bf
00000250: 0e3e 1abe ee30 0cbf abb3 2bbe 57e3 26bf
00000260: d7eb f8bd ec3e 2bbf 24af 23be f522 0fbf
00000270: 0ff8 06be 3289 e5be 2163 13be b4bf 00bf
00000280: 6e0a 04be 664d 58bf 082e ffbd 84f0 c2be
00000290: ef3b 10be e651 49bf b09f 20be 871d 07bf
000002a0: ec06 f5bd 66d8 5bbf c572 f3bd c9c6 f0be
000002b0: f193 e7bd 2ee1 3ebf a9d0 f2bd 9b5c 3abf
000002c0: d4dd 05be c99d 5bbf c65f 1ebe 71ab 06bf
000002d0: db6e 09be f62e 1abf 40bc e8bd a395 4cbf
000002e0: cc73 19be e8f2 1dbf 2990 e9bd 923e 40bf
000002f0: 40f4 f0bd 8d71 38bf d433 0abe 11b8 2dbf
00000300: e60d 16be 26cc fabe 8bf6 c9bd 10be 1dbf
00000310: 22bb 0ebe 69ee 32bf 68a4 10be 4792 2fbf
00000320: 341e 02be cb90 63bf
-0.12995408 -0.8151399 -0.1049541 -0.72298276 -0.11512146 -0.811573 -0.13044304 -0.86065304
-0.14795317 -0.6771578 -0.14735152 -0.686153 -0.12972583 -0.8949921 -0.117913105 -0.8251702
-0.13112377 -0.43905056 -0.112218685 -0.48289013 -0.121347666 -0.37435225 -0.10426943 -0.7433185
-0.14300548 -0.74368805 -0.13371193 -0.5777804 -0.12624086 -0.54223734 -0.14007755 -0.84183264
-0.13315831 -0.4653074 -0.16106082 -0.6558712 -0.1357323 -0.61317533 -0.15119523 -0.52348316
-0.105227895 -0.56060916 -0.13120645 -0.75278336 -0.12844305 -0.6838972 -0.13896932 -0.88331497
-0.13737091 -0.9335123 -0.14636414 -0.614953 -0.11628792 -0.76074755 -0.14314662 -0.79535836
-0.1261829 -0.8591084 -0.11734693 -0.76978725 -0.11040994 -0.62320644 -0.117304936 -0.7216493
-0.16669433 -0.56834346 -0.10025396 -0.6780806 -0.114136524 -0.7932914 -0.1416217 -0.5840346
-0.17214797 -0.6565184 -0.13067034 -0.7645698 -0.12175013 -0.7790753 -0.10557359 -0.40452504
-0.13323848 -0.85329264 -0.13477488 -0.7315366 -0.16707303 -0.6229104 -0.12642282 -0.74393576
-0.1495652 -0.5679926 -0.12946598 -0.60052705 -0.15460192 -0.54659426 -0.17972383 -0.7185764
-0.0964217 -0.6353904 -0.10669516 -0.74959326 -0.16648902 -0.6264605 -0.14227346 -0.43754348
-0.17147379 -0.5811369 -0.12233069 -0.7827846 -0.105257735 -0.76193464 -0.1443872 -0.60208887
-0.15494518 -0.5526843 -0.14836016 -0.8625112 -0.13553207 -0.7412544 -0.10908119 -0.7399739
-0.15252377 -0.52547103 -0.1237849 -0.4536421 -0.10266862 -0.73171264 -0.1426774 -0.63506335
-0.12684304 -0.8800895 -0.14109978 -0.63264805 -0.11579047 -0.65551835 -0.15800248 -0.5227618
-0.108484425 -0.7390272 -0.1084729 -0.7612857 -0.13264029 -0.49423158 -0.16091196 -0.6831044
-0.1272772 -0.87501866 -0.12776601 -0.53572255 -0.15062734 -0.5476216 -0.16767757 -0.65190643
-0.12154358 -0.66892886 -0.1598478 -0.55912715 -0.13180564 -0.44831234 -0.14393283 -0.50292516
-0.12894604 -0.844931 -0.12459952 -0.38074124 -0.14085363 -0.7864059 -0.15685916 -0.5277943
-0.11964211 -0.8587707 -0.11887125 -0.4702666 -0.113075145 -0.74562347 -0.11856205 -0.72797555
-0.13072902 -0.85787636 -0.15466222 -0.5260535 -0.13421194 -0.60227907 -0.11364031 -0.7991583
-0.14985579 -0.6169877 -0.114044495 -0.75095475 -0.11765337 -0.72048265 -0.13496333 -0.6785899
-0.1465374 -0.48983878 -0.098614775 -0.6161814 -0.13938573 -0.69895035 -0.14125216 -0.68582577
-0.12706834 -0.8889281
