code/models/InterGVAE_large500_ada.pt (torch, 52791 bytes, 14 tensors)

bias f4 [4]
-3.4642274 -2.3847156 0.16975203 -9.030215
00000000: e7b5 5dc0 2e9f 18c0 7ad3 2d3e c37b 10c1

weight f4 [4, 3]
10.908715 4.87618 -1.8302035 3.6833818 7.8338213 -0.24401875 -0.8086867 0.61016136
0.04173249 10.286354 8.598095 0.93714803
00000000: 198a 2e41 ab09 9c40 1c44 eabf 87bc 6b40
00000010: aaae fa40 0de0 79be 1706 4fbf 8933 1c3f
00000020: b0ef 2a3d e894 2441 cc91 0941 efe8 6f3f

bias f4 [2]
-28.557545 11.304123
00000000: da75 e4c1 b0dd 3441

weight f4 [2, 4]
4.405547 -5.70967 43.450546 5.15375 1.634194 -5.942743 -36.89768 2.4899697
00000000: 3efa 8c40 9eb5 b6c0 5ccd 2d42 85eb a440
00000010: 452d d13f f32a bec0 3997 13c2 aa5b 1f40

bias f4 [2]
-0.28350472 -4.5151305
00000000: 8827 91be f37b 90c0

weight f4 [2, 2]
-0.04810651 -0.48223764 -0.81230164 -3.4546752
00000000: 550b 45bd dae7 f6be 00f3 4fbf 6619 5dc0

bias f4 [2]
-9.141012 -9.443285
00000000: 9641 12c1 b217 17c1

weight f4 [2, 2]
-0.79726225 -0.54584765 -0.5995377 -0.918553
00000000: 6119 4cbf acbc 0bbf 4d7b 19bf 4a26 6bbf

bias f4 [6]
-1.1970922 1.4647286 -5.1791377 -1.6771218 2.7978315 1.3204696
00000000: 513a 99bf 3a7c bb3f 7fbb a5c0 edab d6bf
00000010: ac0f 3340 2605 a93f

weight f4 [6, 2]
-1.0940857 0.5480154 -0.7148205 -0.07857679 3.3889093 -0.1569557 -4.922122 0.7034614
-0.39287192 -1.0588789 0.027719611 -1.2380143
00000000: 000b 8cbf bd4a 0c3f 7afe 36bf deec a0bd
00000010: e4e3 5840 ffb8 20be 0682 9dc0 0c16 343f
00000020: 8226 c9be 5889 87bf 3d14 e33c 4177 9ebf

bias f4 [3]
1.830065 1.4035255 -3.4095705
00000000: 923f ea3f b9a6 b33f 6736 5ac0

weight f4 [3, 6]
-3.1491332 0.4109741 14.771499 10.869276 -0.7813075 0.6511644 -9.858837 -1.1679081
2.6765802 12.306412 0.9703519 -0.7234031 2.6273878 -6.5335693 0.015931545 -3.3416593
-1.3904703 -0.6621938
00000000: 668b 49c0 326b d23e 0f58 6c41 8ee8 2d41
00000010: c503 48bf b6b2 263f ccbd 1dc1 037e 95bf
00000020: 174d 2b40 10e7 4441 fb68 783f f230 39bf
00000030: 1f27 2840 0013 d1c0 df82 823c bfdd 55c0
00000040: eefa b1bf 8885 29bf

__mu__ f4 [202, 2]
-7.2736154 -55.182957 -0.2819168 -4.4897084 -4.350193 -42.270996 -2.0581927 -29.353542
-3.2436078 -38.716953 -3.33355 -28.481087 -0.3103384 -4.9695454 -0.8428142 -8.526316
-0.28037715 -4.4795623 -0.31562212 -5.0587797 -11.440778 -88.910194 -0.6803869 -9.145231
-0.36193725 -5.076688 -2.8507266 -24.459518 -8.977417 -68.691475 -11.61173 -91.43893
-9.052299 -70.02904 -3.617148 -31.0167 -4.396869 -44.62584 -3.9668345 -37.370045
-0.39522508 -6.192732 -0.76929235 -10.4373665 -12.083191 -93.66978 -3.6336298 -40.753048
-1.8990996 -20.964024 -4.4349155 -42.75993 -2.199718 -18.243004 -0.2832839 -4.514089
-0.9071691 -9.47397 -3.9311826 -30.765789 -0.28333008 -4.514421 -10.744546 -85.119
-3.1915176 -37.690304 -0.7359781 -11.854981 -6.3175144 -50.256195 -6.8966813 -52.85772
-3.0732782 -35.887985 -8.63618 -65.975845 -2.8072658 -33.688286 -0.99487543 -9.919039
-1.6497402 -20.788746 -3.010003 -24.047699 -1.2711502 -11.590321 -3.8808353 -31.006035
-8.859961 -69.04375 -2.0359247 -18.375278 -10.011335 -78.11746 -2.170004 -18.03014
-0.58261836 -9.600534 -3.7311232 -40.786606 -3.557508 -33.267914 -1.6721051 -23.303482
-1.2458899 -11.409233 -9.724512 -74.58149 -3.8434248 -44.05959 -0.5145699 -8.419498
-0.8127924 -8.463096 -0.51276374 -8.424879 -0.3032736 -4.8502274 -3.0701354 -35.912014
-0.28341106 -4.5147767 -2.0289676 -22.414005 -1.4894842 -19.5836 -10.760793 -83.06996
-9.541502 -74.9284 -1.0847442 -10.255416 -0.56846917 -9.329716 -2.2304184 -26.58252
-7.911537 -63.31024 -1.3214765 -20.289635 -6.412408 -49.998756 -5.920014 -51.608593
-0.4003073 -6.4890647 -1.8729889 -15.90239 -7.4096756 -63.836926 -0.9831754 -16.49272
-1.9857094 -16.709896 -0.2635838 -4.3728204 -11.999287 -92.85101 -10.412598 -84.525154
-0.609698 -6.852457 -7.6313877 -62.783443 -3.010003 -24.047699 -0.28320658 -4.513545
-6.4625964 -52.811253 -0.28340572 -4.5146794 -0.30396977 -4.6622877 -8.460779 -64.67789
-2.0917532 -17.469563 -0.51462954 -8.4880295 -0.3276739 -5.2623873 -2.1839542 -28.506111
-1.4617337 -21.200703 -0.5404309 -8.937384 -2.349911 -24.986603 -0.35516316 -5.7271805
-2.3080711 -29.897675 -6.154372 -54.142418 -3.338394 -26.394596 -8.794457 -67.20131
-7.654697 -60.463127 -7.3047585 -55.34326 -0.2820873 -4.492592 -4.3964043 -42.691032
-2.1873465 -30.4847 -3.4364338 -40.40037 -3.457469 -29.343777 -0.3090785 -4.9482665
-0.8288263 -8.413444 -0.28052562 -4.4809065 -0.31334388 -5.020303 -11.519444 -89.45509
-0.6812084 -9.125351 -0.3674162 -5.116101 -2.9079692 -24.942856 -8.880442 -68.09946
-11.583208 -91.19695 -8.909613 -69.127815 -3.6540473 -31.40218 -4.4376397 -44.858143
-4.014544 -37.708702 -0.39140597 -6.097665 -0.77971995 -10.521231 -12.000861 -92.94539
-3.6922 -41.28663 -1.875875 -20.628056 -4.4698167 -43.080143 -2.197674 -18.228363
00000000: 75c1 e8c0 59bb 5cc2 6657 90be b1ab 8fc0
00000010: c834 8bc0 8015 29c2 6eb9 03c0 0ed4 eac1
00000020: 4597 4fc0 29de 1ac2 e258 55c0 44d9 e3c1
00000030: ade4 9ebe 8406 9fc0 acc2 57bf ca6b 08c1
00000040: 988d 8fbe 9358 8fc0 3999 a1be 86e1 a1c0
00000050: 6d0d 37c1 05d2 b1c2 d62d 2ebf de52 12c1
00000060: d74f b9be 3a74 a2c0 4e72 36c0 18ad c3c1
00000070: 80a3 0fc1 0962 89c2 a5c9 39c1 bbe0 b6c2
00000080: 37d6 10c1 de0e 8cc2 5a7f 67c0 3422 f8c1
00000090: 27b3 8cc0 dc80 32c2 9ee0 7dc0 ed7a 15c2
000000a0: f15a cabe dc2a c6c0 58f0 44bf 74ff 26c1
000000b0: c054 41c1 ed56 bbc2 648d 68c0 1f03 23c2
000000c0: b215 f3bf 52b6 a7c1 d4ea 8dc0 2b0a 2bc2
000000d0: 2ec8 0cc0 acf1 91c1 960a 91be 6b73 90c0
000000e0: 3c3c 68bf 6295 17c1 7f98 7bc0 5620 f6c1
000000f0: a410 91be 2376 90c0 a9e9 2bc1 ee3c aac2
00000100: d341 4cc0 dfc2 16c2 1069 3cbf 01ae 3dc1
00000110: 1429 cac0 5806 49c2 9db1 dcc0 4e6e 53c2
00000120: 97b0 44c0 4c8d 0fc2 cb2d 0ac1 a2f3 83c2
00000130: 3eaa 33c0 cec0 06c2 28b0 7ebf 62b4 1ec1
00000140: b02a d3bf 5a4f a6c1 e4a3 40c0 b061 c0c1
00000150: 0db5 a2bf f471 39c1 9b5f 78c0 5c0c f8c1
00000160: 66c2 0dc1 6616 8ac2 974c 02c0 9200 93c1
00000170: 6e2e 20c1 243c 9cc2 58e1 0ac0 ba3d 90c1
00000180: 7a26 15bf ca9b 19c1 b9ca 6ec0 7c25 23c2
00000190: 36ae 63c0 5812 05c2 8a07 d6bf 886d bac1
000001a0: 5279 9fbf 388c 36c1 9a97 1bc1 b929 95c2
000001b0: acfa 75c0 053d 30c2 daba 03bf 44b6 06c1
000001c0: 2a13 50bf d768 07c1 7c44 03bf 4ecc 06c1
000001d0: ad46 9bbe 1035 9bc0 197d 44c0 e7a5 0fc2
000001e0: 411b 91be 0d79 90c0 9bda 01c0 e24f b3c1
000001f0: 6ba7 bebf 36ab 9cc1 352c 2cc1 d223 a6c2
00000200: fea9 18c1 57db 95c2 e6d8 8abf 2f16 24c1
00000210: 3287 11bf 8446 15c1 2dbf 0ec0 00a9 d4c1
00000220: 502b fdc0 b03d 7dc2 2426 a9bf 2c51 a2c1
00000230: 7232 cdc0 bafe 47c2 c170 bdc0 336f 4ec2
00000240: 14f5 ccbe 6ba6 cfc0 1abe efbf 3070 7ec1
00000250: 101c edc0 0359 7fc2 62b1 7bbf 17f1 83c1
00000260: ba2b febf dead 85c1 75f4 86be 25ee 8bc0
00000270: 14fd 3fc1 b8b3 b9c2 009a 26c1 e10c a9c2
00000280: 2b15 1cbf 5447 dbc0 5434 f4c0 3f22 7bc2
00000290: e4a3 40c0 b061 c0c1 7400 91be f66e 90c0
000002a0: 97cd cec0 b93e 53c2 8e1a 91be 4178 90c0
000002b0: eda1 9bbe 7631 95c0 5a5f 07c1 145b 81c2
000002c0: 49df 05c0 aac1 8bc1 c3be 03bf f8ce 07c1
000002d0: e0c4 a7be 7a65 a8c0 e8c5 0bc0 840c e4c1
000002e0: 171a bbbf 0a9b a9c1 ae59 0abf 86ff 0ec1
000002f0: f164 16c0 90e4 c7c1 f2d7 b5be 1045 b7c0
00000300: 70b7 13c0 702e efc1 9ef0 c4c0 d691 58c2
00000310: 3fa8 55c0 2228 d3c1 19b6 0cc1 1267 86c2
00000320: 47f3 f4c0 3eda 71c2 95c0 e9c0 805f 5dc2
00000330: bf6d 90be 50c3 8fc0 58af 8cc0 9ec3 2ac2
00000340: 7cfd 0bc0 aae0 f3c1 88ee 5bc0 fb99 21c2
00000350: 2c47 5dc0 0ec0 eac1 8a3f 9ebe 3358 9ec0
00000360: f62d 54bf 779d 06c1 0ea1 8fbe 9663 8fc0
00000370: 9c6e a0be 52a6 a0c0 a54f 38c1 02e9 b2c2
00000380: ac63 2ebf 7001 12c1 fa1d bcbe 19b7 a3c0
00000390: 2b1c 3ac0 f88a c7c1 4a16 0ec1 ec32 88c2
000003a0: d254 39c1 d764 b6c2 c68d 0ec1 7141 8ac2
000003b0: e9db 69c0 aa37 fbc1 2501 8ec0 bd6e 33c2
000003c0: 2577 80c0 b6d5 16c2 5d66 c8be 1220 c3c0
000003d0: ba9b 47bf f656 28c1 8703 40c1 0ae4 b9c2
000003e0: 014d 6cc0 8225 25c2 ac1c f0bf 4206 a5c1
000003f0: bd08 8fc0 1152 2cc2 b1a6 0cc0 b0d3 91c1

__logstd__ f4 [202, 2]
-17.992609 -23.40031 -9.116119 -9.424532 -27.437319 -26.552444 -30.40448 -25.989464
-33.130013 -29.19358 -15.953045 -17.550236 -9.586968 -9.778624 -9.780298 -10.512948
-9.115779 -9.422559 -9.674551 -9.844484 -28.862497 -35.54508 -12.427246 -12.13917
-9.2284975 -9.591861 -14.512888 -16.019518 -21.990133 -28.060371 -31.126982 -37.286777
-23.34715 -29.072933 -17.074408 -18.637684 -30.698847 -28.835354 -23.58161 -23.482529
-10.659849 -10.608215 -13.568451 -13.020024 -29.839718 -36.93972 -32.367783 -29.113434
-18.711025 -17.813953 -27.345818 -26.585686 -11.309988 -13.0933075 -9.140832 -9.442976
-10.625955 -11.163954 -13.458688 -16.520487 -9.140885 -9.443065 -29.974543 -35.51815
-32.03325 -28.384743 -16.161058 -14.755093 -19.963577 -23.66682 -18.161545 -23.08958
-30.382349 -27.122204 -21.173395 -27.11604 -29.614288 -26.296219 -10.434225 -11.132035
-20.987326 -19.088434 -12.227112 -14.63669 -10.257973 -11.323935 -14.356024 -17.077122
-23.752892 -29.132866 -13.198097 -14.199116 -26.367102 -32.22237 -11.276355 -13.03671
-14.1519375 -13.207899 -31.422268 -28.577171 -21.260551 -21.432589 -24.75184 -21.687777
-10.229178 -11.275682 -23.690105 -30.067589 -35.46956 -31.47157 -12.973491 -12.325166
-9.98747 -10.620656 -13.000539 -12.341618 -9.469858 -9.690558 -30.452713 -27.166763
-9.140621 -9.442976 -19.68325 -18.625587 -20.715244 -18.721172 -26.554033 -33.19769
-26.11596 -31.519356 -10.047729 -10.969386 -13.86681 -12.996938 -24.239395 -21.968735
-24.364054 -28.478268 -23.557716 -20.474777 -18.582565 -22.829838 -26.183676 -27.47042
-11.078387 -10.900146 -10.940175 -12.470972 -30.341988 -31.998272 -20.993715 -18.339039
-11.067759 -12.685676 -9.118309 -9.405299 -29.399035 -36.543518 -32.432224 -36.82326
-9.5103035 -10.064723 -26.397537 -29.551903 -12.227112 -14.63669 -9.14076 -9.44284
-22.534912 -25.589077 -9.140521 -9.442902 -9.164261 -9.4823885 -20.90907 -26.73695
-11.187774 -12.887653 -13.081714 -12.399233 -9.874429 -9.994783 -27.770264 -24.330486
-23.567654 -20.640177 -13.530996 -12.735615 -20.48075 -19.533817 -10.33094 -10.338016
-28.708637 -25.112469 -27.806644 -28.84517 -12.589875 -15.256086 -21.498013 -27.516983
-22.47387 -26.895382 -17.92812 -23.391432 -9.118951 -9.4266615 -27.630949 -26.737099
-30.877695 -26.45908 -33.82796 -29.888866 -16.053543 -17.75908 -9.566084 -9.762918
-9.744353 -10.472552 -9.116393 -9.423147 -9.6367855 -9.816086 -28.921917 -35.674667
-12.387258 -12.112756 -9.234958 -9.602474 -14.69403 -16.208107 -22.043463 -27.987175
-31.03492 -37.19157 -23.377731 -28.932495 -17.30856 -18.839516 -30.650066 -28.848103
-23.630653 -23.570015 -10.548 -10.527418 -13.594805 -13.049837 -29.532784 -36.63675
-32.61512 -29.34879 -18.415411 -17.58556 -27.496805 -26.728394 -11.307674 -13.089415
00000000: ddf0 8fc1 d633 bbc1 a0db 11c1 e2ca 16c1
00000010: a17f dbc1 686b d4c1 603c f3c1 6cea cfc1
00000020: 2285 04c2 748c e9c1 ac3f 7fc1 e266 8cc1
00000030: 3964 19c1 3e75 1cc1 1a7c 1cc1 0935 28c1
00000040: 3bda 11c1 cdc2 16c1 f6ca 1ac1 0283 1dc1
00000050: 65e6 e6c1 292e 0ec2 00d6 46c1 0a3a 42c1
00000060: eda7 13c1 4378 19c1 ca34 68c1 f927 80c1
00000070: cbeb afc1 a47b e0c1 0f04 f9c1 a925 15c2
00000080: f7c6 bac1 5e95 e8c1 6398 88c1 fa19 95c1
00000090: 3d97 f5c1 ceae e6c1 23a7 bcc1 38dc bbc1
000000a0: be8e 2ac1 40bb 29c1 6018 59c1 0552 50c1
000000b0: beb7 eec1 46c2 13c2 9c78 01c2 50e8 e8c1
000000c0: 2eb0 95c1 fa82 8ec1 3cc4 dac1 7caf d4c1
000000d0: b6f5 34c1 307e 51c1 d940 12c1 6e16 17c1
000000e0: e903 2ac1 8e9f 32c1 c956 57c1 f529 84c1
000000f0: 1141 12c1 cb16 17c1 ddcb efc1 9612 0ec2
00000100: 0c22 00c2 f413 e3c1 d949 81c1 dc14 6cc1
00000110: 68b5 9fc1 a655 bdc1 d84a 91c1 76b7 b8c1
00000120: 0d0f f3c1 46fa d8c1 1d63 a9c1 a6ed d8c1
00000130: 10ea ecc1 a85e d2c1 96f2 26c1 d11c 32c1
00000140: 0be6 a7c1 1db5 98c1 40a2 43c1 e22f 6ac1
00000150: a820 24c1 d62e 35c1 46b2 65c1 f29d 88c1
00000160: ec05 bec1 1c10 e9c1 682b 53c1 942f 63c1
00000170: d3ef d2c1 b5e3 00c2 f36b 34c1 5d96 50c1
00000180: 566e 62c1 8e53 53c1 ce60 fbc1 0c9e e4c1
00000190: 9c15 aac1 f175 abc1 c503 c6c1 9180 adc1
000001a0: b7aa 23c1 3269 34c1 5685 bdc1 6c8a f0c1
000001b0: d4e0 0dc2 c6c5 fbc1 6b93 4fc1 e133 45c1
000001c0: adcc 1fc1 35ee 29c1 3502 50c1 4477 45c1
000001d0: 8a84 17c1 870c 1bc1 289f f3c1 8855 d9c1
000001e0: fc3f 12c1 6e16 17c1 4c77 9dc1 3401 95c1
000001f0: d2b8 a5c1 f6c4 95c1 a96e d4c1 6fca 04c2
00000200: 7ced d0c1 a427 fcc1 7fc3 20c1 9b82 2fc1
00000210: 74de 5dc1 75f3 4fc1 48ea c1c1 f8bf afc1
00000220: 95e9 c2c1 7ed3 e3c1 3476 bcc1 58cc a3c1
00000230: 18a9 94c1 82a3 b6c1 2b78 d1c1 6cc3 dbc1
00000240: 1341 31c1 ff66 2ec1 f50a 2fc1 1a89 47c1
00000250: 64bc f2c1 76fc ffc1 21f3 a7c1 5ab6 92c1
00000260: 8a15 31c1 87f8 4ac1 98e4 11c1 1b7c 16c1
00000270: 3931 ebc1 902c 12c2 99ba 01c2 054b 13c2
00000280: 342a 18c1 1b09 21c1 282e d3c1 4c6a ecc1
00000290: 40a2 43c1 e22f 6ac1 8e40 12c1 df15 17c1
000002a0: 8047 b4c1 6eb6 ccc1 933f 12c1 2016 17c1
000002b0: d0a0 12c1 ddb7 17c1 c645 a7c1 46e5 d5c1
000002c0: 1f01 33c1 d433 4ec1 b34e 51c1 4263 46c1
000002d0: a9fd 1dc1 a2ea 1fc1 8029 dec1 d6a4 c2c1
000002e0: 8e8a bcc1 151f a5c1 f67e 58c1 14c5 4bc1
000002f0: 93d8 a3c1 4245 9cc1 884b 25c1 8368 25c1
00000300: 4aab e5c1 56e6 c8c1 0274 dec1 e8c2 e6c1
00000310: 2170 49c1 ee18 74c1 eefb abc1 c822 dcc1
00000320: 7cca b3c1 be29 d7c1 ca6c 8fc1 a721 bbc1
00000330: 39e7 11c1 9bd3 16c1 2f0c ddc1 94e5 d5c1
00000340: 8505 f7c1 32ac d3c1 d54f 07c2 661c efc1
00000350: a86d 80c1 9912 8ec1 ae0e 19c1 ea34 1cc1
00000360: dfe8 1bc1 938f 27c1 bfdc 11c1 36c5 16c1
00000370: 4630 1ac1 b00e 1dc1 1660 e7c1 dcb2 0ec2
00000380: 3532 46c1 d9cd 41c1 63c2 13c1 bca3 19c1
00000390: bf1a 6bc1 34aa 81c1 0359 b0c1 bce5 dfc1
000003a0: 8447 f8c1 2bc4 14c2 9805 bbc1 c075 e7c1
000003b0: ee77 8ac1 54b7 96c1 5633 f5c1 eac8 e6c1
000003c0: 940b bdc1 648f bcc1 9cc4 28c1 4e70 28c1
000003d0: 5284 59c1 22cc 50c1 2443 ecc1 088c 12c2
000003e0: e275 02c2 52ca eac1 c352 93c1 3aaf 8cc1
000003f0: 75f9 dbc1 c0d3 d5c1 3cec 34c1 3e6e 51c1
