code/models/InterGVAE_large20.pt (torch, 138274 bytes, 14 tensors)

bias f4 [4]
0.07644543 -0.036318876 -0.029161358 0.016392527
00000000: 6c8f 9c3d 1ac3 14bd cde3 eebc 9f49 863c

weight f4 [4, 3]
0.1816373 -0.89587545 0.20652385 0.5713237 0.30688608 -0.46576875 0.66103095 0.095507786
0.10320095 0.27513903 0.6096498 -0.7892021
00000000: 21ff 393e 1858 65bf fd7a 533e 4542 123f
00000010: 2c20 9d3e 3e79 eebe 5339 293f 9699 c33d
00000020: 055b d33d 06df 8c3e 0212 1c3f 2609 4abf

bias f4 [2]
0.06902159 -0.018306157
00000000: 315b 8d3d cbf6 95bc

weight f4 [2, 4]
-0.040861 -0.16204438 0.15352023 -0.6682469 0.36635196 0.3097338 0.48015937 0.6580237
00000000: dd5d 27bd f6ee 25be 6834 1d3e 3b12 2bbf
00000010: 7c92 bb3e 6e95 9e3e 73d7 f53e 3e74 283f

bias f4 [2]
-0.17643696 -0.40476376
00000000: e4ab 34be 323d cfbe

weight f4 [2, 2]
0.33781222 0.30782148 1.5965539 -1.192415
00000000: b9f5 ac3e c79a 9d3e e15b cc3f 0ea1 98bf

bias f4 [2]
0.027346067 -0.11000744
00000000: dc04 e03c 954b e1bd

weight f4 [2, 2]
-1.0447874 0.8246516 -0.19638538 -1.1148554
00000000: 98bb 85bf 5e1c 533f 4019 49be 95b3 8ebf

bias f4 [6]
0.7809247 -0.11350171 0.45527762 0.07026002 0.76542646 0.8471558
00000000: aeea 473f 9673 e8bd 261a e93e 7ce4 8f3d
00000010: fdf2 433f 34df 583f

weight f4 [6, 2]
-0.38366142 -0.18750556 0.109109886 0.6565073 0.20869142 -0.39149052 -0.068538964 0.7145496
0.82751626 -1.0082712 -0.68993855 -0.718617
00000000: 456f c4be 7501 40be 0175 df3d dd10 283f
00000010: 34b3 553e 7271 c8be 285e 8cbd b9ec 363f
00000020: 1bd8 533f 080f 81bf d09f 30bf 49f7 37bf

bias f4 [3]
1.899042 1.8162388 1.8153727
00000000: cf13 f33f 837a e83f 225e e83f

weight f4 [3, 6]
-0.27245462 -0.50279176 0.2868134 -1.3177308 0.2600152 0.5195724 0.53571916 -1.4325529
0.9039861 -0.65792865 0.098381884 0.13374287 0.36358324 -1.1506215 -0.40878886 -1.7273526
0.48862258 0.26550773
00000000: 2c7f 8bbe f6b6 00bf 35d9 923e 67ab a8bf
00000010: b620 853e b202 053f e424 093f e55d b7bf
00000020: a26b 673f 036e 28bf 717c c93d e4f3 083e
00000030: 9527 ba3e 9147 93bf c64c d1be e419 ddbf
00000040: bd2c fa3e a1f0 873e

__mu__ f4 [202, 2]
0.5042016 -2.6197016 0.8519048 -3.9302309 0.52193576 -2.7112272 0.6473414 -3.1368718
0.59555614 -2.9941545 0.56225115 -2.7879775 0.5044848 -2.6715918 0.5278395 -2.7178204
0.6475862 -3.1223137 0.44097328 -2.6620803 0.74110335 -3.6379395 0.690603 -3.2795265
0.5597771 -2.9629061 0.81123203 -3.7630236 0.49289 -2.5655575 0.47127777 -2.475578
0.5347791 -2.8051732 0.5114994 -2.6252167 0.49201065 -2.7597005 0.5808066 -3.0950983
0.6244052 -3.2544796 0.64349955 -3.1692758 0.49839586 -2.706883 0.34708643 -2.230272
0.3820485 -2.2515528 0.4760332 -2.5221472 0.83436054 -3.7798712 0.6992489 -3.4384487
0.49279392 -2.7039561 0.72964686 -3.3792362 0.48535138 -2.711903 0.63910294 -3.3204296
0.440629 -2.482909 0.4390183 -2.5606463 0.51327336 -2.7613308 0.660816 -3.2485466
0.75752884 -3.5281074 0.59613997 -2.9383376 0.5903674 -3.013586 0.5573924 -2.8394237
0.6462174 -3.1056416 0.57936823 -2.9754708 0.58645695 -3.1472254 0.7537664 -3.6448202
0.49656814 -2.7420132 0.8279001 -3.814513 0.42634177 -2.3867912 0.5402482 -2.9885285
0.48240387 -2.5303366 0.39461666 -2.2527928 0.6174502 -3.145545 0.39920282 -2.5080757
0.42559022 -2.5186927 0.62413687 -3.090289 0.57496077 -2.932638 0.78763556 -3.803016
0.5278968 -2.7289941 0.7809917 -3.7461483 0.6496628 -3.2503662 0.59554386 -2.8952217
0.5403568 -2.8883493 0.55794483 -2.7623568 0.73535246 -3.5437667 0.56234986 -2.8748944
0.48304927 -2.7971208 0.48249757 -2.5749407 0.70332533 -3.3790631 0.619942 -3.190073
0.637489 -3.2329814 0.47427344 -2.60054 0.60750127 -3.1923707 0.6492445 -3.1238532
0.7105932 -3.5503602 0.6161643 -2.98368 0.6423588 -3.3196173 0.7608715 -3.646475
0.85378283 -3.9262197 0.4533031 -2.6504407 0.5765136 -3.0669105 0.55375063 -2.8122861
0.49108064 -2.6947823 0.6963905 -3.4499085 0.500056 -2.8281784 0.5232926 -2.7811391
0.5962399 -3.0941253 0.66452986 -3.261232 0.503245 -2.869165 0.6377389 -3.1601164
0.4282695 -2.3607187 0.51785773 -2.6541436 0.7654817 -3.6005042 0.56792897 -3.079537
0.48460025 -2.7557774 0.5171032 -2.8405664 0.7033424 -3.3050382 0.6007748 -3.0194306
0.6235065 -3.1973953 0.7116615 -3.3736992 0.47343636 -2.6385329 0.5381105 -2.913431
0.5582824 -2.923647 0.44557774 -2.5223825 0.58310705 -3.0854642 0.38240469 -2.2334464
0.73008597 -3.488265 0.4957543 -2.62924 0.5253728 -2.6959147 0.43780196 -2.4352825
0.55107373 -2.830719 0.5223855 -2.7992837 0.50268537 -2.8832579 0.6450388 -3.3319228
0.63179314 -3.1510813 0.7808181 -3.606855 0.7021635 -3.405305 0.6398519 -3.151308
0.5462958 -2.7946277 0.45221704 -2.6112182 0.44437063 -2.4297733 0.60097545 -3.1059606
0.4781984 -2.7217624 0.7354188 -3.6528282 0.46999937 -2.739983 0.74806565 -3.509068
0.5607795 -2.924977 0.598875 -2.9999263 0.58811855 -2.8999097 0.8607183 -3.9623246
00000000: 5b13 013f 31a9 27c0 6f16 5a3f e788 7bc0
00000010: 959d 053f bf84 2dc0 2ab8 253f 82c2 48c0
00000020: 5e76 183f 3aa0 3fc0 b1ef 0f3f 396e 32c0
00000030: ea25 013f 5cfb 2ac0 7d20 073f c5f0 2dc0
00000040: 36c8 253f fdd3 47c0 40c7 e13e 865f 2ac0
00000050: f3b8 3d3f 00d4 68c0 5ccb 303f c3e3 51c0
00000060: 8d4d 0f3f 41a0 3dc0 e7ac 4f3f 61d5 70c0
00000070: 145c fc3e 1832 24c0 524b f13e df6f 1ec0
00000080: 48e7 083f f587 33c0 a0f1 023f 8d03 28c0
00000090: d2e8 fb3e ef9e 30c0 beaf 143f 1716 46c0
000000a0: 05d9 1f3f 6549 50c0 63bc 243f 6ad5 4ac0
000000b0: be2d ff3e 923d 2dc0 50b5 b13e c7bc 0ec0
000000c0: dc9b c33e 7119 10c0 a0ba f33e dc6a 21c0
000000d0: a798 553f 69e9 71c0 fa01 333f 8b0f 5cc0
000000e0: 7c4f fc3e 9e0d 2dc0 23ca 3a3f 6845 58c0
000000f0: fa7f f83e d28f 2dc0 409c 233f eb81 54c0
00000100: 209a e13e fbe7 1ec0 02c7 e03e a1e1 23c0
00000110: e265 033f a5b9 30c0 3d2b 293f 30e8 4fc0
00000120: 69ed 413f 83cc 61c0 a19c 183f b90d 3cc0
00000130: 5122 173f 98de 40c0 45b1 0e3f 1eb9 35c0
00000140: 816e 253f d5c2 46c0 7a51 143f 1d6e 3ec0
00000150: 0b22 163f 246c 49c0 d6f6 403f bc44 69c0
00000160: 2e3e fe3e 257d 2fc0 43f1 533f fb20 74c0
00000170: 7849 da3e 30c1 18c0 b54d 0a3f 0d44 3fc0
00000180: a4fd f63e 09f1 21c0 320b ca3e c22d 10c0
00000190: 3711 1e3f 9c50 49c0 5064 cc3e 5084 20c0
000001a0: f6e6 d93e 4332 21c0 6fc7 1f3f 4cc7 45c0
000001b0: a130 133f 57b0 3bc0 7ca2 493f 9d64 73c0
000001c0: 3f24 073f d7a7 2ec0 12ef 473f e5c0 6fc0
000001d0: 4d50 263f 0006 50c0 9075 183f 504b 39c0
000001e0: d354 0a3f b7da 38c0 79d5 0e3f 74ca 30c0
000001f0: 0f40 3c3f 13cd 62c0 29f6 0f3f 45fe 37c0
00000200: 3c52 f73e 0704 33c0 ec09 f73e d4cb 24c0
00000210: 210d 343f 9242 58c0 85b4 1e3f 282a 4cc0
00000220: 7b32 233f 2be9 4ec0 f8d3 f23e 3f6f 26c0
00000230: 3485 1b3f cd4f 4cc0 e334 263f 36ed 47c0
00000240: 70e9 353f 1a39 63c0 f2bc 1d3f 9df4 3ec0
00000250: a071 243f 9c74 54c0 7ac8 423f d95f 69c0
00000260: 8391 5a3f 2f47 7bc0 5817 e83e d2a0 29c0
00000270: 6596 133f 4348 44c0 9ac2 0d3f 7ffc 33c0
00000280: ec6e fb3e 5077 2cc0 a646 323f 4dcb 5cc0
00000290: ac03 003f e000 35c0 81f6 053f 2ffe 31c0
000002a0: 2ea3 183f 2606 46c0 a11e 2a3f 06b8 50c0
000002b0: aad4 003f 66a0 37c0 db42 233f 593f 4ac0
000002c0: 2446 db3e 0416 17c0 5392 043f 7ddd 29c0
000002d0: 9cf6 433f a96e 66c0 cb63 113f 2217 45c0
000002e0: 861d f83e a85e 30c0 e060 043f d7cb 35c0
000002f0: 3f0e 343f bf85 53c0 61cc 193f 5a3e 41c0
00000300: 1f9e 1f3f 20a2 4cc0 732f 363f b0ea 57c0
00000310: 4066 f23e b9dd 28c0 9cc1 093f a775 3ac0
00000320: 98eb 0e3f 081d 3bc0 c422 e43e b76e 21c0
00000330: 8146 153f 3f78 45c0 8cca c33e c9f0 0ec0
00000340: eae6 3a3f bc3f 5fc0 82d3 fd3e 7845 28c0
00000350: d57e 063f de89 2cc0 9427 e03e abdb 1bc0
00000360: 2b13 0d3f 802a 35c0 0ebb 053f 7727 33c0
00000370: fdaf 003f 4c87 38c0 4321 253f 393e 55c0
00000380: 32bd 213f 51ab 49c0 b2e3 473f b6d6 66c0
00000390: fdc0 333f 84f0 59c0 56cd 233f 08af 49c0
000003a0: 0bda 0b3f 2edb 32c0 fe88 e73e 331e 27c0
000003b0: 8c84 e33e 6881 1bc0 87d9 193f 0fc8 46c0
000003c0: 6cd6 f43e 5b31 2ec0 6844 3c3f f0c7 69c0
000003d0: c2a3 f03e e25b 2fc0 3b81 3f3f 9294 60c0
000003e0: 3f8f 0f3f d332 3bc0 df4f 193f cbfe 3fc0
000003f0: f08e 163f 1f98 39c0 0958 5c3f ba96 7dc0

__logstd__ f4 [202, 2]
1.5678666 -2.4260654 2.4749804 -3.6725101 1.6306989 -2.4983659 1.9263085 -2.9312954
1.8264196 -2.7642045 1.685405 -2.6163008 1.602715 -2.4450488 1.6355922 -2.513993
1.9165573 -2.9266999 1.5912969 -2.2986405 2.270029 -3.3196194 2.0254796 -3.079167
1.8026114 -2.6725729 2.3595376 -3.5217898 1.5306314 -2.3814466 1.4685293 -2.3009589
1.6947684 -2.5605056 1.5721464 -2.444452 1.6608597 -2.4481037 1.892998 -2.7666724
2.0034215 -2.921215 1.9477514 -2.9340985 1.6259173 -2.443811 1.2940499 -1.9345205
1.3111033 -2.0207882 1.5001605 -2.328133 2.3726768 -3.579838 2.132824 -3.1548247
1.6235094 -2.4301598 2.0954936 -3.202355 1.6282531 -2.4162066 2.0488489 -2.9776347
1.4710202 -2.234521 1.5230654 -2.2583761 1.6636391 -2.496569 2.0023258 -3.001125
2.197618 -3.3177843 1.7890046 -2.745786 1.8390498 -2.7593877 1.7195477 -2.6235461
1.9052589 -2.917723 1.8125966 -2.7211392 1.9284312 -2.7978272 2.2756507 -3.350573
1.6493504 -2.4521148 2.3954146 -3.5775344 1.4053786 -2.168361 1.8182598 -2.6376464
1.5061624 -2.3453774 1.3129319 -2.049534 1.9297597 -2.8670382 1.484627 -2.1501155
1.4938439 -2.2133002 1.8932052 -2.8625634 1.783501 -2.69607 2.3845074 -3.482784
1.643096 -2.518073 2.3458145 -3.4477153 2.0026634 -2.9766483 1.7600203 -2.7292004
1.7510338 -2.602474 1.6678684 -2.597544 2.2063694 -3.2733731 1.7437466 -2.6472523
1.685264 -2.4411492 1.5361054 -2.3613575 2.0932913 -3.1430101 1.9598421 -2.8883927
1.9900308 -2.9430833 1.5526341 -2.3518844 1.9603981 -2.8611848 1.9177221 -2.930979
2.2088323 -3.2199392 1.821023 -2.806917 2.0485616 -2.9846807 2.2773237 -3.367161
2.4724374 -3.6753228 1.5844626 -2.3222957 1.8737397 -2.7470376 1.7010461 -2.6057494
1.6172165 -2.4230578 2.1402888 -3.1524372 1.707456 -2.4904335 1.6777278 -2.5261383
1.8935683 -2.801088 2.0111344 -3.013975 1.7352166 -2.5121062 1.9411477 -2.9178858
1.3880332 -2.1634853 1.5920647 -2.4689996 2.2468367 -3.361292 1.8815337 -2.7321668
1.6576393 -2.4300258 1.7171214 -2.533208 2.0436108 -3.116878 1.8437973 -2.7848947
1.9650389 -2.8990097 2.0903513 -3.15989 1.5780667 -2.3634312 1.7676891 -2.6062818
1.7761443 -2.6553266 1.4979049 -2.2596228 1.8867147 -2.7684472 1.2989798 -2.0151894
2.1687024 -3.2418902 1.5735985 -2.4104118 1.6206946 -2.5006933 1.4388317 -2.211316
1.7132051 -2.6062367 1.6898338 -2.5305102 1.7446309 -2.515828 2.057033 -2.9950671
1.9346124 -2.9013 2.2523143 -3.398079 2.110811 -3.1496723 1.9354036 -2.9195306
1.688604 -2.582716 1.5580524 -2.3059828 1.435655 -2.2241626 1.901887 -2.8159378
1.6343029 -2.4035816 2.2795703 -3.31208 1.6458815 -2.3915565 2.1840894 -3.2897396
1.7772354 -2.6614213 1.8305563 -2.7737198 1.762578 -2.7141337 2.4972186 -3.7037077
00000000: daaf c83f a844 1bc0 1466 1e40 680a 6bc0
00000010: beba d03f 3ae5 1fc0 4791 f63f 589a 3bc0
00000020: 1ec8 e93f bae8 30c0 5abb d73f 7971 27c0
00000030: c425 cd3f ae7b 1cc0 165b d13f 43e5 20c0
00000040: c051 f53f 0d4f 3bc0 9eaf cb3f ed1c 13c0
00000050: 2848 1140 a574 54c0 75a1 0140 1211 45c0
00000060: f8bb e63f 6f0b 2bc0 aa02 1740 0165 61c0
00000070: bbeb c33f 9f69 18c0 c5f8 bb3f e942 13c0
00000080: 2cee d83f 53df 23c0 183c c93f e771 1cc0
00000090: 0d97 d43f bbad 1cc0 c24d f23f 2911 31c0
000000a0: 0f38 0040 30f5 3ac0 eb4f f93f 45c8 3bc0
000000b0: 0f1e d03f 6667 1cc0 6da3 a53f 5e9e f7bf
000000c0: 3cd2 a73f 9854 01c0 4205 c03f 2200 15c0
000000d0: f0d9 1740 111c 65c0 3080 0840 a6e8 49c0
000000e0: 28cf cf3f bd87 1bc0 911c 0640 62f3 4cc0
000000f0: 996a d03f 21a3 1ac0 5720 0340 9191 3ec0
00000100: 644a bc3f 6402 0fc0 cff3 c23f 3c89 10c0
00000110: 20f2 d43f c9c7 1fc0 1b26 0040 6f12 40c0
00000120: c6a5 0c40 9456 54c0 1afe e43f f5ba 2fc0
00000130: fc65 eb3f cf99 30c0 241a dc3f 2ee8 27c0
00000140: 86df f33f f9bb 3ac0 2a03 e83f 2527 2ec0
00000150: d5d6 f63f 9a0f 33c0 43a4 1140 ca6f 56c0
00000160: ea1d d33f 73ef 1cc0 794e 1940 53f6 64c0
00000170: 72e3 b33f 6dc6 0ac0 bdbc e83f 33cf 28c0
00000180: eec9 c03f aa1a 16c0 270e a83f 912b 03c0
00000190: 5e02 f73f 8e7d 37c0 4208 be3f 7e9b 09c0
000001a0: 4736 bf3f b6a6 0dc0 8c54 f23f 3d34 37c0
000001b0: c349 e43f 698c 2cc0 c59b 1840 efe5 5ec0
000001c0: f850 d23f 1c28 21c0 d321 1640 5ea7 5cc0
000001d0: a32b 0040 6881 3ec0 5848 e13f 38ab 2ec0
000001e0: e021 e03f ef8e 26c0 b67c d53f 293e 26c0
000001f0: 2835 0d40 f27e 51c0 1733 df3f 956c 29c0
00000200: bbb6 d73f ca3b 1cc0 1a9f c43f 7b20 17c0
00000210: 7cf8 0540 1427 49c0 1bdc fa3f 6ddb 38c0
00000220: 54b9 fe3f 7a5b 3cc0 b7bc c63f 4685 16c0
00000230: 53ee fa3f a71d 37c0 eb77 f53f 2995 3bc0
00000240: 825d 0d40 7c13 4ec0 4817 e93f 87a4 33c0
00000250: a21b 0340 0205 3fc0 acbf 1140 917f 57c0
00000260: 6a3c 1e40 7d38 6bc0 accf ca3f 7ea0 14c0
00000270: b4d6 ef3f 77cf 2fc0 e1bb d93f 99c4 26c0
00000280: f300 cf3f 6113 1bc0 7efa 0840 88c1 49c0
00000290: eb8d da3f 4363 1fc0 c9bf d63f 40ac 21c0
000002a0: 7260 f23f 0745 33c0 6db6 0040 f7e4 40c0
000002b0: 941b de3f 59c6 20c0 8777 f83f a4be 3ac0
000002c0: 12ab b13f 8b76 0ac0 c7c8 cb3f 1704 1ec0
000002d0: 2ccc 0f40 681f 57c0 19d6 f03f d2db 2ec0
000002e0: 862d d43f 8b85 1bc0 a2ca db3f 1420 22c0
000002f0: 85ca 0240 ee7a 47c0 8d01 ec3f b73b 32c0
00000300: 6586 fb3f 6089 39c0 51c8 0540 a33b 4ac0
00000310: 17fe c93f 7542 17c0 a343 e23f 52cd 26c0
00000320: b258 e33f dff0 29c0 59bb bf3f a99d 10c0
00000330: de7f f13f 3d2e 31c0 f844 a63f ddf8 00c0
00000340: 05cc 0a40 217b 4fc0 ad6b c93f 3044 1ac0
00000350: ec72 cf3f 5c0b 20c0 a32b b83f 3486 0dc0
00000360: 4e4a db3f 95cc 26c0 794c d83f e1f3 21c0
00000370: 1150 df3f 5303 21c0 6ea6 0340 2eaf 3fc0
00000380: 61a1 f73f e6ae 39c0 eb25 1040 207a 59c0
00000390: 8717 0740 3b94 49c0 4ebb f73f 97d9 3ac0
000003a0: 2d24 d83f 384b 25c0 436e c73f 3995 13c0
000003b0: 8bc3 b73f ae58 0ec0 0971 f33f 5338 34c0
000003c0: d630 d13f 48d4 19c0 7be4 1140 1ef9 53c0
000003d0: 3fac d23f 430f 19c0 1fc8 0b40 188b 52c0
000003e0: 737c e33f ba54 2ac0 ab4f ea3f a084 31c0
000003f0: 289c e13f 5eb4 2dc0 6ed2 1f40 8c09 6dc0
