code/models/IntraGVAE_v1.pt (torch, 28488 bytes, 28 tensors)

bias f8 [4]
000000 07 ce cb 36 0a fc ce bd 60 fa fb a8 41 64 b8 bf
       -5.636053329725372e-11 -0.09527979255288122
000010 08 14 41 f6 77 89 0c 3e 00 00 00 00 00 00 00 00
       8.305356233553397e-10 0.0

weight f8 [4, 5]
000000 4c 7e b1 e8 d9 e1 bf 3f 40 74 a0 d5 2a 58 cf bf
       0.12453996592511735 -0.24487815314287964
000010 b8 88 9a 08 a7 f9 e3 3f 8d 82 b1 6e ed ed ef 3f
       0.6242251556434644 0.9977938806515155
000020 a6 f4 a9 b8 6c c2 ce 3f db 73 50 05 f1 41 d6 3f
       0.2403083707503459 0.34777474898311106
000030 d0 d6 3c c2 ef 4a 98 bf bb 7d 31 4d f4 59 ec 3f
       -0.02372336028130101 0.8859807498628735
000040 06 79 48 10 91 54 ae bf 33 a5 2f b8 21 a5 e0 bf
       -0.059238942372973155 -0.5201576802620934
000050 a4 30 6c 04 f8 09 c7 3f 5a 0b 4e ea 88 55 cd bf
       0.1799917241663752 -0.22917281571070697
000060 3b 94 74 81 48 a5 df 3f d3 a7 0c 28 c3 81 ea 3f
       0.49446308748366946 0.8283401281562369
000070 17 bc d1 1c 49 29 b8 bf 00 00 00 60 36 33 af bf
       -0.09437996820064175 -0.06093759462237358
000080 00 00 00 20 ae 06 a4 bf 00 00 00 40 60 97 8e bf
       -0.03911346569657326 -0.014937164261937141
000090 00 00 00 20 10 e0 e5 bf 00 00 00 00 48 1e c2 3f
       -0.683601438999176 0.14154911041259766

weight f8 [4]
000000 c0 bc 1f 11 2d 3e e8 3f 67 80 75 c3 0c 6d ef 3f
       0.757589848943006 0.982061750179139
000010 48 2d 41 c0 f5 d8 ef 3f 00 00 00 00 00 00 f0 3f
       0.9952343707058526 1.0

bias f8 [4]
000000 32 52 63 e6 5e 5e e7 3f 28 7a 2f 06 02 3e 86 bf
       0.7302698611989114 -0.010860458196416081
000010 0a ed c9 43 7b 49 e0 bf b7 ae 66 83 f9 99 e5 bf
       -0.5089699100493885 -0.6750457350185205

running_mean f8 [4]
000000 7c 3b 0b ed c3 07 ec 3f 9a 93 76 ab 95 12 c8 3f
       0.8759479169619762 0.18806715843416272
000010 6b 45 7a e1 19 86 e2 3f 00 00 00 00 00 00 00 00
       0.5788697627887535 0.0

running_var f8 [4]
000000 77 72 16 97 f2 75 8f 3f 02 b2 18 5c a1 31 8f 3f
       0.01536168597777386 0.015231381056843855
000010 01 67 4a c5 b8 6a 82 3f 68 5c c8 86 2f d4 14 04
       0.008992618103821128 5.343298885082889e-289

bias f8 [2]
000000 0d 0c 4a cd c6 9d cc 3f 77 87 c8 73 bb ba e1 3f
       0.2235649588002108 0.5540444623368178

weight f8 [2, 4]
000000 e2 e0 6b 5e 57 07 d8 bf dd 9e 6f 3d 66 69 d5 bf
       -0.37544807644691336 -0.33455806731806864
000010 a6 5f ed a2 dc dd e7 3f 23 a9 17 62 f4 1c e0 bf
       0.7458327467129393 -0.5035344997279804
000020 89 d0 84 46 ac ff e5 3f 2d e3 9e 09 b2 29 bf bf
       0.6874600770302247 -0.12172997221831557
000030 89 71 f3 e3 99 ac d3 bf c6 8d 50 26 bf e5 02 c0
       -0.30740973721346926 -2.362180995305354

weight f8 [2]
000000 c6 81 ba 99 84 c5 08 40 14 3b f3 cc a2 de 00 40
       3.0964443216364286 2.1087089549759046

bias f8 [2]
000000 83 fc 6d 36 5a 05 e0 bf 23 39 45 04 16 46 c1 3f
       -0.5006533682898325 0.13495135506168152

running_mean f8 [2]
000000 53 a7 3f 0a 4a 62 a4 3f 32 a3 c0 b0 74 6c 06 40
       0.03981238722901872 2.80295694435008

running_var f8 [2]
000000 1c c2 2f 4e f9 ba 71 3f 0c 20 79 97 66 44 a8 3f
       0.004328702782900009 0.0473968562988035

weight f8 [2, 2]
000000 95 de 40 97 cf 38 ee 3f 7c c1 92 16 b2 9b f9 bf
       0.944434924523153 -1.6005116349952848
000010 43 c7 ec eb 86 bf 04 40 42 44 88 88 f7 c5 f3 bf
       2.5935190612443946 -1.2358317693035734

bias f8 [2]
000000 f2 aa 32 7e b2 d0 a2 bf aa 96 26 71 65 bd b4 3f
       -0.03674848356725659 0.08101495754689361

bias f8 [2]
000000 66 cc 9f 84 61 3c da bf dc 9f 63 d7 69 e7 d5 3f
       -0.409935359493096 0.34224935564134085

weight f8 [2, 2]
000000 85 2f ff 74 c4 bf ca 3f 65 55 f0 2e 6e 77 e3 3f
       0.20897727692351623 0.6083289067052361
000010 04 82 d6 e9 50 9a 04 c0 87 02 22 36 89 8b 0e c0
       -2.575349642618905 -3.818132803833865

bias f8 [2]
000000 9e eb 25 47 58 33 dd bf fd 2a 21 2e c0 bf 05 c0
       -0.4562588400655673 -2.718628273379521

weight f8 [2, 2]
000000 e4 df bf c3 c2 4a f5 3f bb df 88 80 b7 20 f0 3f
       1.3307521482911335 1.0079875012288386
000010 b4 2b ca 01 35 5b eb bf f6 7a aa d0 88 a6 dc 3f
       -0.8548836741405155 0.4476644551995571

bias f8 [10]
000000 e4 45 6a d4 fb 2d f3 bf a8 5a 00 98 ff ff ca bf
       -1.198726491686437 -0.21093745157187027
000010 bb e2 2c 1e 95 d0 e1 3f d5 d9 98 60 8e 5b d4 bf
       0.556711729942513 -0.31808814462001794
000020 7b a8 4c 64 ec 75 b8 bf a2 5d 36 c1 7e ef ca bf
       -0.09554936836926402 -0.21043381151387758
000030 63 e7 86 2f 02 ad 98 3f 50 52 c4 87 94 5d a8 bf
       0.02409747519570916 -0.04758896024046477
000040 98 42 2d f3 0f 4a c0 bf 9c e9 fd bc 7f c8 b5 bf
       -0.12726020215861378 -0.08509062160547959

weight f8 [10, 2]
000000 1b 66 8f c3 45 04 6d 3f a6 5f 38 91 1f f7 dc bf
       0.0035420763565354846 -0.4525832098165615
000010 5f 2a b2 d9 82 61 b5 bf 72 13 89 45 62 96 e4 bf
       -0.08351915182917356 -0.6433574064363781
000020 b7 a3 30 e5 30 f9 b6 bf 6d a2 14 4f b0 f2 f0 3f
       -0.0897398528619665 1.0592501725278922
000030 08 17 7f 28 42 4d c4 3f 0b 8c a5 29 e2 71 e1 bf
       0.15860774018636214 -0.5451517880832183
000040 5d 23 18 3a 64 1d d0 bf 95 5a ee 95 a1 09 e4 3f
       -0.2517939154936835 0.6261756828633503
000050 43 41 8b bc 31 3e c7 3f 7c d0 f2 32 2a 4f dd bf
       0.18158551889656324 -0.4579568383735546
000060 cb e5 e3 1a 4e e6 d8 3f 45 8b 15 1e 9c 9d a6 3f
       0.3890567076301436 0.04417121760595547
000070 7b d5 37 5e e0 1e 9e bf 14 4b 4c 23 3b ed d3 bf
       -0.02941465926229146 -0.3113544316012604
000080 9e 85 85 6f 84 fe 71 bf 80 1f 58 64 e1 ae e2 3f
       -0.0043931172625390185 0.5838477096412902
000090 14 73 9c 8e 03 71 89 bf b8 9f 07 5b 66 71 e1 bf
       -0.01242258814777978 -0.5450927522588165

bias f8 [10]
000000 00 00 00 00 00 00 00 00 00 00 00 00 00 00 00 00
       0.0 0.0
000010 00 00 00 00 00 00 00 00 00 00 00 00 00 00 00 00
       0.0 0.0
000020 00 00 00 00 00 00 00 00 00 00 00 00 00 00 00 00
       0.0 0.0
000030 00 00 00 00 00 00 00 00 00 00 00 00 00 00 00 00
       0.0 0.0
000040 00 00 00 00 00 00 00 00 00 00 00 00 00 00 00 00
       0.0 0.0

weight f8 [10, 10]
000000 00 00 00 c0 b1 5c b8 3f 00 00 00 a0 e3 d1 d3 3f
       0.09516440331935883 0.309685617685318
000010 00 00 00 c0 dd a5 b6 3f 00 00 00 c0 38 cf bc 3f
       0.08846841752529144 0.1125369518995285
000020 00 00 00 e0 b5 7e d9 bf 00 00 00 60 e0 84 d6 bf
       -0.3983587920665741 -0.3518601357936859
000030 00 00 00 40 87 10 c7 bf 00 00 00 e0 58 6c da bf
       -0.18019190430641174 -0.41286298632621765
000040 00 00 00 40 0f 3f d2 bf 00 00 00 40 3b a4 d6 3f
       -0.2850988507270813 0.35377389192581177
000050 00 00 00 00 f3 76 df bf 00 00 00 a0 1f 45 d9 bf
       -0.4916350841522217 -0.3948439657688141
000060 00 00 00 e0 6d 48 a9 bf 00 00 00 a0 f8 ae ca bf
       -0.04938071593642235 -0.20846469700336456
000070 00 00 00 20 9a 8c d3 bf 00 00 00 c0 03 51 da 3f
       -0.30545666813850403 0.41119474172592163
000080 00 00 00 20 f8 1c e0 bf 00 00 00 80 8e d6 db bf
       -0.5035362839698792 -0.434970498085022
000090 00 00 00 e0 d0 f2 9f bf 00 00 00 e0 6e 05 d0 bf
       -0.031199706718325615 -0.2503316104412079
0000a0 00 00 00 60 fe f1 dd 3f 00 00 00 20 c9 ca e0 bf
       0.46789512038230896 -0.5247541069984436
0000b0 00 00 00 c0 9c ed ae 3f 00 00 00 20 52 20 e1 3f
       0.06040658801794052 0.5351954102516174
0000c0 00 00 00 60 7b ae bb 3f 00 00 00 00 28 8d d6 bf
       0.10813113301992416 -0.35236549377441406
0000d0 00 00 00 80 38 4d a6 3f 00 00 00 e0 37 d1 dd bf
       0.043557897210121155 -0.4658946692943573
0000e0 00 00 00 20 f5 ad db bf 00 00 00 00 bd 76 e1 3f
       -0.43249252438545227 0.5457444190979004
0000f0 00 00 00 e0 a0 63 e1 bf 00 00 00 60 21 05 d2 3f
       -0.5434116721153259 0.2815631330013275
000100 00 00 00 a0 c6 2e d1 3f 00 00 00 c0 b7 9c 97 3f
       0.26847997307777405 0.02305876836180687
000110 00 00 00 a0 ac 7c db bf 00 00 00 60 47 1b da bf
       -0.4294845163822174 -0.4079149663448334
000120 00 00 00 c0 8f c0 ad 3f 00 00 00 00 9f 7a cf 3f
       0.05810975283384323 0.24592959880828857
000130 00 00 00 a0 82 7f d3 bf 00 00 00 c0 b2 06 e0 bf
       -0.30465760827064514 -0.5008176565170288
000140 00 00 00 40 b2 72 b5 3f 00 00 00 60 ee eb e0 3f
       0.08378137648105621 0.5288001894950867
000150 00 00 00 00 a7 14 b9 bf 00 00 00 60 ef 9d cc 3f
       -0.09797137975692749 0.22356979548931122
000160 00 00 00 e0 34 57 cd bf 00 00 00 40 be cb db 3f
       -0.22922383248806 0.4343104958534241
000170 00 00 00 e0 f1 0f 98 bf 00 00 00 c0 ac d7 d4 bf
       -0.023498324677348137 -0.3256637454032898
000180 00 00 00 c0 d9 36 e1 3f 00 00 00 40 25 8c c3 bf
       0.5379456281661987 -0.15271440148353577
000190 00 00 00 40 ec 4c e1 3f 00 00 00 e0 45 e3 b1 bf
       0.5406399965286255 -0.06987415999174118
0001a0 00 00 00 00 cf e4 ba 3f 00 00 00 c0 f8 4d cc bf
       0.1050538420677185 -0.22112950682640076
0001b0 00 00 00 00 bd eb e0 3f 00 00 00 60 07 54 df bf
       0.5287766456604004 -0.4895037114620209
0001c0 00 00 00 40 7a 3d d3 3f 00 00 00 60 89 ae b9 3f
       0.30062729120254517 0.10031946748495102
0001d0 00 00 00 60 0b 4b d6 bf 00 00 00 00 df 97 c0 bf
       -0.3483303487300873 -0.12963473796844482
0001e0 00 00 00 40 80 4f c0 3f 00 00 00 00 35 34 de bf
       0.1274261772632599 -0.4719364643096924
0001f0 00 00 00 a0 e4 ed dd bf 00 00 00 40 76 d4 d8 bf
       -0.4676448404788971 -0.38796764612197876
000200 00 00 00 00 e1 3d e1 bf 00 00 00 00 36 d6 db bf
       -0.5388035774230957 -0.4349493980407715
000210 00 00 00 80 2e d1 da 3f 00 00 00 60 c9 9b de bf
       0.4190174341201782 -0.4782584607601166
000220 00 00 00 20 ed cf c9 3f 00 00 00 e0 cc a7 b6 bf
       0.20165790617465973 -0.08849792927503586
000230 00 00 00 00 79 ca c9 3f 00 00 00 00 6a a0 dd 3f
       0.20149147510528564 0.46291589736938477
000240 00 00 00 20 e0 48 df bf 00 00 00 40 bc 86 db bf
       -0.48882296681404114 -0.43009859323501587
000250 00 00 00 c0 25 15 db 3f 00 00 00 00 a8 56 e0 3f
       0.4231657385826111 0.5105781555175781
000260 00 00 00 20 59 92 e0 3f 00 00 00 60 da 67 d5 3f
       0.5178647637367249 0.3344636857509613
000270 00 00 00 60 98 81 c8 bf 00 00 00 60 0c 63 d4 bf
       -0.1914549320936203 -0.3185454308986664
000280 00 00 00 e0 a4 85 d0 bf 00 00 00 20 94 ba db bf
       -0.25815698504447937 -0.4332628548145294
000290 00 00 00 c0 69 9e d9 bf 00 00 00 80 6c 31 86 bf
       -0.40029376745224 -0.010836455971002579
0002a0 00 00 00 e0 4a 59 c2 3f 00 00 00 a0 81 3b d1 bf
       0.14334999024868011 -0.26925697922706604
0002b0 00 00 00 c0 bf 4e e1 bf 00 00 00 00 e3 eb d8 bf
       -0.5408629179000854 -0.38939738273620605
0002c0 00 00 00 00 77 45 c1 3f 00 00 00 80 27 2e d1 bf
       0.13493239879608154 -0.2684420347213745
0002d0 00 00 00 c0 f2 7f e0 3f 00 00 00 80 66 ee c0 3f
       0.5156186819076538 0.13227540254592896
0002e0 00 00 00 40 c1 79 d6 bf 00 00 00 40 ac f0 d1 3f
       -0.3511813282966614 0.28031450510025024
0002f0 00 00 00 e0 76 b4 e0 3f 00 00 00 c0 06 82 cb 3f
       0.5220293402671814 0.21490558981895447
000300 00 00 00 40 1c ee c7 bf 00 00 00 c0 e2 1f d9 bf
       -0.1869540512561798 -0.3925711512565613
000310 00 00 00 a0 97 a5 cc bf 00 00 00 80 d1 49 cb 3f
       -0.22380347549915314 0.2131902575492859

weight f8 [5, 10]
000000 7b 6d 7c 07 0c a0 bc bf 55 fa 62 97 42 e3 e4 bf
       -0.1118171232487181 -0.6527417141695177
000010 d6 2f ee 46 e5 69 e6 3f 07 aa 2f 66 07 2f bf bf
       0.7004267106399265 -0.12181135411052689
000020 79 fb 22 d3 ed b6 d6 bf 92 98 7f c4 ac c1 e0 bf
       -0.35491510027707524 -0.5236419523105431
000030 2e 21 42 0e ce c6 c7 3f 20 a5 60 a9 bd ff da bf
       0.18575454422194454 -0.42185918370030784
000040 9a e2 7d 06 62 ce 8f 3f e6 c4 87 3a 55 c1 e8 bf
       0.015530362914192342 -0.7736002104922164
000050 00 28 e5 14 61 73 e0 bf 6a 32 cc 5a 86 e2 cb 3f
       -0.5140843780620798 0.21785048898199771
000060 f4 d4 66 2c fe a6 c7 bf 18 23 76 64 e4 5e b1 bf
       -0.18478371780444258 -0.06785418942139321
000070 cf 8c 32 68 2e ee c6 3f 18 91 60 58 48 66 a2 3f
       0.1791437157417932 0.03593660429786122
000080 84 94 c4 5c 6e 7b c8 3f 52 f1 27 e0 49 aa c9 3f
       0.1912668183296412 0.20050929494017083
000090 22 bb c9 ad 55 58 a5 3f a8 70 59 5c 0d 4d c2 3f
       0.04168956514774026 0.14297644623991812
0000a0 38 7d 51 72 54 b4 f8 bf 2e 13 4b 75 d1 0e e3 3f
       -1.5440258470114951 0.5955588618167889
0000b0 2a 31 ad 4a 44 18 ce 3f 3f 7f b9 93 a6 b6 b6 3f
       0.2351155628806592 0.08872452837522092
0000c0 d6 4e e5 45 9b c6 c5 bf 3f 35 75 9d 49 e6 c9 3f
       -0.17012349045636793 0.2023403185689094
0000d0 a4 8e 9e ba 91 de b5 3f 3e bc a4 00 e4 8e c5 3f
       0.08542738729607408 0.16842317611141938
0000e0 69 49 8f b9 89 93 ca 3f 1f 51 52 16 ff 60 d2 3f
       0.2076275020650187 0.2871701925262346
0000f0 00 00 00 80 75 a9 cb 3f 00 00 00 00 e0 25 96 bf
       0.21610897779464722 -0.021628856658935547
000100 00 00 00 20 46 89 cd bf 00 00 00 40 48 af c4 bf
       -0.23075176775455475 -0.16159918904304504
000110 00 00 00 20 a4 6d c9 bf 00 00 00 60 d6 17 d4 bf
       -0.19865848124027252 -0.3139549195766449
000120 00 00 00 60 5c aa b5 bf 00 00 00 00 2e 69 d2 bf
       -0.08463075011968613 -0.28766965866088867
000130 00 00 00 e0 88 7a ba bf 00 00 00 80 c8 2e d4 bf
       -0.10343223065137863 -0.31535542011260986
000140 60 c1 1c b9 6f c8 fe bf 60 eb c8 73 6f ca cd 3f
       -1.923934672446272 0.2327403369289085
000150 9e d3 cc aa 41 cc d0 bf bb 98 7b 13 32 40 b4 bf
       -0.2624668281526342 -0.07910454726843145
000160 5d ec 25 24 a8 c2 83 3f 4a 32 68 20 8b ff d1 3f
       0.009648622134355184 0.28122213520763195
000170 26 33 d4 34 4b 41 a7 bf 9e 55 59 20 d2 08 af 3f
       -0.04542002696880436 0.060614172409866315
000180 f8 61 23 38 93 a4 b5 3f d1 cb 7a 52 56 2e b8 3f
       0.0845424663597284 0.09445704950012092

bias f8 [5]
000000 0c 00 6d f7 e8 d2 d6 3f 64 48 8e 82 0f a6 e6 3f
       0.35662292635606785 0.7077710676114859
000010 8c 20 21 e1 23 91 ed bf 00 00 00 c0 58 cd d1 bf
       -0.9239673039492273 -0.27815836668014526
000020 9b 5f 28 cd a5 7b a2 3f
       0.03609960679403842

weight f8 [5, 5]
000000 e4 0a 97 bb 3b 54 f4 bf cf cb 80 3d b1 a2 d0 3f
       -1.270564778111912 0.2599299526802356
000010 86 33 94 23 f6 19 c8 bf 00 00 00 00 72 a1 a0 bf
       -0.18829228150607608 -0.03248172998428345
000020 31 c9 57 f2 81 f6 c2 3f 42 92 74 fc e8 7a ec bf
       0.1481478150668152 -0.8900036745804487
000030 c7 a1 53 48 52 19 a9 3f 3f e5 b2 80 b1 c8 f8 bf
       0.04902131207365162 -1.5489974047944342
000040 00 00 00 40 09 1c b0 3f 9d ee 67 39 58 1d eb bf
       0.06292779743671417 -0.8473321076594008
000050 53 38 81 fa f9 5e db 3f 17 3e 3b 43 64 3e d4 bf
       0.4276719042144396 -0.31630808415954575
000060 32 e7 d7 a2 e2 52 da 3f 00 00 00 e0 63 5a ce 3f
       0.41130891707108497 0.23713348805904388
000070 83 96 b7 3b 87 8c c1 3f fa 90 ad 2d 4b ce 95 bf
       0.13710108199954982 -0.02129476038261744
000080 eb 1b 12 9f f5 21 a6 bf a8 92 36 3f f0 b1 9a 3f
       -0.04322784010678745 0.02606940637419322
000090 00 00 00 e0 fc 88 8f bf 9a 2c 89 9a 17 62 90 3f
       -0.015398002229630947 0.015999192053908297
0000a0 73 40 01 53 dc 6f 93 bf 68 c3 47 75 b9 58 b2 3f
       -0.018981401983467493 0.0716663276032371
0000b0 36 ff 27 54 93 c0 ad bf 00 00 00 e0 37 c2 d5 3f
       -0.05810985948846652 0.3399791419506073
0000c0 79 8b 97 67 7d 2d c2 3f
       0.14201324041558985

bias f8 [5]
000000 4b dd 40 44 43 b9 be bf a8 d2 19 22 b4 f2 e7 3f
       -0.12001438537924007 0.7483769098312978
000010 23 43 8f 87 12 24 bb 3f dd d1 7f 8f c1 a2 a8 3f
       0.10601917085228911 0.04811673046780005
000020 9d 78 8f cd 7a e1 bc 3f
       0.1128155471664933

__mu__ f8 [160, 2]
000000 74 3b 54 90 84 3b b2 3f 28 eb 27 2b 34 05 0d c0
       0.07122066997201931 -3.6275409099156555
000010 00 bf ed 30 03 5a 54 bf bc ec 0d 5a d4 d6 06 c0
       -0.0012421637690884224 -2.8548972163676734
000020 e1 0f fe 55 08 59 cd bf e5 cc 19 b5 bf 2b f5 bf
       -0.22927955817078696 -1.3231808733224224
000030 c2 dc 55 87 05 aa d3 bf 78 ac 59 33 d7 2c ec bf
       -0.30725229469630844 -0.8804737093863784
000040 a0 76 66 f5 e0 7a 82 bf 2a 32 00 c6 2f 75 08 c0
       -0.009023435105344035 -3.0572200268564034
000050 2f bd 55 93 7a f6 d4 bf a1 46 a1 dc d7 fe e3 bf
       -0.3275438727204855 -0.6248587903193831
000060 00 23 aa e6 7f 4c 54 bf 88 b7 b4 9c f0 d6 06 c0
       -0.0012389420541316087 -2.8549511187220027
000070 fe 07 e0 ab c2 bc d9 3f 88 39 52 e5 40 f6 17 c0
       0.4021460226505268 -5.990481932777023
000080 d6 d7 8f 1d 38 17 d3 bf fa b7 b0 78 e7 2a ef bf
       -0.29829218756583253 -0.9739873273117603
000090 b7 71 d1 d7 76 e3 d6 bf ea 7e 76 a5 74 f1 d1 bf
       -0.3576333148573911 -0.28036228331073565
0000a0 d1 ae 9f c8 ae d3 d4 bf 03 81 c6 d7 7f bd e4 bf
       -0.3254200896469515 -0.6481322492946052
0000b0 d0 f5 df f3 fd 54 cf bf 57 e0 4f 98 3b 89 f9 bf
       -0.2447812500758304 -1.5960040998161469
0000c0 50 9b 03 b1 f7 6c 93 bf da 13 0e b9 d5 ba 07 c0
       -0.01897036569507843 -2.96622795652591
0000d0 20 b1 4b ca ab f5 85 bf 62 36 8c 5f d6 2f 06 c0
       -0.01072248660190006 -2.7733581032432975
0000e0 68 e1 95 6d 37 22 d5 bf b7 30 50 1f 18 0d e3 bf
       -0.3302134103937733 -0.5953484164797577
0000f0 5c ef 6e 92 94 7d d3 bf 68 35 d0 ab d8 31 ed bf
       -0.3045398168576321 -0.9123347621659095
000100 c2 75 1c 9f f5 e9 d4 bf 96 66 64 c4 5c 93 e4 bf
       -0.3267797521419561 -0.6429885707650154
000110 9e 04 34 c7 8e 63 d8 bf 00 e8 7e ee 3f 66 64 bf
       -0.3810765214294153 -0.002490162722065925
000120 26 74 28 8f ef 8f d5 bf 61 55 20 12 d1 a4 e0 bf
       -0.33691014271045316 -0.5201192239789344
000130 16 bc cc f5 6a 48 d2 bf fb ea 84 ff dc 1e f2 bf
       -0.2856700325382361 -1.1325349789828454
000140 38 53 88 77 c1 4d dc 3f 3f d5 53 e8 fb 2c 18 c0
       0.4422458331403507 -6.043929700962791
000150 d4 a0 0c 74 b4 d4 cc 3f f2 36 68 b6 ce 22 11 c0
       0.2252412382742991 -4.283991670714146
000160 48 d6 10 2d d1 d0 cc 3f db 60 0a 6d 4f 21 11 c0
       0.22512259197690043 -4.2825295484146535
000170 d0 2f 92 35 da 7e a3 bf cc a7 d2 14 94 c4 03 c0
       -0.03807718185370812 -2.470985567740149
000180 30 e3 7f 18 9a 3d c1 bf 60 4b f5 26 0b 9c 01 c0
       -0.13469244190471263 -2.2011931460960312
000190 8b 00 00 1b 67 00 d5 bf 92 fe 27 67 50 c8 e3 bf
       -0.3281495822593647 -0.6182024016161043
0001a0 b2 be d5 b3 18 c7 c3 bf d7 8a e1 d0 5c 04 fd bf
       -0.15451344281199436 -1.8135650786795645
0001b0 0c ab 38 19 2c ea d9 3f ca a9 73 0f a7 16 18 c0
       0.40491774046920237 -6.022121659693264
0001c0 c9 ae 17 42 e1 b1 c9 bf 12 f5 af 2b 55 39 f7 bf
       -0.20074096419499757 -1.4514972406898932
0001d0 d0 bc b7 2c 27 b0 c8 bf cc cc ec e2 8e 32 f6 bf
       -0.19287576373560578 -1.3873432983644305
0001e0 6d 84 3d ef b6 ba d7 bf 82 20 76 55 55 06 c0 bf
       -0.3707711540537904 -0.12519327805444297
0001f0 a6 66 ac 16 6f 83 d6 bf b8 9d d6 81 1f 91 d6 bf
       -0.351772091047318 -0.35260760955358306
000200 a5 43 23 b6 97 fe d4 bf 82 1b 44 47 ef 41 e4 bf
       -0.32803910052194346 -0.6330486671366631
000210 73 ca b5 47 1e 4b d7 bf 58 18 6d f6 45 59 ca bf
       -0.363959856061377 -0.2058494046452235
000220 73 aa 6f 55 9e c1 d6 bf ba 03 f3 e7 a5 7e d3 bf
       -0.35556753486040477 -0.3046049847726483
000230 b4 f8 fc 88 0e 2c d1 bf 7d e0 67 bc 7c 50 f5 bf
       -0.2683140123152825 -1.3321502074814184
000240 20 4f 4c a6 62 0a 84 bf 46 a9 5c 8d 24 61 08 c0
       -0.009785433483137818 -3.047432999029442
000250 50 7c 13 89 2f d9 d4 bf cb 9f b8 55 67 9f e4 bf
       -0.3257559622415487 -0.6444584535829504
000260 80 b5 91 86 ed 3b 70 bf c4 df a0 70 2c 96 06 c0
       -0.003963401636707942 -2.8233269499869227
000270 80 45 db 3f 73 10 da 3f 30 31 a8 2d fd 32 18 c0
       0.4072540401076239 -6.049793923750528
000280 84 43 3d 2c 7a d7 ce 3f 68 4b 19 6e cd e8 12 c0
       0.24095084343073492 -4.727346153539521
000290 e0 4e 47 b9 6d b3 8b bf dc c9 ac fb 58 e6 05 c0
       -0.01352582666087393 -2.737474409304225
0002a0 20 0b 3d 1e a8 ac 82 bf aa f8 03 6b 10 4d 06 c0
       -0.009118379042438784 -2.78762897115583
0002b0 4f 09 cf 50 96 08 cd bf af 52 e1 1c 3f a1 fc bf
       -0.22682455964793255 -1.789366829693943
0002c0 1c 46 4b 8d 5f 0a d1 3f b1 7c 35 d8 34 bc 13 c0
       0.2662581329178424 -4.933795336021988
0002d0 20 dc b8 44 ee 0d 84 3f 54 6e 74 bd 62 67 07 c0
       0.009792195770485235 -2.9254813004643356
0002e0 20 55 7f b9 b0 b2 83 3f 32 de e5 7e fe 62 07 c0
       0.00961816850751035 -2.9233369745159274
0002f0 6e a8 d6 84 33 11 d7 3f a2 fb 91 62 66 2c 16 c0
       0.360424880719285 -5.543359317932216
000300 7a 31 b2 09 13 a5 d0 3f 46 c0 fc 1a 67 86 13 c0
       0.26007533976441943 -4.881252690960599
000310 80 c4 2a 23 25 80 60 3f b8 87 61 bf 67 de 06 c0
       0.0020142293299945657 -2.8585963203085747
000320 00 38 a8 50 00 3e 74 3f 8a 17 94 a1 c8 27 07 c0
       0.004941941481332535 -2.8944256423300816
000330 6c 97 58 1d 8f 09 da 3f 4b 87 a4 a9 ae 2d 18 c0
       0.40683343759371016 -6.044611597697279
000340 e4 ab 58 82 f7 b8 d3 bf 5c 4f f2 cc f9 91 eb bf
       -0.30816447953355763 -0.8615693095075403
000350 b8 da 89 0d 99 3d d5 bf 1b b2 69 f9 64 74 e2 bf
       -0.3318846351825573 -0.5767083045335001
000360 22 a8 56 a9 f3 3f d7 bf 5c 49 dd 9b bf 60 cb bf
       -0.3632783082672423 -0.21389002905432164
000370 ec ec 0c 73 42 da d7 bf ec 60 11 b5 1a 3c ba bf
       -0.3726965068378394 -0.10247961922266641
000380 7d fc 69 ce d7 5a d6 bf ac 29 57 c1 d3 59 d8 bf
       -0.34929461629503306 -0.3804826152887937
000390 4b ab 53 04 0d cc d8 bf d0 cb d7 3a f9 dd b2 3f
       -0.3874542753462051 0.07369954763980435
0003a0 ce 9b bc 5f 85 eb d6 bf 42 bf 94 f4 21 93 d1 bf
       -0.35812506055156923 -0.27460526356570736
0003b0 c2 d8 b5 29 63 49 d1 bf 0f 10 f2 b1 d1 fc f4 bf
       -0.2701042086913611 -1.311723418330988
0003c0 52 23 74 c1 ae 1e d3 bf 08 11 e4 88 28 16 ef bf
       -0.29874771968802805 -0.9714548753404708
0003d0 8c ec e3 74 35 24 d5 bf 78 67 3c e1 f4 01 e3 bf
       -0.33033501067229376 -0.5939888381137584
0003e0 9c e3 c6 bd 0f 9c d6 bf 18 cb bd 10 ed 35 d5 bf
       -0.35327523739720745 -0.3314163840761224
0003f0 a5 69 91 e3 bb d3 d8 bf 34 46 af 3d a6 71 b4 3f
       -0.38792321418227466 0.07985915189717546
000400 98 5e c1 ca 45 a3 ca 3f a9 cc 7e 8a f5 08 12 c0
       0.20810768509067112 -4.5087491645710225
000410 40 92 9c 61 5d 3b 94 bf 80 8c cf e3 4e 9a 05 c0
       -0.0197577086284062 -2.700345783015621
000420 f8 e1 38 dd e5 0f a6 bf 0e a1 a8 60 4b 75 04 c0
       -0.04309004140344891 -2.5572726775609516
000430 1e 6d 16 da aa 6d cd bf cf 9a 48 33 c5 1b fc bf
       -0.22990928314980236 -1.756779861761675
000440 0a 4b dd ea 6a 8a d3 bf 22 00 bf a4 e6 9a ec bf
       -0.3053233426664269 -0.8939088075349029
000450 9b 8e 9e 1b a9 2a d7 bf f0 5c 6a 1a 2b 57 cd bf
       -0.3619787950249049 -0.2292226675969924
000460 34 a3 06 35 c9 19 d5 bf 89 8a d8 f9 c8 3b e3 bf
       -0.329698850424893 -0.601047981243327
000470 66 11 7a 7e 7a 98 d3 bf 64 1b 58 ac ea 93 ec bf
       -0.30618154860737545 -0.893056236848548
000480 c0 ce 23 9b 5c df ac bf 06 c9 2b 0d f0 0a 04 c0
       -0.05639161485478672 -2.505340674303741
000490 00 25 98 23 81 f2 56 bf 32 bd c9 2c fb d2 06 c0
       -0.0014005910037460656 -2.853018140703761
0004a0 8a 27 3e c2 5a ab d8 bf 88 ec 43 44 68 83 a9 3f
       -0.3854586502935652 0.04983068307225219
0004b0 2d 19 b4 50 77 89 d9 bf 9a 03 34 8f 9a 36 cb 3f
       -0.399015263378163 0.21260387413351794
0004c0 a8 c2 02 d1 e6 80 ae bf fe c3 a1 5e ec bc 03 c0
       -0.059577191366206705 -2.4672477143399183
0004d0 00 e4 26 20 7d bc 56 bf b2 77 e7 eb 4e d3 06 c0
       -0.0013877126626609115 -2.8531778745663923
0004e0 37 9b 8d 80 80 eb d8 bf 54 56 6d a8 51 be b8 3f
       -0.3893738990213253 0.09665403711309156
0004f0 92 8d 04 c3 8a e5 d6 bf 0e f3 a6 35 b8 fd d1 bf
       -0.3577601341696318 -0.28111081351725964
000500 77 c5 3b f5 c6 a3 d6 bf 34 be 4a 56 0a 01 d5 bf
       -0.3537461657388898 -0.3281884997076958
000510 2f 1a e1 1a 61 59 d7 bf bc f6 09 47 88 08 c9 bf
       -0.3648302805417271 -0.19557288616845436
000520 a7 dc 6c 58 88 b7 d8 bf 20 57 04 40 11 11 ae 3f
       -0.38620194087293175 0.05872396379906619
000530 9e b2 c9 8c 0d 30 d6 bf e4 9a db 31 94 73 da bf
       -0.3466829180604608 -0.4133043753521817
000540 f0 99 87 3f 32 83 97 bf 04 41 5b e8 79 45 07 c0
       -0.022961411597771375 -2.908923926625109
000550 8c 8f 0e e5 db 85 d5 bf 1c 31 65 1a e9 dd e0 bf
       -0.33629510277591446 -0.5270886912854027
000560 e0 28 9d 2b 43 9c 83 bf fa ac 78 f1 cc 2a 06 c0
       -0.00957539059495044 -2.7708987107231424
000570 23 16 20 a2 52 7b d8 bf 80 e6 21 b7 e4 31 8f 3f
       -0.3825270255332233 0.015231882895238913
000580 c0 ff 36 de c8 78 7b bf fe 7e 22 d8 a1 a8 08 c0
       -0.006706986084679956 -3.0823399434592593
000590 00 f6 2d 44 b5 34 57 bf 3e ca 3b 64 70 d2 06 c0
       -0.0014163751772849897 -2.852753432345053
0005a0 89 d4 2e 41 aa c4 d4 bf 6a d9 ea c9 52 0f e5 bf
       -0.32450348248978195 -0.658120531434901
0005b0 a5 8b 7d 73 26 72 d2 bf 6e 30 81 d3 cc a5 f1 bf
       -0.28821717527733376 -1.1029785406017498
0005c0 40 7d fe a0 aa 4a d0 3f 22 9c a0 8e 4f 64 13 c0
       0.25455728265838573 -4.8479597363976
0005d0 80 89 07 10 9a 25 73 bf 54 4a 74 58 a6 8c 06 c0
       -0.004674531752672073 -2.818676653908634
0005e0 00 51 29 52 fd 45 55 bf 36 ab b2 1f 61 d5 06 c0
       -0.0012984250867207892 -2.8541891552353276
0005f0 5d 49 a1 50 f0 04 d2 bf 44 66 4c d9 e3 6e f2 bf
       -0.2815514361765475 -1.1520727623195777
000600 80 24 97 b2 2a 3a 6e 3f 9c 4e 1c 2c 9c 66 08 c0
       0.0036898454606882347 -3.050102562536109
000610 b6 6d ed e2 ac f6 d3 bf 80 53 7a 79 b8 bb e3 bf
       -0.3119308677757674 -0.6166651127447125
000620 00 30 4a 96 54 d0 55 bf 6a d0 b5 f0 b2 d4 06 c0
       -0.0013314081235504815 -2.853856926487471
000630 4e 6e a4 1e c6 f3 d2 bf d5 1d a8 76 54 2c f0 bf
       -0.2961287783852854 -1.0108227381732509
000640 e8 c6 f1 ff 6f 61 a8 bf 12 aa e0 bd 6e e3 04 c0
       -0.04761838912317079 -2.611051066797935
000650 40 c3 62 41 7c 27 86 bf 2e 66 3b 11 d4 f0 05 c0
       -0.010817499871650704 -2.742591986298769
000660 47 e9 ee d7 e7 60 d7 bf 68 ac 01 a4 9e 56 c8 bf
       -0.36528965079528003 -0.19014342315799415
000670 48 ae 20 e2 ff 4d d4 3f 80 16 1e 2d e9 e5 14 c0
       0.31726071436671477 -5.22452230926649
000680 e0 e9 fe 24 79 99 d1 bf 5a 21 4f 14 c9 6a f3 bf
       -0.27499226200930416 -1.2135706704449007
000690 9a 67 89 4e f9 af d5 bf a6 82 e0 cb 9b dd df bf
       -0.3388655917129825 -0.49790091428625727
0006a0 02 3c 30 48 3e 33 d4 bf b6 4c 1b 4e 6e 2d e7 bf
       -0.3156276421513554 -0.7242957616348551
0006b0 cb f7 37 cb 3e 71 d3 bf 2a e0 4b 4d 39 7a ed bf
       -0.30378694387024713 -0.921169901818762
0006c0 40 06 8e 23 d1 9e 78 3f 4e 71 de d8 cf 62 09 c0
       0.006010834645054752 -3.1732479994663327
0006d0 00 a7 7b 60 dd d8 55 bf 2c f8 5a 15 99 d4 06 c0
       -0.0013334428676280985 -2.8538076084505715
0006e0 70 9f 53 c9 a6 c7 d3 bf a8 0d 35 ed 06 92 e8 bf
       -0.30906076107793634 -0.7678255684808635
0006f0 af 89 ff 11 a7 79 d3 bf fa ef fc 64 e5 48 ed bf
       -0.3043000865710849 -0.9151484463141053
000700 80 4f 39 a4 9a ac 72 bf a8 61 7e 91 89 91 07 c0
       -0.004559139316899663 -2.9460631720250667
000710 00 82 c7 25 3e a1 55 bf e0 a5 f4 c3 01 d5 06 c0
       -0.0013201815519253701 -2.8540072735820416
000720 e2 42 5a e3 90 9c d4 bf 36 a0 e7 77 45 4b df bf
       -0.3220560283889836 -0.4889691992707442
000730 21 0c 1f 8b 9b 8e d7 bf 94 39 4c a0 c2 30 c4 bf
       -0.3680790766340483 -0.15773804499663113
000740 40 46 d8 22 cb c6 88 bf 70 2b f3 7b 48 2f 08 c0
       -0.01209791851127584 -3.023087471350145
000750 00 0d cb ce 54 75 55 bf 8a 57 84 40 29 d5 06 c0
       -0.00130971223841031 -2.854082588232761
000760 96 5b 06 99 13 33 d5 bf 9b f9 17 7c 22 af e2 bf
       -0.33124246543723623 -0.5838787482933187
000770 d4 69 a9 f8 b6 dd d0 bf 1b aa d0 05 17 2f f6 bf
       -0.2635323932969673 -1.3864965655471966
000780 00 dd 0e fe ae 94 d5 bf 45 5e 90 4d a4 bc e0 bf
       -0.3371999245677699 -0.523027564518039
000790 2f 24 6c ec 4c 55 d6 bf f4 89 2c c9 76 6e d8 bf
       -0.34895632827880524 -0.381742187937703
0007a0 16 f1 a9 a9 6d 6f d8 bf 00 48 a9 be c8 33 79 3f
       -0.38180104798063164 0.0061529008476828295
0007b0 cd d0 75 62 d5 22 d9 bf dc b5 45 1f 05 9f c1 3f
       -0.3927510701680717 0.13766540553062512
0007c0 ce fb 81 83 49 7b d0 3f 13 c3 1b aa 76 81 13 c0
       0.2575248512511593 -4.876429231590708
0007d0 00 ca 51 0f ed ed 44 bf 98 ba 7c 6c 2e de 06 c0
       -0.0006387145537146144 -2.858486983829902
0007e0 00 ff 9c 1a 84 7b 50 bf 38 00 81 7e ea d4 06 c0
       -0.001006011016627839 -2.8539628871076523
0007f0 8a c4 e8 5b 41 0e da 3f 16 9c d3 63 4c 31 18 c0
       0.40712007499229996 -6.048142967024452

__logstd__ f8 [160, 2]
000000 b8 0d be 18 a9 4b f1 3f 4a a3 fb 65 47 fb 08 c0
       1.0809718100070835 -3.1226947753351952
000010 99 a3 da 7e 54 d3 e6 3f 21 10 88 13 ef 60 07 c0
       0.7132971265428864 -2.922331001844228
000020 f0 d6 15 16 ba 75 d0 3f a0 90 0f 2c 66 14 08 c0
       0.25718547970551153 -3.0099605028390926
000030 08 65 3d df 8e 09 c5 3f a2 15 f8 37 39 d6 08 c0
       0.1643541898763845 -3.1046013233742125
000040 53 7d 3a 5e 95 ac ec 3f 89 19 05 9f 39 07 09 c0
       0.8960673180007838 -3.1285278724128074
000050 50 a1 a3 c9 0d 8e 9f 3f d0 33 f1 40 26 23 08 c0
       0.030815329963759297 -3.0171628068551186
000060 05 91 d4 b7 96 d3 e6 3f 1f 44 98 ed fb 60 07 c0
       0.7133287039219175 -2.922355514725964
000070 38 69 ed f4 f7 a1 fd 3f 80 08 9a 73 e8 db 08 c0
       1.85204311060677 -3.1073769599325374
000080 a0 58 da 6c 9e a7 ca 3f da db 3e 50 a7 05 09 c0
       0.20824032130321246 -3.127760531347559
000090 0e 66 78 3a 1f f5 c1 bf 78 1a c7 2e 13 52 07 c0
       -0.1402930293559596 -2.9150756506454023
0000a0 88 b1 6e d1 9f 8b a5 3f 70 b8 9c 06 34 30 08 c0
       0.04208087379024322 -3.0235367313935555
0000b0 32 8d 88 ba 7c a2 e0 3f d0 99 45 c9 c7 88 0a c0
       0.5198348658781582 -3.3167873119702804
0000c0 e3 e8 7d f5 4a 6f eb 3f f5 b4 78 5f 87 e7 08 c0
       0.8573355479013823 -3.1130511721336185
0000d0 1b bd f9 ab 02 c6 e5 3f d4 6b 34 0f 33 4b 07 c0
       0.6804211958787251 -2.91171848181464
0000e0 a0 42 29 28 a2 d9 90 3f d8 cd de 7e 52 12 08 c0
       0.01645520563244196 -3.008946410345498
0000f0 58 05 1b a9 91 17 c7 3f 19 9f ba 52 63 ea 08 c0
       0.1804067683897681 -3.114447256393657
000100 28 19 be b5 7e be a5 3f 4b 91 c6 4b cb 37 08 c0
       0.04246898621117828 -3.027243225095082
000110 90 d9 06 b4 a0 fb d1 bf 5f 78 c0 f0 b3 9f 06 c0
       -0.2809831388543893 -2.8279799278962368
000120 10 f7 d6 41 ce fe 94 bf 10 50 b5 e5 25 e6 07 c0
       -0.020503256577050044 -2.987376970859266
000130 50 cd 69 c6 f6 9e d2 3f b8 a4 42 19 4d 74 09 c0
       0.2909523904447342 -3.1817876790488206
000140 fc 11 cb a5 91 39 fc 3f 15 65 00 bd 6c 5b 07 c0
       1.7640549160288392 -2.9196409955735683
000150 a4 41 5d de 03 83 f1 3f 4d 5c 3f 98 00 18 06 c0
       1.0944861112694548 -2.7617198843322854
000160 dc c4 6a a8 eb 7f f1 3f cf ff 5a 23 02 17 06 c0
       1.0937306002418188 -2.7612345468660133
000170 cf a5 30 43 b3 10 e1 3f 8c c7 25 c5 cd 9e 06 c0
       0.5332886040025019 -2.8275409128336317
000180 37 58 5b f9 6b 55 e4 3f 49 b8 07 a1 a6 56 09 c0
       0.6354274626016893 -3.1673100071412006
000190 b0 de 37 28 f8 3f 9c 3f 3c cb 67 55 65 1f 08 c0
       0.027587773756720224 -3.0153299972820644
0001a0 30 01 1b b8 0a 71 d9 3f 72 ec f3 20 3e c6 07 c0
       0.39752452830363705 -2.971798188632925
0001b0 36 3c 7b b5 3a e2 fd 3f ea 3a 7b 7c 03 ef 08 c0
       1.8677317704312038 -3.1167058682543614
0001c0 c0 7a 31 b7 0a f4 d0 3f a7 e1 c6 45 57 96 07 c0
       0.2648951329228275 -2.948408646709328
0001d0 34 86 71 8b 46 41 c8 3f d3 3b 7a e8 eb d0 06 c0
       0.18949205216181186 -2.852012459020878
0001e0 b5 a1 00 18 8f fe cb bf 6a 58 b7 af 04 ef 06 c0
       -0.21870602294917565 -2.866708157332188
0001f0 64 84 97 e2 78 5b ba bf a7 06 3f f2 33 83 07 c0
       -0.10295825511959006 -2.9390639234050755
000200 98 2d 2a 0e 1f dd a3 3f 59 64 13 4b 5d 36 08 c0
       0.038796396712395154 -3.0265451302807773
000210 8c 33 af 92 1a c5 c6 bf ab 0f b5 33 b7 22 07 c0
       -0.17789013063739068 -2.8919509925489897
000220 04 1a b0 1d 16 65 c0 bf db 16 31 48 65 61 07 c0
       -0.12808491181949944 -2.922556461332403
000230 f6 b8 ff 4f 93 fb d8 3f 5e 34 7f 92 60 ee 09 c0
       0.3903549462546744 -3.241395134455657
000240 4b 85 5e 82 4d 82 ec 3f 57 5e 14 68 31 00 09 c0
       0.8909060999177795 -3.1250942355361917
000250 40 a3 48 b8 cd a2 a4 3f f7 bd d2 66 26 2e 08 c0
       0.04030459284360299 -3.0225341828406687
000260 73 c1 21 42 ea 51 e6 3f e3 af db 0b 59 4d 07 c0
       0.6974993983877041 -2.9127674986284418
000270 48 27 00 6d 98 1b fe 3f 16 58 ac de c1 00 09 c0
       1.8817371614299692 -3.1253697773308984
000280 4e c5 05 db b8 39 f6 3f 28 89 cd 08 e2 33 08 c0
       1.3890923076217692 -3.0253334701275385
000290 0d ef 09 f0 3d 2b e5 3f d7 00 47 4b 87 31 07 c0
       0.6615285576112641 -2.899183834175442
0002a0 b1 1e 9f 30 9b f6 e5 3f 3e 7e ac ec a6 4f 07 c0
       0.6863532971992382 -2.9138926019802787
0002b0 f1 7c 63 df fb 98 e3 3f 1a 32 59 55 91 f1 0a c0
       0.6124247897204481 -3.3679529826970453
0002c0 62 77 0a d1 66 7d f7 3f 41 1b dd 6c 91 5b 08 c0
       1.468115631643251 -3.044710970399507
0002d0 71 f3 bd 55 95 71 e7 3f 2d e8 a2 6b 79 52 07 c0
       0.732615153755985 -2.91527065363791
0002e0 29 92 8d cc 81 68 e7 3f bc b5 50 4e 04 51 07 c0
       0.7315072055030828 -2.914558994138785
0002f0 be eb d5 c0 a5 37 fa 3f b5 fe e0 b0 f1 eb 07 c0
       1.6385858090059027 -2.9902070826209077
000300 08 d0 66 24 9b 27 f7 3f ff 2b e4 62 6e 4e 08 c0
       1.4471694395006143 -3.038296482647183
000310 6d b8 0b 24 b4 94 e6 3f 98 6d 3b b2 a9 40 07 c0
       0.7056523040789792 -2.906573669851877
000320 ff 99 45 e6 d4 2b e7 3f ea d9 bc 0e c8 58 07 c0
       0.7241005418298413 -2.918350329530985
000330 a4 1d cf c6 a0 10 fe 3f c1 4d 6e 33 3c fd 08 c0
       1.8790595785120354 -3.12364998035784
000340 2c 4d f7 cc 99 87 c3 3f 7c 60 ca 09 0e c2 08 c0
       0.1525757075129176 -3.0947533383260275
000350 c0 9d af 46 a3 0c 7e 3f 43 89 ca 65 84 07 08 c0
       0.007336271092732216 -3.00367049717275
000360 78 74 b7 5a 0a 40 c6 bf d3 a5 fe ef d6 27 07 c0
       -0.173829359336114 -2.8944529294574095
000370 d0 56 12 d3 6f 76 cd bf 80 e0 c6 6f 8b e0 06 c0
       -0.2301769047377804 -2.8596409542624883
000380 34 7e f0 05 2c d9 b6 bf 5b ef 98 e7 9d 93 07 c0
       -0.08925128121381293 -2.9470785230204632
000390 4e b7 bb 13 4f 76 d4 bf e0 5d 28 85 34 6e 06 c0
       -0.3197210018832849 -2.803811111730951
0003a0 ce e4 c7 e0 fe 53 c2 bf a3 9f ba 53 73 4e 07 c0
       -0.1431883428156539 -2.913305906422424
0003b0 62 ca 4c cf aa 55 d8 3f 98 34 11 2e 0d e2 09 c0
       0.38022871250283263 -3.2353767012596784
0003c0 b0 7b 7e 65 39 97 ca 3f 99 7c 2b c4 df 06 09 c0
       0.20773999648824093 -3.128356487824544
0003d0 70 aa 7e 81 06 2b 90 3f 03 81 6a d9 87 11 08 c0
       0.015789128926977758 -3.008559893191092
0003e0 6c a0 54 e6 f1 56 bd bf dc fe 47 f7 3f 72 07 c0
       -0.1146079242067814 -2.9307860678526207
0003f0 f6 f8 83 93 17 ac d4 bf 53 de d8 7d a7 69 06 c0
       -0.323003667886851 -2.801588996105957
000400 ca 67 a0 41 0f 33 f5 3f 53 b3 8d b1 03 51 08 c0
       1.3249657214678217 -3.039557826172691
000410 11 65 96 1b 52 e3 e4 3f 93 90 1f 7c 2a 3e 07 c0
       0.6527491129701578 -2.905354470933227
000420 87 8a fe 88 1e bc e3 3f cd aa ff 0f d7 66 07 c0
       0.6167137790365168 -2.925214886655658
000430 57 b5 9f bd b4 1a e3 3f 05 b2 4c c8 98 e0 0a c0
       0.597010012015441 -3.3596664093404365
000440 98 8c 27 69 32 94 c5 3f a5 fc 7f cb 7c d5 08 c0
       0.16858511099335227 -3.1042419336732388
000450 d0 6a aa f2 49 42 c5 bf d2 b5 9d aa 9c 31 07 c0
       -0.16608547543440588 -2.899224598825392
000460 40 fe fd 62 8e b1 93 3f 0b ca 63 95 95 15 08 c0
       0.01923201064300728 -3.010539214237047
000470 18 2d 9b b0 56 d9 c5 3f b6 e4 1f 39 31 de 08 c0
       0.1706951486906767 -3.108492323194322
000480 e3 e8 70 8f f0 d0 e3 3f 42 e7 d7 bb 77 ae 07 c0
       0.6192553330977514 -2.960189311529491
000490 b9 b1 c9 8e 88 cb e6 3f 91 c7 2a f8 b9 5f 07 c0
       0.7123453892541455 -2.9217414272361073
0004a0 f5 40 9d d8 58 af d3 bf 8c b9 4e 82 bd 7d 06 c0
       -0.3075773349164728 -2.811396616008272
0004b0 da 5e 14 9f f1 fe d8 bf 19 a6 ef 59 2e 13 06 c0
       -0.39056053671946034 -2.759365751863481
0004c0 9b 24 51 b0 31 32 e3 3f f1 58 e9 df ae 95 07 c0
       0.5998772090616912 -2.9480874531828865
0004d0 77 46 02 38 36 cc e6 3f f8 fc 15 05 d6 5f 07 c0
       0.712428197281226 -2.9217949292502645
0004e0 05 fd 6e 09 a0 35 d5 bf 74 12 2c 3b 45 5f 06 c0
       -0.3313980190395827 -2.7965187666725857
0004f0 8e be 65 a0 94 d4 c1 bf 9e dc 04 72 ca 54 07 c0
       -0.1392999442282314 -2.9164017589315128
000500 34 31 4e 4b fa 97 bd bf 92 3f 03 c7 83 72 07 c0
       -0.11560024584304501 -2.930915407930976
000510 9c fa 45 aa 3c 6f c7 bf 4a 16 bd c3 28 1c 07 c0
       -0.18308218301895784 -2.888749627311687
000520 57 70 4b e2 7d f9 d3 bf e4 98 1a f3 f2 77 06 c0
       -0.3121027669819844 -2.808568858384307
000530 18 0b 1b 4f c0 76 b2 bf b6 6e 37 9f 89 aa 07 c0
       -0.0721244996193885 -2.9582703055183073
000540 5f 21 4e 59 46 6b ea 3f eb 96 83 89 d1 b8 08 c0
       0.8255950683824657 -3.0902434104235588
000550 e0 1e 6e e9 b0 78 91 bf c7 66 e4 b9 4d ea 07 c0
       -0.017061962363668637 -2.9894060633494948
000560 2b 48 87 37 f0 97 e5 3f d3 51 8e 6d ae 39 07 c0
       0.6747971615352574 -2.9031647261674407
000570 24 38 ee 1e 01 91 d2 bf 51 e2 be 24 cd 93 06 c0
       -0.2901003648811431 -2.822168623996085
000580 af fb 4f 76 8d 0f ed 3f 7e 01 3c b6 07 15 09 c0
       0.9081485091008882 -3.135268615442498
000590 79 a6 e6 17 43 ca e6 3f 10 8b 45 be 7a 5f 07 c0
       0.7121901957336397 -2.9216208329174904
0005a0 f0 ee 2b 59 28 03 a8 3f aa c2 e2 b9 be 35 08 c0
       0.046899090657431475 -3.0262426874472412
0005b0 f2 20 82 0c 9e ac d1 3f e3 7d 6e 5e f5 61 09 c0
       0.27616072865977437 -3.172831285235348
0005c0 76 54 84 ea 6e 06 f7 3f 62 16 0e 6c f0 58 08 c0
       1.4390706215683884 -3.0434273187445777
0005d0 97 11 2d b7 11 47 e6 3f 03 ec 67 2f 1d 4e 07 c0
       0.6961754396111698 -2.9131416038121656
0005e0 5b 01 b9 1a 4d d0 e6 3f 54 df e6 3f 70 60 07 c0
       0.7129273912360462 -2.922089099152723
0005f0 d4 1a a0 ff 34 be d2 3f ff c1 a9 89 c6 63 09 c0
       0.29285931552332767 -3.173718524449441
000600 a9 ad be 1f 7f 2e eb 3f 4e d2 ce 73 fe 65 08 c0
       0.8494258518234591 -3.049801735638801
000610 70 51 9b e5 bd a9 9a bf 14 df a1 c4 09 5e 07 c0
       -0.026038138522225862 -2.92091706866257
000620 15 3a 47 ec 0d cf e6 3f 72 b6 a6 93 48 60 07 c0
       0.7127751936730556 -2.9220134291888877
000630 70 f9 f1 c3 c5 6e cd 3f 0f 6e 03 09 69 28 09 c0
       0.22994300906789134 -3.1447315887614944
000640 ad 64 2c e7 3d 8b e5 3f 7d 8d 0e ce 08 f4 07 c0
       0.6732472910981834 -2.9941574190322044
000650 75 87 c7 7a 2e 04 e5 3f df 60 e2 77 06 1a 07 c0
       0.656760444453751 -2.8877076497993666
000660 b4 ab 0a a5 2d c9 c7 bf fd 03 fc 74 b0 18 07 c0
       -0.1858269744746771 -2.887055314961343
000670 f0 67 4e 7b c8 79 f8 3f dd da a0 ed a9 de 07 c0
       1.5297322098399455 -2.9837225498880415
000680 5e 0a 8a fa c1 73 d4 3f 7d 5d 67 54 1f 7b 09 c0
       0.31956529108734866 -3.1851183504147103
000690 e8 4d a2 1f 95 1f a0 bf 96 77 15 99 d6 d8 07 c0
       -0.03149095545918695 -2.980878063171029
0006a0 f0 10 1e 7d cb db b1 3f 91 8e 81 45 7a 39 08 c0
       0.06976005367875238 -3.0280652456438664
0006b0 e8 08 32 f0 5b a9 c7 3f e3 13 c5 af f8 ef 08 c0
       0.18485593059819583 -3.1171735507982574
0006c0 1f b3 c6 27 ee 02 ee 3f 3c 57 ca f1 fb 13 09 c0
       0.9378577019575437 -3.134757889735651
0006d0 c3 bb b0 24 cb ce e6 3f 3c 06 5c 11 3a 60 07 c0
       0.7127433506592457 -2.9219857555588344
0006e0 c8 2b ee 95 01 1b b5 3f f1 58 9d ac 5c 33 08 c0
       0.08244333181771346 -3.0250791059034943
0006f0 dc 71 32 6a 00 46 c7 3f 63 c5 69 a0 2a ec 08 c0
       0.18182377992060494 -3.115315678813816
000700 a9 90 1d d9 f9 70 e9 3f 36 e4 d0 75 fd 1c 08 c0
       0.7950410118615042 -3.0141553120015727
000710 33 e7 2c 72 b7 cf e6 3f 13 c8 bf ac 65 60 07 c0
       0.7128560285557114 -2.922068929293354
000720 74 db 36 77 e9 c0 b7 bf 2a 82 31 d3 70 04 07 c0
       -0.09278735313897163 -2.8771683215602666
000730 fe 5b fc 05 ef dc c9 bf 0e f9 2f 5c 8a 04 07 c0
       -0.20205486099504805 -2.8772170259609373
000740 6d 01 57 b4 2b 24 ec 3f 3b d2 aa 6f 9b f3 08 c0
       0.8794153711569784 -3.118948814774084
000750 d3 36 9b 84 eb cf e6 3f 17 ac a5 a7 65 60 07 c0
       0.7128808584181691 -2.92206889128057
000760 60 96 4d b1 a7 36 86 3f 51 84 09 9b ae 0b 08 c0
       0.010846433733330219 -3.005704127529079
000770 36 1e 41 61 fd b3 da 3f 44 7e 36 3a f3 0e 0a c0
       0.4172357034444504 -3.2572998569374096
000780 b0 01 77 ef 4d b7 91 bf 53 7f ab e1 4f ee 07 c0
       -0.017300813427711226 -2.9913632994138566
000790 24 fd 3c f8 87 e0 b6 bf 7d 2a eb f6 b1 91 07 c0
       -0.08936357317451332 -2.946140221645065
0007a0 4a a7 85 90 92 43 d2 bf cc 8a 12 91 19 9a 06 c0
       -0.2853742991779781 -2.825244077089655
0007b0 c6 01 1a fd 37 8e d6 bf ca 52 4e 3e f8 43 06 c0
       -0.3524303409285746 -2.7831883304264453
0007c0 dc 02 9f 1e fc 39 f7 3f c0 4c 89 d4 8e 64 08 c0
       1.4516564556253604 -3.049100552024896
0007d0 63 bb ca 62 42 da e6 3f d5 9e 71 81 b3 5f 07 c0
       0.7141429833917353 -2.9217290985869604
0007e0 69 44 9f 19 1d c7 e6 3f 6f 79 5e b6 a0 5c 07 c0
       0.7118058681900382 -2.920228409536484
0007f0 54 68 9c e2 19 18 fe 3f 02 33 56 89 a2 ff 08 c0
       1.8808840610495468 -3.1248217324667857
