code/models/IntraGVAE.pt (torch, 28488 bytes, 28 tensors)

bias f8 [4]
0	0xbd903ba8581087f1	-3.690965394439483e-12
1	0xbdd0c4bebebe5ae5	-6.10035769173005e-11
2	0x3db7ed1ce426be55	2.1760772228820705e-11
3	0x0000000000000000	0.0

weight f8 [4, 5]
0	0x3fd437d3d199443d	0.315907435117939
1	0x3fcfb7797a07dc7f	0.24778669794588734
2	0xbfc3529ac356bc7e	-0.15095839059856425
3	0x3fe7330f78e5d53c	0.7249829636845457
4	0x3fcf4e171a712747	0.24457062522042802
5	0x3fe313442ef4c3d8	0.5961018483268345
6	0x3fa955f44e7ccd0b	0.04948390443896685
7	0x3fab4b001566a846	0.05330658208124865
8	0x3feba1d8f2d41f9b	0.8635067694421993
9	0xbfee915ef0a21f70	-0.9552454662198056
10	0x3fde70c5d414f349	0.4756331034766857
11	0x3fd23046a3411237	0.28419652884284424
12	0x3fd02f7db8e892d4	0.25289862687558906
13	0x3fe7a0d6b63b6e56	0.7383836325856901
14	0xbfc7d1c0c979ff65	-0.1860886558315499
15	0xbfe643ecc0000000	-0.6957916021347046
16	0xbfe5ce4b20000000	-0.68143230676651
17	0xbfe5b06400000000	-0.6777820587158203
18	0xbfe0b0e140000000	-0.5215917825698853
19	0x3fdad43be0000000	0.4192037284374237

weight f8 [4]
0	0x3fca4348acaa0c4b	0.20517834120627962
1	0x3fc16c06b41961d9	0.136109197558439
2	0x3fe8e6007562f655	0.7780763905245275
3	0x3ff0000000000000	1.0

bias f8 [4]
0	0x3fe6f7d98c01a44f	0.7177551016330969
1	0xbfd54feabffde22d	-0.3330027460974943
2	0x3fe5cd39e9ee5cc0	0.6813020295111514
3	0x3fdd0d9377f3566b	0.45395361627502123

running_mean f8 [4]
0	0x3fe66b557e4291f7	0.7006022897735978
1	0x3fd019622ff123a2	0.2515492885764222
2	0x3fe887b4237f6e11	0.7665653889957317
3	0x0000000000000000	0.0

running_var f8 [4]
0	0x3f81b0d3b984c611	0.008638052081184207
1	0x3f82c7d86c52cc06	0.009170237355965238
2	0x3f8baa69f478ba26	0.01350863244360052
3	0x0414d42f86c85c68	5.343298885082889e-289

bias f8 [2]
0	0x3fc987d60d5486b1	0.19945789004218775
1	0x3ff191bc34042851	1.0980798751720793

weight f8 [2, 4]
0	0x3fe404bedacd33ae	0.6255792878597413
1	0xbfe357b65a73197a	-0.6044570700258156
2	0x3fc2ac62d54906cf	0.14588580526656478
3	0x3ffd5aed2e7a12c1	1.8346988502027417
4	0xbfb63078268ca996	-0.08667708340786925
5	0x3fe6ff949289dc6e	0.718698774536177
6	0xbfa8416f7029b5c3	-0.047374231759799844
7	0xbff77ddcbeaf7c74	-1.4682280968334256

weight f8 [2]
0	0x3ff1104721a4977a	1.0664740862061692
1	0x3ff8ea564e41f096	1.5572112137734044

bias f8 [2]
0	0x3fd5cb8aa98773a8	0.34054819636895184
1	0xbfe7ba61b8108625	-0.7415016741762811

running_mean f8 [2]
0	0x3ffc8346304e8256	1.782049359033541
1	0x3fbfb4697395bb40	0.12384661743065539

running_var f8 [2]
0	0x3f9aff966c5b0941	0.026365614284040054
1	0x3f7db4a5ec870756	0.0072523576167798556

weight f8 [2, 2]
0	0x3ff948cb858f5e46	1.5802722184361229
1	0xbfea21f0185987c1	-0.8166428065853709
2	0xbfbf85aba5b36a1b	-0.12313339991980181
3	0x3fef2194a5162e87	0.9728491997097571

bias f8 [2]
0	0x3fe525ff606d2064	0.6608883746457761
1	0xbfd02fdcc1c11069	-0.25292128487877236

bias f8 [2]
0	0x3fc4c10154a539c3	0.16214005120350636
1	0x3fe22a84b8ac66ee	0.5676902396109804

weight f8 [2, 2]
0	0x400565b2c9374f38	2.6746574134830574
1	0x3ff3c11aac6c4ef5	1.234644578483253
2	0xbfe0d7fbfd5b272f	-0.5263652752266575
3	0x3ffe94703ede4043	1.911239858225614

bias f8 [2]
0	0xc00344a7699e688f	-2.4085224391429345
1	0xc001d6a61a27376a	-2.2298090022294916

weight f8 [2, 2]
0	0xbffcdc9cb7c22c07	-1.8038603952470582
1	0xbfe35f0de65164cc	-0.6053533075711583
2	0xc008827b5a195a63	-3.063711837671961
3	0xbff3a004be18d22c	-1.2265670228636152

bias f8 [10]
0	0xbfa3b1aff01b38ec	-0.03846502119050563
1	0x3fcca1283b477766	0.2236681260537196
2	0x3fe02adbd6a8a346	0.5052317802957098
3	0x3febbffe1594feac	0.8671865865253117
4	0x3fed37684a4bc21a	0.9130135966389077
5	0x3ff3bd44945ae9e1	1.2337079806444466
6	0x3fb73d7b838562f7	0.09078189812624858
7	0x3fe5ea92fc5f09f6	0.6848845414281743
8	0x3feb5a96a0d7fc82	0.8548081532934619
9	0x3fe0d63f5454fc5e	0.5261532446965125

weight f8 [10, 2]
0	0xbfc2a0bab4d7aad9	-0.14553006963918483
1	0xbfe3742e2e6f1d0f	-0.6079321772494114
2	0xbfb634bd4f181396	-0.08674224072463085
3	0x3feaa8fac59a95e8	0.8331273898554032
4	0xbf8a696b618e3bb6	-0.012896384157810786
5	0xbfe18defbdf1b856	-0.5485762319419887
6	0xbfcf1a7590a53fb7	-0.2429949718739388
7	0xbfd3c1dedde0baa0	-0.3087079207206589
8	0xbfc567bf2607d869	-0.16722859723057873
9	0xbfdbc527658c3f24	-0.4339083186796293
10	0xbfe24ff41da362c3	-0.572259958159599
11	0x3fc8e2d5e70f7dbe	0.19442247183085998
12	0x3fe4c6bd6bc456c3	0.649260244829485
13	0x3fef822c53b13eb7	0.9846402773491353
14	0xbfd17743cf3bceea	-0.2729043506399039
15	0xbf7cb2c56d867cfa	-0.007006427004312638
16	0xbfe68f18bcbfa005	-0.7049678503508409
17	0x3fe15058f68cfe3e	0.5410580459064886
18	0xbfda145dae3620ed	-0.4074930382999032
19	0x3fe2d65b6f620c74	0.5886666465234058

bias f8 [10]
0	0x0000000000000000	0.0
1	0x0000000000000000	0.0
2	0x0000000000000000	0.0
3	0x0000000000000000	0.0
4	0x0000000000000000	0.0
5	0x0000000000000000	0.0
6	0x0000000000000000	0.0
7	0x0000000000000000	0.0
8	0x0000000000000000	0.0
9	0x0000000000000000	0.0

weight f8 [10, 10]
0	0xbfc8e713e0000000	-0.19455192983150482
1	0xbfd376bfc0000000	-0.3041228652000427
2	0xbfc2b3a520000000	-0.14610733091831207
3	0xbfd9ece0e0000000	-0.40508291125297546
4	0xbfd94b4d20000000	-0.3952210247516632
5	0x3fd9f09780000000	0.4053095579147339
6	0x3faede7900000000	0.06029108166694641
7	0x3fb28fe540000000	0.07250817120075226
8	0x3fd3a920a0000000	0.3071977198123932
9	0xbfe1117f60000000	-0.5333859324455261
10	0x3f8c5e6cc0000000	0.01385197602212429
11	0xbfdb28f260000000	-0.42437419295310974
12	0x3fd44867e0000000	0.3169192969799042
13	0x3fd7241fe0000000	0.36157986521720886
14	0xbfd41ec840000000	-0.3143787980079651
15	0xbfd76fda40000000	-0.3662019371986389
16	0xbfc5fb6100000000	-0.17173397541046143
17	0xbfe09b8000000000	-0.51898193359375
18	0xbfc5199020000000	-0.1648426204919815
19	0x3fd2d0f620000000	0.29400399327278137
20	0x3fda5f9fe0000000	0.41208645701408386
21	0xbfc4c10760000000	-0.16214077174663544
22	0x3fc4af7a60000000	0.16160516440868378
23	0x3f89eda500000000	0.012660302221775055
24	0xbfc2ae6500000000	-0.14594709873199463
25	0xbfd5b6ae20000000	-0.33927491307258606
26	0xbfd09a57a0000000	-0.2594203054904938
27	0xbfde1e74e0000000	-0.4706089198589325
28	0x3fa083d840000000	0.03225589543581009
29	0x3fcdde88e0000000	0.23335371911525726
30	0x3fd36217c0000000	0.30286210775375366
31	0x3fdbc73a00000000	0.4340348243713379
32	0xbfd6947000000000	-0.3528099060058594
33	0xbfddc4d2e0000000	-0.46513816714286804
34	0xbf805fed20000000	-0.007995464839041233
35	0xbfae745e60000000	-0.05948157235980034
36	0x3fe0fe7a60000000	0.5310642123222351
37	0xbfca017b80000000	-0.20317023992538452
38	0xbfb651c2c0000000	-0.08718506991863251
39	0x3fe0112a80000000	0.5020954608917236
40	0xbfcb812f80000000	-0.21487993001937866
41	0xbfd1934fe0000000	-0.27461621165275574
42	0xbfcf84dce0000000	-0.24624215066432953
43	0x3fc012f8a0000000	0.12557895481586456
44	0xbf929fecc0000000	-0.01818818971514702
45	0xbfd2d9a540000000	-0.29453402757644653
46	0xbfc9980980000000	-0.19995230436325073
47	0xbfc628a640000000	-0.17311552166938782
48	0x3fa48d8240000000	0.04014212638139725
49	0x3fd16eb900000000	0.2723829746246338
50	0x3fdb2520a0000000	0.4241410791873932
51	0xbfe01a3be0000000	-0.5032023787498474
52	0x3fbdb29ee0000000	0.11600678414106369
53	0x3fc9f34600000000	0.20273661613464355
54	0xbfc616b360000000	-0.17256776988506317
55	0x3fbe829e40000000	0.1191805750131607
56	0xbfd4fd14a0000000	-0.32794681191444397
57	0xbfbb65afa0000000	-0.10702035576105118
58	0x3fd104cd80000000	0.26591813564300537
59	0xbfdf492de0000000	-0.4888415038585663
60	0x3fb749c8e0000000	0.09096961468458176
61	0xbfe02d9f20000000	-0.5055690407752991
62	0x3f910260a0000000	0.016610631719231606
63	0x3fc2ffed20000000	0.14843524992465973
64	0x3fba752440000000	0.10334993898868561
65	0xbf85e3b720000000	-0.01068823877722025
66	0xbfdc68de80000000	-0.4439007043838501
67	0xbfb7aee520000000	-0.09251243621110916
68	0xbfd0784d60000000	-0.257342666387558
69	0x3fe0834860000000	0.516025722026825
70	0x3f9cb0ab40000000	0.028017688542604446
71	0x3f954c9cc0000000	0.020800065249204636
72	0xbfe1753160000000	-0.5455557703971863
73	0x3fd3263b80000000	0.29920852184295654
74	0xbfddea0a00000000	-0.467409610748291
75	0x3fe02ee380000000	0.5057237148284912
76	0x3fc490dc00000000	0.16067075729370117
77	0x3fd2ca27c0000000	0.2935885787010193
78	0xbfe1216060000000	-0.5353242754936218
79	0xbfc020f020000000	-0.12600518763065338
80	0xbfd2d04220000000	-0.2939610779285431
81	0xbfd74eb880000000	-0.36417973041534424
82	0xbfdf91e980000000	-0.4932807683944702
83	0x3fc38b3800000000	0.15268611907958984
84	0x3fd75b2e20000000	0.36494019627571106
85	0x3fd2008e00000000	0.2812838554382324
86	0x3fd42eb000000000	0.3153495788574219
87	0x3fd5dbeb40000000	0.34154778718948364
88	0x3fd28f1f80000000	0.2899855375289917
89	0xbfc3c1c3c0000000	-0.15435072779655457
90	0xbfdb7bb060000000	-0.42942437529563904
91	0x3fd61b3820000000	0.3454113304615021
92	0x3f9c664800000000	0.027733922004699707
93	0xbfd201f520000000	-0.28136947751045227
94	0xbfcf004fe0000000	-0.24219702184200287
95	0xbfc5266a40000000	-0.16523483395576477
96	0xbfc2473b00000000	-0.1427987813949585
97	0xbfdd6c7a40000000	-0.45974594354629517
98	0x3fdfa3eba0000000	0.4943799078464508
99	0x3fb39cf800000000	0.0766139030456543

weight f8 [5, 10]
0	0xbfcf65ca5871d645	-0.24529389685237582
1	0x3fc85e5df9300c8b	0.19037985484473938
2	0x3fe7de5b2898ceb3	0.7458930771740228
3	0x3fd704666fa0d581	0.3596435632819848
4	0x3feb66d0b3fcdd82	0.8563006892572249
5	0xbfef1256ad3c610f	-0.9709885962975323
6	0x3fb7f19e5b05c763	0.09353055689078142
7	0xbfee4415395e0ad5	-0.9458109016853437
8	0x3fd781869127425c	0.3672806184304471
9	0xbfda9af55c39a9dd	-0.41570791250583544
10	0x3fcda7a5133b5a93	0.23167861403517928
11	0x3fd70bb3ac6ebc1b	0.3600892242347428
12	0xbff17c6a9611b8e5	-1.0928750860289764
13	0x3fd4b11646c5e957	0.32330853377756824
14	0xbfc7d310a4c3f326	-0.18612869305788954
15	0x3fed39f6e75edb9b	0.913325740714629
16	0x3fbe879009c62feb	0.11925602186801114
17	0x3fe7cf669d490b93	0.744067485044399
18	0xbfeab3166bf08f50	-0.8343612774083145
19	0x3fe27f53ee5e6343	0.5780429511679376
20	0x3faeee576f6e1d87	0.06041215167266061
21	0x3fe0afc5bd73b8f0	0.5214565944895906
22	0xbfeb640fb852b848	-0.8559645271359466
23	0xbff5a2b99fa522e8	-1.3522278057227428
24	0xbfe1b660767d2d5a	-0.5535127939450988
25	0x3fd198b67df99f79	0.2749458532548413
26	0x3fd63437c89651fe	0.3469371279582275
27	0xbfe73c6d01b8f7a3	-0.7261261972087037
28	0x3fab6f304ea4ccf5	0.053582677459781104
29	0x3fe7b82430d9b492	0.7412281946286774
30	0x3fc31f5e0fdfd1b7	0.14939475798713683
31	0xbfc78e63268612b3	-0.1840328157524219
32	0x3fd7813e20ac81d4	0.367263347538054
33	0x3fb6b6182ddb7cb5	0.08871604079785096
34	0xbffdcddd51e05d2f	-1.8627598951623658
35	0x3fb1b15cc525d9ca	0.06911258519344368
36	0x3fd2e66c5e052ebe	0.2953139227072191
37	0xbfecef4f8202d635	-0.9042127169875075
38	0x3fe9c8efb841770f	0.8057783697838391
39	0x3fd9c81c594211c4	0.40283879009828305
40	0xbfc3fb57c05fc27f	-0.15610787289871905
41	0x3fc02bc4e01de6cd	0.12633572524264594
42	0x3fd3d96370f39ce8	0.31014333753996803
43	0x3ffb9768479bd108	1.7244646832669464
44	0x3ff21e883086388d	1.1324540992241368
45	0x3fea0102b7964c62	0.8126233659444433
46	0xbfd047f1aa96b35f	-0.254391113844397
47	0x3ffbf763f13bb0e4	1.7478980467959042
48	0xbff0f1cd902c2aa0	-1.0590339309443735
49	0x3fde83ea93a7c0f7	0.4768015329309629

bias f8 [5]
0	0xbfaa92e4cb9be56d	-0.05190196023427061
1	0xbfc6f4f94bb90085	-0.17935100743671142
2	0xbf98b1cf10ec9764	-0.024115786941499975
3	0xbfd8827bfab68aed	-0.38296412929245954
4	0x3fbfbb9becc69ede	0.12395643740330395

weight f8 [5, 5]
0	0xbfe1a37b7f8f11b9	-0.5512063495048586
1	0x3fe0fc478056f91c	0.530795813239624
2	0x3fed2dd61a28fc89	0.9118452559413451
3	0xc00278df674836a7	-2.3090198582566077
4	0xbff4eb0dfe4688c4	-1.3073863918912574
5	0x3ff37247d9e43ad4	1.2154005538356403
6	0xbfe17b6f0e79ddbd	-0.5463176043257857
7	0xbfb4e3e5fb4faa25	-0.08160245309378718
8	0x3fba6abae4b30fae	0.10319107135279523
9	0xbff0cb4dab6d5764	-1.0496346184131307
10	0x3fc03b06a82b4e45	0.12680133067498126
11	0xbfc9a0658f5c8d6d	-0.20020741939616063
12	0x3fcf7fbd860636a1	0.2460858253875147
13	0xbfc79584779c3422	-0.18425041046467167
14	0x3fcef1f0a420678f	0.2417584229850118
15	0xbfbcf78ec4c4e423	-0.11315243057187323
16	0x3fa8b20077e39200	0.048233046183472794
17	0xbfbb4cea6ce91817	-0.1066423908133348
18	0x3fb238fccaf157ec	0.071182059809274
19	0xbfbbd159b82c0092	-0.10866318460830574
20	0xbfe28fa24e809c6d	-0.580033448529219
21	0xbfe1a0ce8fb423af	-0.5508797461235327
22	0x3fc47a14f22f27a8	0.15997564149284682
23	0xbfc071b89f0a33ba	-0.12847049489610446
24	0xbfa5d15806b6e411	-0.04261279184306244

bias f8 [5]
0	0xbfdb3e68ceb21a35	-0.4256841677201096
1	0x3fc138037402f6c6	0.1345218960249694
2	0xbfd07c594f439f76	-0.2575896524490341
3	0x3fc582ae95ba915c	0.16805059729552851
4	0x3fe14b07d0d56fd7	0.5404090002807561

__mu__ f8 [160, 2]
0	0x400905b370380871	3.1277836577510745
1	0x3ff049798de7b750	1.0179381888551298
2	0x4003cfe17a3f9dde	2.4765042830147044
3	0x3fed0510bd470752	0.9068683335137655
4	0x4004afcab6419b68	2.5858358610889134
5	0x3fe2d00ef3907e12	0.5878977543943071
6	0x4007f34bc3e1006f	2.9937968543090885
7	0x3fe67b2d9f7c1412	0.702536403172987
8	0x400508eb379c1139	2.6293548912527993
9	0x3fe20fcae2cf8c18	0.5644277982613657
10	0x40030a6b2423ef2a	2.3800871680704363
11	0x3fda465eb3ee653a	0.4105450398579539
12	0x40008fcdb4383ab1	2.070216567960721
13	0x3fe10e8b0d77003f	0.5330252898202231
14	0x3ff8bcdcb51a8cf1	1.5461089205135148
15	0x3fe8c93d626e19d6	0.7745654032194647
16	0x400707d7dbc499f6	2.8788296861050595
17	0x3fdeea5e6de4bb8a	0.48305474025522044
18	0x4001d9aca917eb10	2.2312863550590762
19	0x3fdb3bd3b3b49099	0.4255265479025723
20	0x400434f89f4d0dc0	2.5258648343458106
21	0x3fdaacc013104ab5	0.41679384099658573
22	0x40081ab6615b49ac	3.013043175314314
23	0x3fe6ee36b835e9b7	0.7165788267005188
24	0x40093c4600fbf9bf	3.154430396737751
25	0x3febc582c4197092	0.867860205656614
26	0x400493072e6425ac	2.571791040831803
27	0x3fde2a0b1371781e	0.4713161172747976
28	0x40042f87e023a639	2.523208380783015
29	0x3feadf3ec122ea1b	0.8397516033358586
30	0x40092e5362edcf38	3.147619984514588
31	0x3ff6bdef91d3f000	1.421371049537811
32	0x400750341c274c02	2.9141618918888534
33	0x3fe868dc709bee24	0.7628004264256032
34	0x4001e2e74ad093c4	2.2357927174475396
35	0x3fe221c83e004d4f	0.5666238032303371
36	0x4004850b79a90554	2.5649632935243663
37	0x3fe3c1afddcf1f71	0.6173934299667804
38	0x40078ecc443c33c5	2.9447255450126897
39	0x3fd8a8dfda28ffe2	0.3853072767706164
40	0x4004e676d9c93ccb	2.6125313772714427
41	0x3ff4a36e935813d8	1.289900374949175
42	0x40034ecacc881b76	2.413472745803513
43	0x3fecbbe518e3d414	0.8979363905078821
44	0x40002438257109eb	2.01768521548478
45	0x3fedd4d20f79cc6d	0.9322290708791009
46	0x3fff753512208246	1.9661150653920614
47	0x3fef792ff14a469f	0.9835433685968445
48	0x40037a7133786b62	2.434786226379786
49	0x3ff37766989faabc	1.2166505777228585
50	0x4002178551a951a4	2.2614847545430212
51	0x3fec00b9d839af9a	0.8750886176253403
52	0x3fff37b66b1d1b80	1.9511017021302166
53	0x3febbc296aeec540	0.8667189682511562
54	0x3ffaaf8e179f627c	1.6678601191289593
55	0x3fe85e34e4aec864	0.7614998308620327
56	0x4009357fe6c77af2	3.151122858965544
57	0x3fe8bd280ae8bb69	0.7730903828686283
58	0x40040bc09492a8a0	2.505738411641758
59	0x3fdb8c73b8e9209e	0.430447512223063
60	0x4004ae9d0b359441	2.5852604747510957
61	0x3fe87982ad84f976	0.7648328198481937
62	0x4009ae10d2d253ba	3.2099930258213734
63	0x3fef3b04cd83ca91	0.9759544385872961
64	0x400410784e3860fc	2.5080419646220644
65	0x3ff5a5d88c1ae2d6	1.3529897187092295
66	0x3fffb77430a11e00	1.982288541754201
67	0x3fedac56cf753982	0.9272874881660729
68	0x400290c82a917366	2.3206942868841223
69	0x3fef60d5f44b3d40	0.9805707713475513
70	0x4006f7d0d1411d34	2.8710037563320387
71	0x3ff88d6f32f560da	1.5345298758093606
72	0x400433a41947357c	2.5252153372627486
73	0x3fe3de61c6c5b503	0.6208962328215936
74	0x4002c24d2a4f4fb3	2.344873743577375
75	0x3fda4f9394663e29	0.41110696308257616
76	0x3fffa24203774f5a	1.9771137366669422
77	0x3fe3458bd7eb1ada	0.6022395341068105
78	0x3ff9d627a76c9e7a	1.6147839107524349
79	0x3fea94e823bf7a0f	0.8306770990564604
80	0x400990303ff07c35	3.1954045291199926
81	0x3fea14009b2e5d8e	0.8149416952973512
82	0x40047cff4db3b6a4	2.5610338278264226
83	0x3fe0be078983a460	0.5231969533753151
84	0x4004ac4eaea304fe	2.584134449338875
85	0x3fe722c3ec8fbde8	0.7229938145009642
86	0x4006d59b6d835cee	2.8543003612245377
87	0x3fe29cbbfcf0d4a0	0.5816326084374346
88	0x4004ee370c920893	2.616315935331906
89	0x3feb57e4d94ad458	0.8544792407980237
90	0x4000f6f0297f1ceb	2.1205752603451535
91	0x3feab7cec9b2962e	0.8349374713331537
92	0x40028433e4a79a0a	2.3145521033905014
93	0x3fdda2ad63e049cf	0.4630540347435756
94	0x400264293aa0df09	2.298906763109589
95	0x3fd710ba687c665f	0.3603960056658248
96	0x40031b9e3ad96d24	2.388485393295598
97	0x3ff42e68909679af	1.2613301895104134
98	0x4001b450fe0b3474	2.213045105664202
99	0x3fef82b65b8b5574	0.9847060955022884
100	0x3fff159466743a20	1.9427684785947648
101	0x3fe9fb0a244068b2	0.8118944843329443
102	0x3ff88048291f1b4c	1.5313188177403445
103	0x3ff3557e382ba48e	1.20837232534021
104	0x4009c3dbbb18e662	3.220633947083841
105	0x3fe923c002cf1c58	0.7856140189040941
106	0x4004ed150b32fdee	2.6157627940117356
107	0x3fe8755de2af898e	0.7643269946532187
108	0x40047b7184821932	2.560275111408509
109	0x3fdc88418eb22aea	0.44581641135361727
110	0x4006ab0f1f430b37	2.8335249368987223
111	0x3fd86de84ea70ff4	0.38170821839253155
112	0x400678e649aff960	2.8090329891994514
113	0x3fea5c34ecb81626	0.8237557052058875
114	0x40042c2ab7990d8e	2.5215658515532544
115	0x3fe4df63cd162acc	0.6522692685697051
116	0x400133cd0b5fca30	2.150293434963963
117	0x3fe36ba87a11b09d	0.6068918594514973
118	0x400367185db102da	2.425339443172885
119	0x3fd739552d65352e	0.3628743117631811
120	0x40079479562591a6	2.9474970560279017
121	0x3fed04a80a116b0e	0.9068184086457636
122	0x4002a8e30d193c7a	2.3324643157316673
123	0x3fec12a59c9de581	0.877276235477595
124	0x400412d16d1e50e8	2.5091885113598558
125	0x3fdee2615e72a276	0.48256715987603316
126	0x4004d268218673d2	2.6027376765400527
127	0x3fd7e19a7d8db491	0.3731447435482745
128	0x40078147e51934da	2.9381254099194907
129	0x3fdf4efa3cdea96a	0.4891954035216687
130	0x400459221995f1a8	2.5435220717319744
131	0x3fdd78240cb90880	0.4604578136678654
132	0x40024a925147e7d1	2.2864118909901454
133	0x3fd8e5e7ec1a65b9	0.3890323453611831
134	0x400519c513abea50	2.6375829254950887
135	0x3fd5e4ab44d75582	0.342081849315342
136	0x4007bc737def2134	2.9670171583749383
137	0x3ff2550b530e94a2	1.1457627529537509
138	0x400272aaf8c3d734	2.305990165211279
139	0x3fef70dc0d554330	0.9825268040095576
140	0x400479f34f524ef2	2.5595461079591297
141	0x3fe56b2cad1e0b4c	0.6693328267286716
142	0x4005cc796a49702c	2.7248409560834457
143	0x3fe8d2807cbb1c90	0.7756960331106644
144	0x400876eeed9fcb53	3.058072906912835
145	0x3ff1f41e30759743	1.1220991032545988
146	0x4004feaf16f3f418	2.6243573945234964
147	0x3fe4e2cf711e38cf	0.6526868066155432
148	0x4002d22b1e777971	2.352621305485791
149	0x3fef07fa3806598e	0.9697238058313802
150	0x4005d78044dcf5e2	2.730225122445277
151	0x3ffa3aca5417b56e	1.6393531117313063
152	0x4002f860f55d19d3	2.3712786835705884
153	0x3fef8524e44b0a0f	0.985002942929272
154	0x4000353a179bae57	2.0259897083649707
155	0x3fed6044a4cb5fda	0.918001481880306
156	0x4000dc2aba2e98a3	2.107503370806698
157	0x3fe151f4f5e8558b	0.5412545016176166
158	0x4004f6c997807f8d	2.6205016933526566
159	0x3fdf8d97cd869ee7	0.49301714964756943
160	0x4008e820979766a4	3.1133434146002674
161	0x3fea5be71df79650	0.8237186036391879
162	0x40043ed96df95d4a	2.530688151524065
163	0x3fdc9bed32beda90	0.44701700168244773
164	0x40041cc7e16fd616	2.514053117013428
165	0x3fe9ee791b3ddd1c	0.8103604824126793
166	0x400a06d0f8bab258	3.253328269193201
167	0x3ff660900ffb6958	1.3985748886394358
168	0x40061aeac82f01a4	2.763143123564264
169	0x3fe1a3a3b81d0ff1	0.5512255283324504
170	0x4003bebcd8dec76a	2.468133634852099
171	0x3fd9489a325d756c	0.39505629461731107
172	0x40012d04ac7a7596	2.146981570708429
173	0x3fe1008ade509a68	0.5313162176215203
174	0x40048cc29910016f	2.5687305410394212
175	0x3fe73941fa0b6077	0.7257394679718477
176	0x40037b37d7dd435b	2.435165106239237
177	0x3ff42fe8c6e6c588	1.2616966027820542
178	0x4000d1e51023c8a3	2.1024876843376474
179	0x3ff03624ae0ae558	1.0132185743844584
180	0x4000e2ef49d47a20	2.110807968899522
181	0x3fe91230f9e77710	0.7834706192913661
182	0x3ff909a6f9a35564	1.5648565055356238
183	0x3fef21819d1b112d	0.9728401249381357
184	0x40085c059325803a	3.044932508069931
185	0x3ff21ca42227b598	1.1319924673256079
186	0x4004968584370f70	2.5734968499472686
187	0x3fe5b8239bad2a02	0.6787279167704698
188	0x4003196dc467bbb0	2.3874163955838057
189	0x3fee970f2caf8cd2	0.9559398529785545
190	0x4003c9aad6898f4f	2.473470378945343
191	0x3ffc7cbf9cfd5205	1.780456174126017
192	0x400707da5046c22b	2.8788343688577434
193	0x3fec534d808d7ff8	0.8851687918468079
194	0x4002bbd084e28f03	2.341706312335988
195	0x3feb6ee997889608	0.8572891196860732
196	0x40035388f4eb8df2	2.4157885679612656
197	0x3fde8018a8a7ea2d	0.47656837911896127
198	0x4007892302df4037	2.941961309850764
199	0x3fdc02f111f20de6	0.4376795459031356
200	0x4007fafe35e56102	2.9975551806093117
201	0x3ff320292d57265c	1.1953517695532332
202	0x40026812bf16a449	2.300817005995246
203	0x3fefaf5e1ff3a16d	0.9901571868950164
204	0x4004d1104827b6d6	2.6020818364257634
205	0x3fe71c0265dc484e	0.7221691121542422
206	0x40085037228ad438	3.039167661535
207	0x3fe7f05bbd4ae902	0.748090619766373
208	0x400551fb7aff9f30	2.665030442167243
209	0x3ff09d547405be88	1.0384106189848428
210	0x4002c036920dfb7e	2.34385408501788
211	0x3feca3d4fb5f8fe5	0.8949990186342772
212	0x400136444866eced	2.1514974266443603
213	0x3fe4139725cc4f01	0.6273914087528
214	0x3ffa83c7f629e6d0	1.657173120095127
215	0x3ff1e71efc7573a2	1.1189260350867944
216	0x40090377685afd47	3.126692595745826
217	0x3feed0e11d38d683	0.9629979677908554
218	0x40047f766c2d4d54	2.56223759186984
219	0x3fe1d7c35bd01957	0.5575882714481776
220	0x4003fd89643dbff4	2.498797209867911
221	0x3febd750e8d48271	0.8700336978400413
222	0x40076a0d3258862f	2.9267829831376484
223	0x3ffa70e5a779c201	1.6525627653137465
224	0x4006ff324ad36680	2.874607643677166
225	0x3fe15658fac2a903	0.5417904756225486
226	0x4001b9e6b09e9c4f	2.2157720373539074
227	0x3fdc93206f4d5c97	0.4464799010215272
228	0x40044a5283b6141a	2.5362901964131312
229	0x3fdded50b055b997	0.46760956974221685
230	0x400725cec5fa2fe1	2.893460795114138
231	0x3fea94f1f17e3a0a	0.8306817738210281
232	0x4007dd16f099ced4	2.982953910535665
233	0x3fe4a1333d0c65ab	0.6446777527191235
234	0x40027d734708e1ae	2.3112550305924833
235	0x3fdf0687a2310302	0.4847735484982395
236	0x4004971a96db59c4	2.5737811837854867
237	0x3fe1bdda2c9a2689	0.5544253226409676
238	0x400968a0a91e529d	3.176087685811878
239	0x3ff22b65f1d0a9bc	1.1355952688123656
240	0x4008239c0deaaa30	3.017387493823911
241	0x3ff217d18e2ec7a3	1.1308150819790874
242	0x400448c67f1e287c	2.53553485213075
243	0x3fe53268f3231c2a	0.6624035595676834
244	0x40032221abf16854	2.3916657860800488
245	0x3fef12118af0bc4f	0.9709556306533019
246	0x40091fff8dc1da55	3.140624148825092
247	0x3ff70476b8fe3671	1.438589785222032
248	0x40062fac8b70022a	2.7732783216054218
249	0x3ff19eec64b63c36	1.1012996610695729
250	0x4001181d1d1c089c	2.136774279993075
251	0x3fee410329eeb63e	0.9454360789292833
252	0x4003ee7067f37b09	2.4914253350428948
253	0x3fe4e708f7ea8993	0.6532025186646017
254	0x400a11529dea941c	3.2584583604061788
255	0x3ff18b3b60919a66	1.0964921734063409

__logstd__ f8 [160, 2]
0	0xc01132b85e38bc3e	-4.2995314333084576
1	0xc01625a5dbb42c84	-5.53676551139063
2	0xc00f15947551f8a3	-3.885537067951263
3	0xc0133f124744730b	-4.811593164017505
4	0xc00fece046d51e04	-3.99066214883692
5	0xc013d9d8dea1fdbb	-4.962741354596285
6	0xc010fb1e3b56dc0c	-4.245232512642371
7	0xc015a6f9fb2855d8	-5.413062977158425
8	0xc010161a7f5417aa	-4.021585454471202
9	0xc0140e38f61d77b6	-5.01388916544777
10	0xc00effc521db3082	-3.8748877186790773
11	0xc012fbf2895ddab3	-4.746042391160404
12	0xc00d467a5ac51556	-3.659413060321337
13	0xc0118aff953d9c2a	-4.385740596661927
14	0xc00a54a837926263	-3.29133647361259
15	0xc00e2fccc2e7178e	-3.7733397700093922
16	0xc010c5e1bf1f6020	-4.193243967332847
17	0xc01535b9356644ed	-5.302464327208537
18	0xc00e35555abd80dc	-3.7760417069513164
19	0xc0124eaff0b2538a	-4.576843033680129
20	0xc00fc19247b10e3f	-3.9695172882946106
21	0xc013a3d21a7d8556	-4.909981168662247
22	0xc011067bb1603c11	-4.256331225870796
23	0xc015bbf5fd37c17c	-5.433555561569275
24	0xc01154c5f17abb4d	-4.332786343685098
25	0xc01651d2d044c624	-5.5799057523704825
26	0xc00ff344fbe249be	-3.9937839201386103
27	0xc013d40512428d60	-4.95705059558108
28	0xc00f629b808c9aef	-3.9231481593045525
29	0xc0137b053899b6ca	-4.8701371043986885
30	0xc01114674c0290a5	-4.269925296455914
31	0xc0161893ceb133ff	-5.524001340451831
32	0xc010bf4d7960542a	-4.18681897783703
33	0xc015459735798676	-5.3179596286223525
34	0xc00e1cdf6b80285e	-3.7640980146871206
35	0xc012474e938c184c	-4.569635682512011
36	0xc00fca8f422707c3	-3.9739060562287434
37	0xc013bf198febb7ea	-4.936620949518309
38	0xc010fc8d2a56a0d0	-4.246632253205647
39	0xc0158a943ac4da2a	-5.385331075920968
40	0xc00f78e643f46342	-3.934032946487066
41	0xc013ba1126e7afdd	-4.931706054583597
42	0xc00ec32157fc0c2d	-3.8452784417909442
43	0xc012f70ab95e11ee	-4.741251846663074
44	0xc00ca9e15ba2b8c0	-3.5829493674310413
45	0xc0112ab11fb6a50a	-4.2916912989833325
46	0xc00c59c0f7eb3215	-3.5438250893260013
47	0xc010ea87c71aebde	-4.229033576028966
48	0xc00e9ac88afbca96	-3.8255778177347777
49	0xc012f33c523ab9ea	-4.737534794649472
50	0xc00dfc9a3aa56366	-3.74834104363656
51	0xc01249795587277a	-4.571751915334852
52	0xc00c5ee72e68a9df	-3.5463393808069976
53	0xc010e39b0bf97390	-4.2222711440089284
54	0xc00afa77ee9cff85	-3.3722990647947335
55	0xc00f4b78eb097964	-3.9118517267481128
56	0xc0115cccc9360670	-4.340624946520265
57	0xc0165674c7b2b70e	-5.5844298556164755
58	0xc00fa3ad70444880	-3.954920651515806
59	0xc0138b59472446a7	-4.886082755650626
60	0xc00fc5de0c58aa94	-3.971614929633981
61	0xc013c965fcadc21f	-4.946678112130512
62	0xc0116e4892f90204	-4.357698723266825
63	0xc01688609f0f64e6	-5.633181081118186
64	0xc00edf62abb75c67	-3.8590749183018036
65	0xc0133bb661caac6e	-4.808312919612133
66	0xc00c7b901ae44e1d	-3.5603334523127743
67	0xc011023c4f64eb1a	-4.252183189901894
68	0xc00e3511d225fbcc	-3.775912896904151
69	0xc01284797aaed44f	-4.629369656487213
70	0xc0104f05ffe23754	-4.077171323949944
71	0xc014cee1bde590b6	-5.202033011566689
72	0xc00f94979ac28053	-3.9475547876936985
73	0xc01390dce03011e8	-4.891467574056584
74	0xc00ed08231f3bb92	-3.85181082749427
75	0xc012d3363d741823	-4.706261596880753
76	0xc00cbae22508dfde	-3.591251649220779
77	0xc0111940df6964d0	-4.274661532218673
78	0xc00aa47720b6dee0	-3.330305343228119
79	0xc00ec47b6b7b23e3	-3.845938529677811
80	0xc01175eadb2d36f9	-4.365153717646302
81	0xc01685e2b1ad466c	-5.6307475816735
82	0xc00fd9a815afcc04	-3.9812776273988693
83	0xc013c2f67b09a9e4	-4.940393373932668
84	0xc00fcd66ebcd9297	-3.9752939626799377
85	0xc013cbd46a0066d4	-4.9490524828667795
86	0xc010aacfa25495ba	-4.166807686245585
87	0xc0151096a91a83da	-5.266199724429464
88	0xc00fdc1131ee8f5e	-3.9824546719482177
89	0xc013e548559492c0	-4.973908745949927
90	0xc00d48a519b842e8	-3.66047115415164
91	0xc011aa3fe9dcbde0	-4.4162594357471505
92	0xc00e9cb0c967f866	-3.826509068952009
93	0xc012ab8b598dc626	-4.667523764875602
94	0xc00e9deea77b96b3	-3.8271153530684727
95	0xc012a2a02c1e3046	-4.6588141339707985
96	0xc00e53250c262365	-3.7905980061663507
97	0xc012b9c10e7d4488	-4.681400514980062
98	0xc00da411059a4533	-3.7051105916695177
99	0xc01207ba73b04f69	-4.507547195087548
100	0xc00c5f9888ca5084	-3.546677654909276
101	0xc010dede45c9481a	-4.217644777689225
102	0xc009e31aedfba2a0	-3.2358912079256044
103	0xc00dc039a957c6f8	-3.7188599805748446
104	0xc01189f946f2d05f	-4.384739979334056
105	0xc016a5a6d6b4e083	-5.661769251623016
106	0xc00feecf5bae740d	-3.9916064417470865
107	0xc013ecaf8bf94004	-4.981138407791153
108	0xc00fe95d31961250	-3.9889472841189573
109	0xc013c8fd37eb1328	-4.946278451655225
110	0xc010b2822c512cb5	-4.1743246960206095
111	0xc0150a6b638724a0	-5.260175280688742
112	0xc010725921eba796	-4.111668138511865
113	0xc014c6b0069e7462	-5.19403086034899
114	0xc00f88ed2c04ac4f	-3.9418586195875274
115	0xc01389d8f4bbf230	-4.884616683932606
116	0xc00da1b674dfc375	-3.703961289480896
117	0xc011e0ede6854f8b	-4.469657518278733
118	0xc00f46a6c419e3ab	-3.9094977684403225
119	0xc013347bf759b292	-4.801254143571571
120	0xc010c60d9c9270be	-4.1934112991695525
121	0xc0155f42284365f8	-5.343025807489077
122	0xc00e5b264ff2700e	-3.79450666864978
123	0xc0129b49c8d6a410	-4.651648653126372
124	0xc00f9d0841c114cc	-3.951675904946205
125	0xc0138aaf7cc2261c	-4.885435056066424
126	0xc01018f4fc1bcfe3	-4.024372042844308
127	0xc014008874840936	-5.000520535048329
128	0xc010ece86037612b	-4.231355193500614
129	0xc01579af8664156a	-5.368833637102719
130	0xc00fcfc5c89ca62c	-3.9764514611058726
131	0xc013b4539e60d38f	-4.926100229892554
132	0xc00e870443d051b5	-3.815926103396317
133	0xc01291a27407d531	-4.6422212724476575
134	0xc01033a31b98042b	-4.050426894334161
135	0xc0142b906869511b	-5.04254305975726
136	0xc010b94c91701622	-4.180956146684851
137	0xc015607f0610c8f2	-5.344234556936714
138	0xc00e20f669b552bd	-3.766094995351834
139	0xc012734f9bbfe5b8	-4.612608369433865
140	0xc00fb8152d9f5faa	-3.9648841442358007
141	0xc013b4351cf1b782	-4.925983860257363
142	0xc0103f300b64bddb	-4.061706712745457
143	0xc01469b329f92c54	-5.103222518761942
144	0xc010f8cdd79b69ef	-4.242972725735384
145	0xc015cbcfffde7b46	-5.449035642580219
146	0xc0100938ab7e1f54	-4.009005240986728
147	0xc01400933625d112	-5.000561567361972
148	0xc00e62278377e091	-3.797926928611624
149	0xc012aa5499ae4f8b	-4.666338349594194
150	0xc00fcaeeebd0d4d0	-3.9740885184388404
151	0xc01422e03963473c	-5.034058472332443
152	0xc00e77d42df7e422	-3.808510169150865
153	0xc012be862acc6805	-4.686058682180378
154	0xc00cb81281b65e7b	-3.589879048707926
155	0xc011358e5a6eaa7d	-4.302300847057833
156	0xc00d769d79cde15a	-3.6829175487475085
157	0xc011b5586188a4ca	-4.427094959225721
158	0xc01017e4e503c99c	-4.0233341010629395
159	0xc0140a5d2b667bf5	-5.010121038561
160	0xc0113e0aa5ed4600	-4.310587494475385
161	0xc016264a21a7c40a	-5.537392164101229
162	0xc00fc17f25013528	-3.9694807902329963
163	0xc013a6b289c66d5c	-4.912790444122347
164	0xc00f5cb40557fb27	-3.920265237567395
165	0xc01373107a2c31ae	-4.862367543170349
166	0xc0115d9f5442b017	-4.3414281049445185
167	0xc01694beea2f8322	-5.645259532117764
168	0xc0107114b7b1f5dc	-4.110430593716469
169	0xc014a9fa7cf22bfe	-5.165994598656651
170	0xc00f78fc19ab2015	-3.934074593100386
171	0xc013630ebb755f0e	-4.846735886610771
172	0xc00dad9cbabfd058	-3.7097715940272273
173	0xc011e3d83f2a0946	-4.4725046033293605
174	0xc00fb830018139bc	-3.9649353139459134
175	0xc013b9c986e3cac6	-4.931432826665235
176	0xc00e918e3042d30f	-3.8210719843285754
177	0xc012efa7a9d7b4ba	-4.734038022795341
178	0xc00d09e6def40e9e	-3.629834882567436
179	0xc0118572846ddbad	-4.380319661336142
180	0xc00d46b13a19e808	-3.659517721095657
181	0xc011a38e4a5ba030	-4.409722482530967
182	0xc00a42e774994b8e	-3.2826680287630046
183	0xc00e37bf0f3a3e3e	-3.7772198857926744
184	0xc010eef0849583ec	-4.233339377999965
185	0xc015bbbf61d3fbcf	-5.433347252429441
186	0xc00fc8ba6407ffe9	-3.9730117621365832
187	0xc013c37cebcacfa3	-4.940906223538977
188	0xc00e93b69a125e7f	-3.8221256291251957
189	0xc012d3c31d747f14	-4.706798992381454
190	0xc00e54b8f14b9dee	-3.791368374939103
191	0xc012eda2a478992f	-4.732065744267216
192	0xc0109a6ef25929a3	-4.150813852970177
193	0xc01511db73784018	-5.267438701834202
194	0xc00e6bd765fe7370	-3.8026569336201916
195	0xc012a7bfd749808b	-4.663817752705778
196	0xc00f214b6e66ef9d	-3.891257154957158
197	0xc0131f4e8c7bb2a4	-4.780573077249446
198	0xc010f50abde03c87	-4.2392987888444
199	0xc01582b6965b3f3a	-5.377649640387796
200	0xc010c86193bb2598	-4.1956847269988415
201	0xc0157f5b1eace9e7	-5.374371032050909
202	0xc00e186362997b83	-3.7619083121384747
203	0xc0126ca73ac9ee19	-4.606106680464586
204	0xc00fe59b39469a06	-3.9871124720259585
205	0xc013e0a3beb7e418	-4.969374637578788
206	0xc01114907f010fbb	-4.270082458915506
207	0xc015d7557a346f9c	-5.460287007761419
208	0xc00ff587d41eb728	-3.9948879787324536
209	0xc0140d28b13acffe	-5.012850541319493
210	0xc00e66912132ad81	-3.800081500395834
211	0xc012a6ddeca9e3f4	-4.66295594965867
212	0xc00d9ee4ebeaef82	-3.7025850707122467
213	0xc011e07dddef0f90	-4.469230144229996
214	0xc00a9eea9cb87e82	-3.3275959247401383
215	0xc00ef301b239b622	-3.8686555789816035
216	0xc01137ed3641c46a	-4.304615829242815
217	0xc0162949d242312b	-5.5403206684971265
218	0xc00fd3d5e6b20e84	-3.9784353278244584
219	0xc013c1492196d999	-4.938755535919335
220	0xc00f3b6246461c74	-3.9039960374971603
221	0xc0135c1d4d5e9219	-4.839955529114854
222	0xc010679ad05d7264	-4.1011765057597565
223	0xc01504cca4f65232	-5.254686906370397
224	0xc010bcb57df34961	-4.184286087011373
225	0xc0152b9b0d148850	-5.2925836604864145
226	0xc00e1c093fcc22cd	-3.7636895164654107
227	0xc0123ae4957bc932	-4.557512603454869
228	0xc00fc48bb3b879bc	-3.970969585482832
229	0xc013ab553dbd51e3	-4.917317356758278
230	0xc010aa1c7ddf0f05	-4.16612431215231
231	0xc015279dffe12f61	-5.288688657874304
232	0xc010fa1ccb3d80dc	-4.244250465039126
233	0xc0159f9c2bc3f958	-5.405869182430557
234	0xc00e939537123bb1	-3.822061949008877
235	0xc012a5cc204c00be	-4.661911492003297
236	0xc00fe3f8f3467f0e	-3.986314678753735
237	0xc013cee7bd609975	-4.9520558920106525
238	0xc0114656ae572c01	-4.318690036840963
239	0xc01652f652322329	-5.581017765340939
240	0xc010dca12b10689a	-4.215458557964803
241	0xc0159c06fa187a55	-5.402370364898691
242	0xc00f996fbebc8158	-3.9499201680447804
243	0xc013991548858ceb	-4.899495251799844
244	0xc00e962822d14264	-3.823318740855301
245	0xc012d75516285452	-4.710285516940603
246	0xc0110ddc38a7daae	-4.263535390133866
247	0xc0160ef55840491f	-5.514607790874179
248	0xc0103c6cd211a97f	-4.059008867576607
249	0xc014849e2837477a	-5.12950957143209
250	0xc00d467332882208	-3.659399409083793
251	0xc011b31bcd65d904	-4.424910744992534
252	0xc00f606034d92777	-3.922058499218959
253	0xc01366f0a64405ca	-4.850527379895945
254	0xc01181b2d726aa2d	-4.3766587846135225
255	0xc016b59f0276fe95	-5.677364386093946
