code/models/IntraGVAE.pt (torch, 612338 bytes, 50 tensors)

att_src f8 [1, 3, 15]
-0.3353420169185618 -0.040033764192475556 -0.13373667030446337 0.05073450068292399 0.552888340570898 -0.6841621709194746 0.013864591181634717 0.3440054618805789
0.08955216940675367 0.3361091285639966 -0.41865447187193516 -0.08533222789384669 -0.2775505612573267 0.0024829370970309477 0.06771822483447804 -0.8573344118308177
-0.10912012112762931 0.14807439027392386 -0.138663473896098 -0.18396150966698177 0.030817090092167675 0.7656780336422798 0.3502154486358455 -0.1580591529952358
0.3222564895672067 0.1022098135837087 0.346098435236354 -0.205653380073517 -0.5753739479770209 -0.22252462182853308 -0.41365310812196987 -0.7775479662710569
0.8806968308094272 -0.05787601181882661 0.07144893223593533 -0.5736707160275237 -0.25374256560472125 -0.46508484477088063 0.5172157008845846 -0.20486805214185783
0.3422348212049791 -0.5840145195620713 0.16266740109623104 -0.07515375364780583 -0.2509802182469242
00000000: 26f4 e85c 3e76 d5bf e789 e237 4e7f a4bf
00000010: c1e6 9d80 481e c1bf 9591 6c5a dff9 a93f
00000020: 58ef a2e3 42b1 e13f df4d a810 a8e4 e5bf
00000030: 308b 94ed 0965 8c3f 9a09 1b7c 2f04 d63f
00000040: b64a e316 e4ec b63f 7571 c4dc cf82 d53f
00000050: 3ce7 4020 3ccb dabf e350 1938 55d8 b5bf
00000060: e28b e56d 63c3 d1bf ea19 27b4 1857 643f
00000070: acdb 0149 fb55 b13f 6c8f 9193 486f ebbf
00000080: 6c27 94d7 4bef bbbf a702 cd03 1af4 c23f
00000090: 6c49 c486 b9bf c1bf 6809 dffd 0c8c c7bf
000000a0: 563c 6ae8 838e 9f3f 334b 3838 6f80 e83f
000000b0: a479 9c0e ee69 d63f 0158 7946 483b c4bf
000000c0: d15a e7ae d99f d43f e61a ac1e 6c2a ba3f
000000d0: ce5c 220d 7a26 d63f 7122 dd96 d952 cabf
000000e0: c503 31a0 7669 e2bf f176 a7d2 af7b ccbf
000000f0: 7c72 d1e2 4a79 dabf 7693 c645 ace1 e8bf
00000100: 028e c01e ab2e ec3f be33 f8b3 eca1 adbf
00000110: 2397 492b 7a4a b23f 135b 80b0 825b e2bf
00000120: c106 3875 513d d0bf acfe 8939 f3c3 ddbf
00000130: 42dd 08f1 078d e03f 72e5 f8c7 1d39 cabf
00000140: c12d 28e1 2ce7 d53f 5f10 bd37 3fb0 e2bf
00000150: 49b4 ea0f 49d2 c43f 86c6 16c2 463d b3bf
00000160: 1610 5455 0f10 d0bf

att_dst f8 [1, 3, 15]
-0.6576648388388134 -0.14325413394959374 -0.027223105423387937 -0.6466552956790034 0.18110902795412417 0.2981949995606165 -0.27441764739771685 -0.029047467651940575
0.09646646630569186 -0.34091139608896254 0.4417439384752508 0.5387506224469681 0.47640861180323935 -0.4599847665236042 0.6556007792495904 -0.5240589720790749
-1.0290502540602962 0.21475825400443338 -0.32583069812717114 0.21941994544799542 0.36873110134209985 0.3085854713374957 -0.5051619796304238 0.46515575619148
-0.24523797687246648 0.22406325317589643 -0.49780447056267635 -0.1136123476252552 0.37315999851985293 -0.3653304413624425 -0.20686464497373416 -0.42094750657317476
0.11606938650934773 -0.20259360207668375 0.22043966296181183 -0.058788141043422344 0.41782153697698987 0.2255956992498811 -0.1525033232137865 0.5528378033127367
0.2782894429617011 -0.41846471919026074 -0.5190567229029049 0.6917767601082094 -0.5470281026543391
00000000: 8b56 d121 970b e5bf 8c47 2ac6 2656 c2bf
00000010: 69bf f4ad 5fe0 9bbf bb3f 5772 66b1 e4bf
00000020: 5362 09a4 942e c73f a763 bc7a a015 d33f
00000030: 572e 4109 0f90 d1bf 0706 638e 9ebe 9dbf
00000040: e691 f1bd 06b2 b83f 7d4a 4208 7ed1 d5bf
00000050: ab46 3d5e 8845 dc3f f97f 03f2 713d e13f
00000060: 3092 ce8b 7a7d de3f 0222 38f2 6370 ddbf
00000070: cc7d 437c aefa e43f fe28 4852 17c5 e0bf
00000080: 4812 3266 fd76 f0bf 845f bfce 327d cb3f
00000090: 924c 1f00 69da d4bf f605 e5e8 f315 cc3f
000000a0: 8612 5255 4a99 d73f 1a94 da46 ddbf d33f
000000b0: cd3f b674 492a e0bf 1ade 18a6 1cc5 dd3f
000000c0: f3c4 3341 f563 cfbf a21b 50cc 1aae cc3f
000000d0: 71a2 3748 07dc dfbf a9e5 78e5 b215 bdbf
000000e0: 025d 7479 dae1 d73f cca2 78ee 9261 d7bf
000000f0: f92f 6e6a 8a7a cabf 4521 84cf cdf0 dabf
00000100: c8da 1f2b b9b6 bd3f 3c2b a64f 96ee c9bf
00000110: 6cc4 94eb 5d37 cc3f 2128 59ae 7a19 aebf
00000120: 2e5c 388b 96bd da3f 38c0 32e3 51e0 cc3f
00000130: 1a05 de98 3a85 c3bf d90f a7e7 d8b0 e13f
00000140: 90ec 1586 7ecf d13f 76ed dc3e 20c8 dabf
00000150: 9361 34d8 1c9c e0bf ea85 1904 0923 e63f
00000160: 0e96 5c14 4181 e1bf

bias f8 [45]
8.211813721355406e-11 1.0775414535009184e-10 1.2834144738604735e-10 -1.9439058209743774e-10 1.6968375872815015e-10 3.1694181337894174e-11 -1.1681861694595265e-10 -5.199033428171567e-10
-1.6326686875979925e-10 3.8949732766625043e-13 -2.1316710984883535e-10 3.667091552197055e-10 9.117199818441693e-11 -7.94603122266502e-10 4.1813491987466666e-10 -2.4582737751327803e-10
-2.451367263756604e-10 2.0842589056809722e-11 1.5251650305504565e-10 -1.3307091215189057e-10 -2.2255916811350574e-10 2.4091962476056866e-10 3.16787720563968e-10 3.653120122780488e-11
-1.9155904504136216e-11 9.640701297129172e-12 2.0207940076555463e-10 9.104292308235046e-12 -5.648918340997144e-10 7.995887331654972e-11 4.245723435521537e-11 -1.7367784238937232e-10
-1.1147531981208188e-10 2.0065212982242392e-10 -2.2760228115623088e-10 2.6640792087576755e-10 -2.0419548800081e-10 3.1997215379113847e-10 1.2407862972442785e-10 -1.3879937016474699e-12
-4.568312644420975e-10 -1.090625906144053e-10 3.575849037345452e-10 -2.4214981256834893e-10 -5.320899270929851e-10
00000000: 9b3e 3fd9 8c92 d63d 6ae2 891d 869e dd3d
00000010: 235b 3ffd 9ca3 e13d b94e c9b4 82b7 eabd
00000020: fd24 d76c 3752 e73d 3308 e239 8f6c c13d
00000030: 2718 3b8f 300e e0bd 061d 2040 1edd 01be
00000040: 4d4b f737 7170 e6bd 4ba8 5561 8f68 5b3d
00000050: 9f0a 0aa2 264c edbd ac2f fd36 3733 f93d
00000060: ee95 4cb5 a80f d93d 33f7 a429 674d 0bbe
00000070: 2b58 f344 e8bb fc3d 28c7 f415 a4e4 f0bd
00000080: e54c 68ab 7dd8 f0bd 981a 2ad2 aaea b63d
00000090: 45f4 5b88 32f6 e43d 54df 8338 044a e2bd
000000a0: 3f52 eec5 9a96 eebd 76ad 4488 4d8e f03d
000000b0: 52ff 6e0f fdc4 f53d 7b93 e03b 4f15 c43d
000000c0: 7162 e363 e80f b5bd 68d7 097b 3b33 a53d
000000d0: 68b4 8f6d 09c6 eb3d 6f50 5dcc 4205 a43d
000000e0: 03ba a753 d768 03be 0b86 1f02 9bfa d53d
000000f0: 9134 1d14 5357 c73d 0a96 baee bede e7bd
00000100: 00f0 c6d5 60a4 debd 5aba d5b6 d193 eb3d
00000110: 769b e218 0b48 efbd 69ab f99c b24e f23d
00000120: 8d07 8572 7d10 ecbd 242e fb78 02fd f53d
00000130: 0161 f1f0 a00d e13d c581 71c9 f76a 78bd
00000140: 2285 c01c a964 ffbd ac19 45f8 98fa ddbd
00000150: f502 3d3d b392 f83d 011f 3fce f1a3 f0bd
00000160: ba43 aaff 4f48 02be

weight f8 [45, 5]
-0.038008650544052044 0.14149169001655681 -0.28032709949615914 0.38868078211875806 0.13421718548568973 -0.15204975831861728 0.26625235786093676 -0.10083780504435431
0.8771093835105587 -0.10857191687813307 0.018130737483252845 -0.025475231825286628 0.004074950179470053 0.17603828652011821 -0.015953001380006104 -0.20751158017089333
-0.0828935458498391 -0.4325764649066671 0.6011175626892998 0.19209951503830777 0.5664862360757493 -0.08690961572507787 -0.1774450077153077 -0.2626275043439395
0.26672386203445814 -0.17847561842299453 -0.24846973177536583 0.2517474398918668 -0.14826010850128502 -0.5649934001991408 0.26194897980804766 0.12476461204544081
-0.24323267267244128 0.19983934136258974 0.2699963303529045 0.4961803609633503 -0.06819639394388066 -0.2296252778046685 -0.01111834463297424 0.4146887547391479
0.019585174637729373 0.2694550422176482 0.47348250007502607 0.596710215360847 -0.010341172038592585 0.10508294844008469 0.04131807633879399 -0.2666593725858212
0.9839331854907937 0.17602100386205535 -0.14750475994133602 -0.18396807982895555 0.6430394075658905 -0.7565896710470277 -0.22494223154937124 0.12662652122990609
-0.16474933733340558 0.6560708385903062 -0.48690177323133743 -0.3217818177356222 0.1011147015173174 -0.047106042997099445 0.0996872805445814 -0.9510750686443113
-0.1708759148881145 0.18597784357645578 -0.2649877343730581 -0.39149062030424064 0.33669966351914915 0.1579174231502622 0.13755567334571844 0.3156113088156031
0.5623100308078688 -0.11916213757273028 -0.12409233416768037 0.11281926182125496 -0.21363336724335563 -0.6295986686325096 0.2617596203479975 -0.2686215323868001
0.3683127872730388 -0.04418115419494544 -0.479694849035165 -0.062093385545934535 -0.26080034363380483 0.20394828123369893 -0.24645660925977356 0.16818675389843366
-0.29999937736758303 0.1328451030482464 0.047896882625047606 0.21333210751516735 -0.11163103258502702 0.036888711268976165 -0.041241345945007966 -0.0259833220047779
-0.03791486480310968 -0.02653202115130439 -0.3173788900124638 -0.10927280504715069 0.125394447797843 -0.23324005668468348 0.14965533814124737 0.30441836284104234
0.07220589798788621 -0.3476295052595787 0.18327623291931655 0.3046071465877789 0.198695406872612 0.08631690427756634 0.08839034342509801 0.43981580871576437
-0.08729529368839503 0.6911509485586347 0.4096017771308325 -0.04659663541684268 -0.15161799526472636 -0.007622168060236181 -0.3568586098923028 -0.1252698008761497
0.0074077479394491245 -0.37342835469665037 0.10698854193526956 0.6691150888553196 -0.10196841485562672 -0.001002772591318218 0.24406037700267924 0.636610205273848
-0.03339336629016721 -0.1084173430953661 0.08663920643735791 0.024942020739382297 0.14083216610090513 0.6368217510496325 0.21138283375359015 0.04164307300377409
0.2805661949722007 0.3373466074051511 0.15095923983681736 0.23046616841524373 -0.022771506548474974 -0.03915676481769933 -0.5385156061675934 -0.09779150951144323
-0.42131927592258067 0.3579755133326438 -0.039527472711732584 0.16714492108957946 0.36484550510442143 0.39567374262682703 -0.14297945168107715 0.20683956513478338
0.24236931487252175 -0.24111210850996712 -0.23052194147589272 0.5265647003603425 -0.13727769728219008 -0.24324883845434714 -0.1047329409873835 -0.2935745264204467
-0.15020773858093084 -0.17318571185101075 -0.2565655885210868 0.14051648606227496 0.27668651836160335 -0.36609688884452507 -0.19089020060415046 0.40304960625901587
0.16672435338726127 -0.394487249777663 -0.37679232840884636 0.2815954308348269 0.1336614671064086 0.4397186011202701 0.01181125178831281 0.3948055082474227
-0.18921716387522122 0.14817310111742912 -0.43893609151770574 -0.44109142729121265 -0.2190294981721898 -0.41053561180614667 -0.5200680421724093 0.06393216891287246
-0.17407203006983085 -0.11995523815034054 0.3638365940092827 0.4242508491403931 0.019673664561086705 -0.20209836229766676 -0.1836036107994865 -0.3018854479867588
-0.5840552713248679 0.4971801748311839 0.43995467001283395 0.01713199896129834 -0.08352061554515189 -0.06791569483892486 0.48485369754599594 -0.0036687006737437986
-0.4417952972631082 0.05131138002808429 0.04912609368532693 -0.028273694808403044 0.24756489948448349 0.3642441969875097 -0.10991245219457249 -0.028649688560997057
-0.5113795855569845 -0.43537239383452997 0.4544366337286029 0.21607075647973253 -0.29572536260469495 -0.6192031381583074 0.19298566451523858 -0.37341455228926956
0.08126779405844863 0.7326074774372332 -0.11240172812256051 -0.23667552132563308 0.33219038847531424 0.22160726969882671 -0.5565159332250517 -0.04809419203584745
0.32006089134818444
00000000: 0685 1aae de75 a3bf d870 a352 661c c23f
00000010: c92f 2113 e1f0 d1bf 3f29 f25b 25e0 d83f
00000020: 2871 1c5b 072e c13f d6ec abd1 5d76 c3bf
00000030: 1bb8 5f54 470a d13f 4dad dda2 81d0 b9bf
00000040: 8b29 a6b2 4711 ec3f c96f 4180 5ecb bbbf
00000050: 73f6 2b32 dd90 923f 77c4 30de 2d16 9abf
00000060: abf6 0e1c e5b0 703f 0851 b92d 6c88 c63f
00000070: 20f9 cccc fb55 90bf d008 304d bd8f cabf
00000080: 287b 79ec 8238 b5bf 82c7 7232 55af dbbf
00000090: 1fa8 19e6 5a3c e33f ff5f 5587 b796 c83f
000000a0: 178b 32be a720 e23f 5b44 3f65 b53f b6bf
000000b0: 34e4 7c9c 84b6 c6bf 05fd 8b97 e3ce d0bf
000000c0: 550d 20f6 0012 d13f 284c 2100 4ad8 c6bf
000000d0: 05b3 022e dbcd cfbf 9ffc 4b4b a11c d03f
000000e0: 443f a8ee 2ffa c2bf f0f4 090a 6d14 e2bf
000000f0: 94c0 5fa7 c5c3 d03f 7cec 6ed8 92f0 bf3f
00000100: 0331 398b 3f22 cfbf e4a1 cde5 5594 c93f
00000110: 98f7 39b0 9e47 d13f fa52 d045 6bc1 df3f
00000120: 88b0 b1a1 5175 b1bf 7dc3 4071 5c64 cdbf
00000130: c59b acf4 36c5 86bf 26e9 e7b3 428a da3f
00000140: 06d4 38d2 220e 943f 574b 845c c03e d13f
00000150: 493c 438b 894d de3f 1e3f 8505 4018 e33f
00000160: e11d aa9d c02d 85bf e7db ea52 b7e6 ba3f
00000170: 4aae 3795 a427 a53f 0a64 1b79 f210 d1bf
00000180: d739 a472 617c ef3f 2991 7f33 db87 c63f
00000190: 3be7 f99b 6fe1 c2bf afc7 2f1b 448c c7bf
000001a0: 621c 3161 c793 e43f a06d b48a fb35 e8bf
000001b0: 2135 ff33 e8ca ccbf 9a8d be3f 4c35 c03f
000001c0: 2c3c f19b 8116 c5bf 6059 7345 88fe e43f
000001d0: f426 190e 6629 dfbf b4cd e7c3 1298 d4bf
000001e0: d963 2930 a7e2 b93f 74a7 3b84 481e a8bf
000001f0: ae22 c409 1b85 b93f e3c8 7bfb 346f eebf
00000200: 082c 0f11 43df c5bf 7582 f839 1fce c73f
00000210: 824c 3e1d 8ff5 d0bf 1a70 b9ac 2e0e d9bf
00000220: 8ee4 d8be 7c8c d53f 6e11 f35b a336 c43f
00000230: 5a16 339f 6c9b c13f e316 67c6 f932 d43f
00000240: a40a 119b 71fe e13f 3edc cbeb 6881 bebf
00000250: c63a efe4 83c4 bfbf 2493 e11f b9e1 bc3f
00000260: 4681 d292 5658 cbbf 7537 6c1b ac25 e4bf
00000270: b0b6 336c abc0 d03f d292 265e 1831 d1bf
00000280: d952 02cc 6f92 d73f 57d0 bb88 e99e a6bf
00000290: ae9a 2a06 52b3 debf 6a77 6f48 b4ca afbf
000002a0: 1356 acec f3b0 d0bf ddb0 fc2e fa1a ca3f
000002b0: 01af 53e2 e38b cfbf 399d cebf 2487 c53f
000002c0: ef4d a796 3033 d3bf ed52 837e 1101 c13f
000002d0: 99ec e8b0 f085 a83f 7271 7b6c 774e cb3f
000002e0: f6e0 2bf2 d993 bcbf 5cd2 fbc0 13e3 a23f
000002f0: 7356 27f0 951d a5bf 5701 0239 5f9b 9abf
00000300: f025 b9c0 9369 a3bf 2408 91cc 352b 9bbf
00000310: 06d6 428c ef4f d4bf cb0a 0574 4df9 bbbf
00000320: b723 32de ec0c c03f aff8 c967 cfda cdbf
00000330: 7a86 7ef7 e727 c33f 9b10 2d28 977b d33f
00000340: 46b0 6ff2 157c b23f 32bb 0dd3 8f3f d6bf
00000350: b2e2 4279 9875 c73f 9c3b 2ef9 ae7e d33f
00000360: 640f 31e1 d96e c93f e9cf f658 dd18 b63f
00000370: 5902 4be2 bfa0 b63f 07ac ac34 f125 dc3f
00000380: de82 7cff fb58 b6bf 3014 1598 e81d e63f
00000390: 1944 4a5f ea36 da3f 721d 70a2 83db a7bf
000003a0: 9ad3 92ed 3768 c3bf f67a b128 6c38 7fbf
000003b0: 4024 b27e c5d6 d6bf 6041 f840 d708 c0bf
000003c0: a3ed 3032 9657 7e3f 908e b40a 40e6 d7bf
000003d0: 0ba1 a8e0 9963 bb3f 7399 fc0b 6469 e53f
000003e0: 0aa6 071f 9a1a babf 4bd8 0adf ee6d 50bf
000003f0: 88eb bcd4 5e3d cf3f ca6e 7e5d 1c5f e43f
00000400: 713e 3d70 ef18 a1bf 60ef e92e 3dc1 bbbf
00000410: 0929 33ae fc2d b63f 53b9 7cad 668a 993f
00000420: c169 d0d5 c906 c23f cf77 4402 d860 e43f
00000430: 2128 f4ba 970e cb3f ebf2 4fa9 3d52 a53f
00000440: 6433 f1e9 cbf4 d13f ee2f 8e39 1697 d53f
00000450: 4067 10e3 a152 c33f 6dc5 1658 ea7f cd3f
00000460: 2d1a a0ef 6951 97bf 1b4d 9e00 5b0c a4bf
00000470: 8503 9c14 853b e1bf 6199 2d47 dd08 b9bf
00000480: b6c2 d01f e5f6 dabf c314 a220 12e9 d63f
00000490: 0a4c 2ee5 f13c a4bf e8d8 e238 0165 c53f
000004a0: a307 21f6 a059 d73f 0ff6 1df6 b752 d93f
000004b0: c730 7c92 264d c2bf afe9 e207 b879 ca3f
000004c0: 5b38 772c f505 cf3f 1426 5cf6 c2dc cebf
000004d0: 0e1f d333 be81 cdbf 9fd2 e836 9ed9 e03f
000004e0: 780a 26ca 5092 c1bf bec7 f926 c722 cfbf
000004f0: 48ce 5a2c c7cf babf 4687 7acf ecc9 d2bf
00000500: e8d5 67d6 013a c3bf d16c 440c f32a c6bf
00000510: 2a88 fe12 926b d0bf 08d9 17b8 71fc c13f
00000520: 33dc e65e 3bb5 d13f 144b 30a5 216e d7bf
00000530: da60 5c10 176f c8bf e414 6393 90cb d93f
00000540: 465d 9f3e 3957 c53f 9bfa 1e73 473f d9bf
00000550: 7894 f991 5d1d d8bf 03df 88d7 a805 d23f
00000560: 3d8c faa6 d11b c13f 9148 d07c 5924 dc3f
00000570: 56b8 3e61 7f30 883f 8103 8d52 7e44 d93f
00000580: 23cd 579d 4438 c8bf 051f b90f 56f7 c23f
00000590: 2691 8667 8717 dcbf 06c0 b089 d73a dcbf
000005a0: e621 c199 2809 ccbf 833f a328 3746 dabf
000005b0: 6c68 1abc 65a4 e0bf 80a4 a4ce db5d b03f
000005c0: 202d 2606 fe47 c6bf 4cf0 d6f0 62b5 bebf
000005d0: d0e7 1648 1949 d73f 0ced 9608 ed26 db3f
000005e0: 8e84 8747 5525 943f bc62 52f0 5bde c9bf
000005f0: e8d8 e7b7 5280 c7bf b973 8f57 1752 d3bf
00000600: e2b1 2cae 94b0 e2bf d7a5 c7cb ccd1 df3f
00000610: b25d dba1 3728 dc3f bbf9 03fd 0c8b 913f
00000620: 48e7 4e68 9b61 b5bf 65e2 3748 ec62 b1bf
00000630: aa80 93cd d707 df3f eb8c 33ad d20d 6ebf
00000640: ae62 51c8 5f46 dcbf 4a39 4436 7c45 aa3f
00000650: ce75 842b 0e27 a93f c51d 288a c7f3 9cbf
00000660: 7131 76e5 34b0 cf3f b96c 74e4 c64f d73f
00000670: 624e 99f3 3823 bcbf c7e8 a30d 5856 9dbf
00000680: a4e5 79b8 385d e0bf 386f 462c 24dd dbbf
00000690: dafe fd63 7d15 dd3f 45e9 59e0 34a8 cb3f
000006a0: b408 3f12 2aed d2bf 560e 7f19 83d0 e3bf
000006b0: a04a d816 c1b3 c83f 8cb4 7b26 06e6 d7bf
000006c0: 37f8 b255 f7cd b43f 35bc 8c3c 8571 e73f
000006d0: 35df 4c12 5cc6 bcbf 78bd ed2b 624b cebf
000006e0: 3602 a379 9b42 d53f a8c6 f483 a05d cc3f
000006f0: cdf1 9c80 face e1bf f5cf d74b cd9f a8bf
00000700: 816b 44ad e07b d43f

weight f8 [15, 45]
-0.032399130831381406 -0.11394151060983047 0.02684614335312076 -0.34162260439728154 0.11672837988453753 -0.04559746745457934 0.04724256199222044 -0.13964108113550627
0.24040780131649667 -0.1289240193603671 0.18862853978528354 0.345975540975357 0.13236538726796498 -0.01659654794223625 0.13712180458409384 -0.3738096676593524
-0.2442204986219142 0.03369528333453073 -0.09189544928265926 0.17228807984685657 0.12673090361492495 0.1613816069345016 0.1439696164826255 -0.1788536467999813
-0.15021008722232823 0.36657178122594647 0.28635268244922646 0.2864575634924741 -0.4826456117995821 0.3371269713274733 0.1737236960590696 0.06695386569043416
-0.2860807080892753 0.08876578250525782 0.16190419586921134 0.034119110292675794 -0.2722017057611768 0.2637506840368468 -0.5222600884976827 -0.017654109458537407
-0.16370806711448163 0.10759155628659031 -0.11034117116217511 0.36148828408482314 -0.23261889563511032 0.08010843873442677 -0.001255837709603676 -0.006011030414736877
-0.05425446208682543 0.33967899952178077 -0.22150139023188722 0.28876130478100387 0.31202600110123996 0.21987085949967355 0.11563385535240826 0.04091016993623151
0.028720886955466055 0.16011850588591442 -0.039473671194803266 0.319091349759262 0.005656818108473499 -0.05085353416105932 0.16093832066571914 0.15122108310374133
-0.02046058582387388 0.05637202994537573 0.0721925626315398 0.2501827788436835 -0.002057169124780726 -0.156976468290364 0.28446080581577904 0.011495742559597856
0.12749707028137555 -0.01905501644953418 0.28892929464735406 0.04956656814511665 0.37187159549973736 -0.21266348396824103 -0.11848220231457274 -0.10648236589656085
0.32583776587960556 -0.36093304173265706 0.11631550228541591 -0.2527166563081122 -0.026791727415271964 -0.6588899279037185 0.4066720221957714 0.3793738581570085
-0.013254623056126924 0.08359224691032106 -0.0053125343472848014 -0.16307212888681233 -0.013621726182621193 -0.10732152707126696 0.5336395846928823 -0.03211798486809509
-0.03248723682885703 0.5134263414835384 0.11582355397071242 0.034272848249878855 0.12194766645283531 0.17785558495719203 0.04008410211000507 0.26502300331478407
-0.07892772409995123 0.15012541928383935 0.3576395973968144 0.26491560205269343 -0.06260818553199406 0.045778962825371715 0.05281292549022691 -0.48171335081698025
-0.22962117004601937 0.1928762544326401 0.09973633215444042 -0.08919277285176819 0.023744196026387547 0.01543539061299254 -0.02700620451507771 0.1711919720835329
-0.1673145143810633 0.9173035080207297 -0.11664081758669542 -0.15405780567667252 -0.7086120375393006 0.2278584951613127 -0.05979891780520782 -0.056222177675303
-0.005609265459272078 0.1189210455654871 -0.4959973995564649 0.4564869949450748 0.09343089014249209 -0.3144020105009333 0.12733648405942596 0.39450472862446934
0.4762036296141763 -0.14389959024739707 0.10124199827643762 -0.08883376794950429 -0.25113441903594896 0.13264906624997208 -0.19442749738520937 0.11028438215064626
0.043824966425902466 -0.26019696508611984 -0.5187668725788365 -0.17027449397149275 -0.08384406646878965 -0.04382995383141246 -0.10219995084921588 0.09346413103025021
-0.7280131222690973 0.04279383746152287 -0.07607614776102795 -0.6182499400647584 0.2605007908577005 0.26822941707081 -0.2212114020067084 -0.4091434086349408
-0.08367501772063138 -0.1845892311885052 0.03057084169583868 0.269565128042116 -0.5879407648502507 0.0778135789904915 0.06395165023265156 0.08435612957267807
-0.18877143581378714 0.27579261471508043 -0.393870759796109 0.04729385122934815 0.1306563061643718 -0.009819778786834514 -0.0929829110582927 0.035202377801202916
-0.19089132194605843 0.10376090947816301 -0.14537292971014035 0.1257884312415897 -0.028727661890895175 -0.08271061057368291 -0.04503078860512392 -0.08437714288788771
-0.02376143952621418 0.010352581747691157 0.026593988840283075 -0.07275971788884526 0.33545738639529094 -0.037628663757704614 0.3935092943995674 0.3099824661580825
0.0460754542283749 -0.2320390873180187 0.21483753928342283 -0.3919847855953796 -0.30582165436136194 0.14312865785433693 -0.052697090357235826 -0.08870110812649151
0.1280136866294443 0.16220461515630674 0.1391880623319604 -0.05939183140486866 0.1281922058624359 0.31840013680136964 0.12460683537313474 0.24910761531236797
-0.8225338134377158 0.25341151925750294 0.11796894516580253 -0.11188633649893312 -0.04972858386235855 0.3340191334754259 0.05461489599743608 0.16612862024698452
-0.14336007884011534 0.10476231822378054 -0.3016781912054886 -0.03718241393581664 0.01604657434825011 0.12330569307298253 -0.0211878798358367 0.47038133494395223
-0.33614532257210544 0.2650088331564461 0.18715221145300256 -0.015892660088942936 0.34492684584211397 -0.18913352229224623 -0.058656920814201714 0.014866111897256933
-0.08742240363543359 -0.012821378135585053 0.012338968510680028 0.029503741696430635 -0.2692767518634512 -0.3615402671742298 -0.0901006119775279 -0.07433254374037306
0.12303739650252418 -0.1705112068811401 -0.5070822537614809 0.033112065106549154 -0.0825425619437822 -0.20644898345157708 0.2032741417957752 0.001745434241498061
0.044807892193267876 -0.2255025447170387 -0.07306015354485422 -0.1923929182312905 0.056834434642224305 -0.010166710310046921 -0.3187676631457357 0.13293480233041577
00000000: 28e1 ad6e 9e96 a0bf ffde b955 452b bdbf
00000010: 65ca e62e 8e7d 9b3f 9e7b 5d0e 25dd d5bf
00000020: cf80 1e3e e9e1 bd3f 3be5 fe1e 8d58 a7bf
00000030: f1bf 7855 2d30 a83f bad9 534a c2df c1bf
00000040: 75c6 2dce aec5 ce3f bf2b 690f 9580 c0bf
00000050: de29 bce0 fa24 c83f ce1f 6d98 7624 d63f
00000060: b419 b858 59f1 c03f f0b8 8d7a affe 90bf
00000070: 78eb 2011 358d c13f 92a2 6162 7fec d7bf
00000080: 0c06 4c07 9e42 cfbf fc0b e717 8240 a13f
00000090: c9fb 51cd 7586 b7bf cc68 372a 890d c63f
000000a0: b295 35df b738 c03f 8ad4 fa09 27a8 c43f
000000b0: 8b8c 34ad 986d c23f 515c e321 ade4 c6bf
000000c0: 3919 138a 153a c3bf 3e1f 007d e975 d73f
000000d0: 7971 8f33 9a53 d23f da16 b91a 5255 d23f
000000e0: ec2c 8f6b aae3 debf a3dd 1c01 7d93 d53f
000000f0: d995 8efc 933c c63f 582f 7b77 e323 b13f
00000100: 30a3 5075 254f d2bf 9a2a ddb4 5ab9 b63f
00000110: e0f5 2bd5 46b9 c43f 7256 c05d 0f78 a13f
00000120: 0538 0ab4 c06b d1bf c318 8f8c 4ae1 d03f
00000130: cc50 03ca 5ab6 e0bf c1c4 0e3b eb13 92bf
00000140: 9d8d 2ccd 62f4 c4bf 3e9f 93c7 1e8b bb3f
00000150: bf3b 8ba9 513f bcbf a603 82c1 9f22 d73f
00000160: 999b 97ba 74c6 cdbf ca7b 7f94 fc81 b43f
00000170: bbc3 1379 5d93 54bf b8b1 beb0 059f 78bf
00000180: b764 a6a8 3dc7 abbf 0b61 85fc 4cbd d53f
00000190: 3141 8855 285a ccbf ed9e 18b2 107b d23f
000001a0: a9d0 8ee7 3bf8 d33f 447f 7273 ba24 cc3f
000001b0: 7b8a 0c2b 2e9a bd3f 7d5b e683 2df2 a43f
000001c0: c44c be18 0269 9d3f 66d7 2161 c37e c43f
000001d0: af62 ab9d e435 a4bf 04c3 e91f fe6b d43f
000001e0: edaf 678c 9a2b 773f 712d 3774 7909 aabf
000001f0: b159 f77b a099 c43f e2b8 3263 365b c33f
00000200: 1dd5 e1ab 9ef3 94bf 138e 0c72 cbdc ac3f
00000210: 3d53 8437 367b b23f 41fc 49a1 fe02 d03f
00000220: 22f1 9f43 32da 60bf 9e3b c60e ce17 c4bf
00000230: b63e 7e18 9b34 d23f 0794 b172 148b 873f
00000240: 87df 98f1 d251 c03f 34e7 e681 2883 93bf
00000250: 9078 d74b d17d d23f b503 510a ca60 a93f
00000260: c4e4 3e85 becc d73f ce37 599a 8e38 cbbf
00000270: 9861 1980 d954 bebf 045e 20a7 6d42 bbbf
00000280: 8a4b 10a5 86da d43f 7867 92e6 8619 d7bf
00000290: b36b 554e dac6 bd3f 2fdc 7f7b 822c d0bf
000002a0: ae2f 3564 4a6f 9bbf 1f54 8054 a015 e5bf
000002b0: 89db e116 ea06 da3f ec77 6f4a a947 d83f
000002c0: cdfe 5f64 3d25 8bbf 07d2 ad2e 4d66 b53f
000002d0: cbc8 7c94 98c2 75bf 4c9e 3a2a 8cdf c4bf
000002e0: de61 c123 b5e5 8bbf e888 ed70 6c79 bbbf
000002f0: 266c 8352 9313 e13f 8968 3ebd c471 a0bf
00000300: 3248 6fc7 2aa2 a0bf 8974 3214 fd6d e03f
00000310: b023 69c8 9ca6 bd3f ff7c bff4 358c a13f
00000320: aa0a 3d57 f637 bf3f ddaa 66c8 f8c3 c63f
00000330: 78d2 4d47 e785 a43f 3d2e fb0a 23f6 d03f
00000340: dbca c179 9b34 b4bf 13aa 0f4b 4f37 c33f
00000350: 2ebb a431 91e3 d63f d30d c191 60f4 d03f
00000360: 7562 520d 1707 b0bf fb0a 5c18 5770 a73f
00000370: 76be 92b7 4b0a ab3f 658d f33b 64d4 debf
00000380: 7190 e8fb 3964 cdbf f748 7b4a 2bb0 c83f
00000390: 5e89 d3fc 5188 b93f 481a 706a 56d5 b6bf
000003a0: bed2 9c05 6650 983f a1ff 110f 979c 8f3f
000003b0: d8b2 b9b4 83a7 9bbf d9df b758 9ee9 c53f
000003c0: 41d6 b4df 8f6a c5bf 3e90 eee2 8c5a ed3f
000003d0: f8de e930 2cdc bdbf 1594 898a 2ab8 c3bf
000003e0: 2410 d926 f3ac e6bf cfb3 6a98 772a cd3f
000003f0: 9b7e 9eb8 f69d aebf 8dc4 d93c 27c9 acbf
00000400: ed07 3cbb bdf9 76bf 5888 8211 9c71 be3f
00000410: 79bf 7fe0 6bbe dfbf 91a8 953a 1537 dd3f
00000420: d221 9939 16eb b73f 687b 399c 291f d4bf
00000430: dfb9 4fd9 8f4c c03f 0bce e3c2 903f d93f
00000440: 087b dbc9 1e7a de3f 849b 0241 4d6b c2bf
00000450: 8e38 94df feea b93f 8aa2 1f50 cfbd b6bf
00000460: f732 2a19 9612 d0bf 94bc b104 a5fa c03f
00000470: 7836 5b0f 00e3 c8bf 3eba 98e6 983b bc3f
00000480: 5b58 18db 3970 a63f bd0d e42b 11a7 d0bf
00000490: 7b2d fffb bc99 e0bf 54aa 79fb 8dcb c5bf
000004a0: 4375 7203 ce76 b5bf e60b 9534 e170 a6bf
000004b0: 3ad9 8ca6 c629 babf 61bd 1fea 43ed b73f
000004c0: 448c e62c e24b e7bf 7f33 bce8 12e9 a53f
000004d0: c4a7 a3f6 b979 b3bf 8ba0 2a19 b4c8 e3bf
000004e0: ae38 5482 0bac d03f c53b 89b7 ab2a d13f
000004f0: e880 8fbc a750 ccbf 9881 ddd5 672f dabf
00000500: 7232 9ad8 b96b b5bf 33ff 92b3 9ea0 c7bf
00000510: 60e5 2d75 f64d 9f3f e74e 4518 8e40 d13f
00000520: b38b a026 69d0 e2bf 63e9 f238 97eb b33f
00000530: 9e43 46a6 225f b03f a456 bb01 5d98 b53f
00000540: 6a9d 9e93 a929 c8bf 8c7e 2b11 96a6 d13f
00000550: 8b32 0bb4 2d35 d9bf 00f4 a950 e636 a83f
00000560: 72fe fe88 58b9 c03f 4f80 f265 641c 84bf
00000570: f00d 1562 bacd b7bf 9c92 cbca 0b06 a23f
00000580: 919c 6c78 206f c8bf 6bda cf30 1390 ba3f
00000590: cb14 6a85 949b c2bf 35ea 32d7 d519 c03f
000005a0: 476d 3fc1 c86a 9dbf 8937 72c7 852c b5bf
000005b0: 7583 be88 460e a7bf e3bf 3b8d bd99 b5bf
000005c0: 3013 af36 eb54 98bf 3fb4 4800 bc33 853f
000005d0: 7f58 5b61 743b 9b3f 9f7c cc80 61a0 b2bf
000005e0: 033e f141 2278 d53f 068a 7670 1044 a3bf
000005f0: 3a90 879b 412f d93f 7fdf 9eb2 c0d6 d33f
00000600: 7151 1eb2 3397 a73f 9858 b6f1 74b3 cdbf
00000610: 0b74 96e6 cb7f cb3f bd59 aa5a 4716 d9bf
00000620: a900 f9fc 9492 d3bf 7868 4d34 0a52 c23f
00000630: 947c 5bef 1cfb aabf 94b1 85a6 1db5 b6bf
00000640: 06c6 c1a2 c062 c03f 2ea5 adee 1ec3 c43f
00000650: f2cc da17 ead0 c13f 3a21 112b 9b68 aebf
00000660: 6200 e429 9a68 c03f cda4 a6f7 aa60 d43f
00000670: a621 c9ca 3be6 bf3f eabf 7922 c2e2 cf3f
00000680: 8436 926e 3252 eabf 6600 e9f2 e437 d03f
00000690: ec44 6e79 3633 be3f d2d5 213c 95a4 bcbf
000006a0: 8efe ba62 0676 a9bf 40f9 a0c9 9160 d53f
000006b0: 71ea 5dd0 7bf6 ab3f b1f8 71df b343 c53f
000006c0: a3cb 1581 9f59 c2bf f6d0 9f0a b4d1 ba3f
000006d0: 6f37 490b b24e d3bf eb6b aec7 9209 a3bf
000006e0: 0a7e 2760 836e 903f 0eb9 283f f690 bf3f
000006f0: 41b1 dd8b 46b2 95bf 0feb 8e50 ba1a de3f
00000700: d5a2 c9ab 6783 d5bf 32b7 e39b e7f5 d03f
00000710: d548 c889 9af4 c73f 5756 505d 2a46 90bf
00000720: 44e0 990c 4813 d63f 2c47 69fa 8635 c8bf
00000730: 7180 29a9 4708 aebf 36d3 56c3 1f72 8e3f
00000740: 3d49 8d8c 5061 b6bf 8982 413e 1842 8abf
00000750: 6e09 c251 2c45 893f 1880 c896 3a36 9e3f
00000760: 81e7 b48e d43b d1bf acd3 ecc9 7923 d7bf
00000770: 8506 cb6d d510 b7bf 53b5 6424 7507 b3bf
00000780: becf 29fa 607f bf3f 61f7 93ac 4fd3 c5bf
00000790: 7933 0990 043a e0bf 4ca7 7889 10f4 a03f
000007a0: fa9b 1364 8221 b5bf a2c5 1b98 eb6c cabf
000007b0: 3452 9117 e304 ca3f 7de9 02bf e198 5c3f
000007c0: 5243 255f 0ff1 a63f 11bb 5c73 44dd ccbf
000007d0: cbaa 1dfa 11b4 b2bf d287 e4c5 54a0 c8bf
000007e0: c666 262c 6719 ad3f 8c03 51c2 48d2 84bf
000007f0: 0cee 0e7c b066 d4bf b832 41f2 0104 c13f

bias f8 [15]
-0.13241125659759692 -0.015667227905710745 0.03535094869733354 -0.13352936510811245 -0.11422259341963031 0.051828253579371014 0.10568670194817195 0.10071837897172597
0.0636090038600637 0.14367836734962938 0.12584073851828262 -0.03943175451322103 0.12915582946312731 -0.11007434881318512 0.0019268917792430523
00000000: a5be 5a20 daf2 c0bf e361 e5dd 110b 90bf
00000010: 1b43 1301 8519 a23f 51f5 1880 7d17 c1bf
00000020: 2c9d 331f b13d bdbf dcae 439c 3b89 aa3f
00000030: be4f 7da0 480e bb3f 9829 caff adc8 b93f
00000040: 7563 4fff ad48 b03f 0165 7480 0d64 c23f
00000050: ad62 38a0 8c1b c03f 63ca 1d20 6630 a4bf
00000060: 9ce1 d09f 2d88 c03f e8f7 4720 d52d bcbf
00000070: 2199 2f4b f891 5f3f

weight f8 [15]
0.9028431135240277 0.7972512421151627 1.1525273654651063 1.0159711775589872 0.9695822849518594 0.663005207100754 0.9459658935924921 0.900107664759168
1.1270891715331925 1.110438665701399 1.20229901131726 1.1941174942287758 1.130101675063409 0.9682377686851807 0.9864520167793516
00000000: fb24 c03d 17e4 ec3f 608f 7209 1583 e93f
00000010: c8ae e688 c070 f23f 1bb6 54fe 6a41 f03f
00000020: 28c6 946d d106 ef3f 0c6a 32b2 5637 e53f
00000030: b38e 0344 5a45 ee3f 39a0 e096 aecd ec3f
00000040: 9f92 b6a7 8e08 f23f 136c 9655 5bc4 f13f
00000050: a8ee 59e3 9d3c f33f 79b4 14f2 1a1b f33f
00000060: a6d5 787e e514 f23f d927 e8c5 cdfb ee3f
00000070: 747f e4d1 0391 ef3f

bias f8 [15]
0.465580845486219 -0.06483643588821957 0.07144813732025332 0.10357154548480006 0.23088766101635963 -0.38627140083942624 -0.6643028092328267 0.24141370096053966
0.11102409033801315 0.10886233047412296 -0.4621080870320193 -0.12940672717171828 0.4446807341541569 0.05324824757100171 -0.27866573901171254
00000000: 4178 409a 13cc dd3f 8ba6 bae3 1e99 b0bf
00000010: 0e8e 26d5 6c4a b23f bf44 a730 aa83 ba3f
00000020: d5be 8e14 ba8d cd3f 7e11 7fae abb8 d8bf
00000030: 2878 09f7 f741 e5bf 9646 37e7 a4e6 ce3f
00000040: 05e6 1125 136c bc3f 7f17 27d5 66de bb3f
00000050: db41 41cc 2d93 ddbf cfde 8a4e 6690 c0bf
00000060: ae9d 962e a675 dc3f e705 c6b3 5a43 ab3f
00000070: e28a e4d2 a8d5 d1bf

running_mean f8 [15]
-1.9809340710098011 -0.3952565793938459 -2.5969683515861477 2.6050246733312252 -0.9868998718516437 7.9493361573441605 -3.570324866775318 5.080676155294292
1.1697420403895078 1.9196957248255349 2.211771044419319 -4.012240142911845 -2.223195923913067 -2.5798570962237175 0.4975077822786781
00000000: cc4e a8ec e7b1 ffbf 15a0 8140 e24b d9bf
00000010: ed79 d657 97c6 04c0 77d8 092d 17d7 0440
00000020: daf0 400a af94 efbf 5dd0 12c7 1ecc 1f40
00000030: 152a d77b 0690 0cc0 5839 22c5 9c52 1440
00000040: ffaa 036e 43b7 f23f d558 46dd 12b7 fe3f
00000050: 792a 7004 b5b1 0140 db04 16ae 880c 10c0
00000060: ff74 cef1 1ac9 01c0 3c13 051e 8ca3 04c0
00000070: 421d 99e1 2ad7 df3f

running_var f8 [15]
78.97697827743762 32.245563087320924 66.12125599243242 38.215054025668195 90.64257351073697 47.26531629870312 24.798912985270025 66.30136456171259
97.76678615445549 73.20250379657993 77.55018157537485 76.93762351839855 83.53455721151066 101.54563904691913 81.84263468799644
00000000: cf9f e5cf 86be 5340 f792 7a9c 6e1f 4040
00000010: 3e7c 7ea8 c287 5040 1c8f ebe3 861b 4340
00000020: 0979 a5ec 1fa9 5640 4903 6de2 f5a1 4740
00000030: a115 b88f 85cc 3840 a72e 968e 4993 5040
00000040: 5d1a 3c06 1371 5840 1be8 7bd2 f54c 5240
00000050: 3146 c82c 3663 5340 ddde 1206 023c 5340
00000060: df51 732f 36e2 5440 0d7c 09c0 eb62 5940
00000070: dfda 0aba ed75 5440

bias f8 [9]
5.586748087716904e-10 -1.5601049312079441e-09 -2.2538907563477995e-09 5.323342263158162e-10 -1.6033546288897485e-09 -1.4010409425914266e-09 6.035585617800591e-10 4.170527090202339e-10
-1.4281360794218757e-09
00000000: 50b8 8ed4 2732 033e 3280 28ff 69cd 1abe
00000010: 20e5 40b2 5b5c 23be 3d31 941c 764a 023e
00000020: 631b cad3 a08b 1bbe 6417 e3dd d711 18be
00000030: 4639 950e f5bc 043e 3bb2 c86c dea8 fc3d
00000040: e91a 5e47 0289 18be

weight f8 [9, 15]
-0.12297054227964113 -0.0052365851822725115 -0.6416604033936284 0.3721643171865166 0.11843898041519328 -0.041941731021720864 0.41093431578273015 -0.19437655574884546
0.10932092213878535 0.03511434397534738 -0.33429372487997144 -0.11946731655733603 1.3866127804786224 0.0691442775030406 -0.08017100829568165 -0.3098182472075615
0.6091608253164145 0.025616663452148112 0.09351929080261617 -0.40417938576899265 -0.10226900036956699 0.2539465583931514 -0.2829134354842954 -0.037157552825463284
0.35595961616129457 1.2918118218296801 -0.6274071365202709 -0.4158792951517193 -0.09995827754039377 0.2635885443297338 0.21535765739642038 0.01261392003588025
0.3616149426407601 0.3037954395876453 0.09275185606295233 -0.16919036425130932 -0.6257660952231436 0.6451836064007739 0.3306781449337783 0.1134422133063527
0.09278375443156954 -0.9821191775252025 0.23269539047002646 -0.1844990598940909 -0.17105548890504327 -0.04673779456241645 -0.38555846908506125 0.3545669507863744
-0.34790549737516635 -0.4213283376232969 0.2601654894463648 0.25419572129793805 -0.3127979268884364 0.6166537757435432 -0.7321254029413315 -0.22973031687330708
0.39447181949597593 -0.03772223411959238 -0.60840334973632 0.5415551554691903 0.4957342723418912 0.27614663918573873 -0.022278886228251797 -0.25129516657739054
0.48453753976637115 -0.3893458560795681 -0.12448827910082456 -0.5963946680314604 -0.4201808338249667 0.5026171769323418 -0.1488459476262438 0.08219974671323826
0.15896429374199852 0.7585549504597553 -0.3166126763751336 -0.25458813673720226 -0.41851251109433774 -0.8508137686325605 0.09090168735869303 -0.1104527183093273
0.6076861957993923 -0.20680367356918772 -0.2540049283667077 -0.12811922693406835 0.49186436804191147 -0.3644280716635626 0.24765006640932416 0.4077411017622314
-0.20448670684262948 -0.25087746438411784 -0.8221874637941637 -0.36723507336012184 -0.0786998500822127 0.45186530672205494 -0.28491638609281 0.2588915559143461
0.34147552491862615 0.5013323961357538 0.3351586914555857 0.00636146867874948 0.5385190170455428 -0.18568473791752538 -0.25188020147222795 -0.3107708622121925
0.4273612593452964 -0.0094389920297431 -0.06444207255975835 0.3069436859727362 -0.7110115465812251 0.31396098830107944 -0.22164253203782866 0.47933021831614553
-0.34742746134283875 0.046122578276806395 -0.5034100870293687 0.2502317863586024 -0.21334498642021754 0.00917341446345082 0.028676336379555058 0.09963255975717812
1.1146634331668284 -0.10230315278588499 0.25043106776377055 -0.33167367243309864 0.6920463294063808 0.19313898532911966 0.09989999840364655 -0.21612039665570848
-0.4255712365370329 0.4638265827023825 0.16874988175471242 0.14416181049858195 0.12022222024195597 0.5581998075552351 -0.274686262096077
00000000: ba62 7659 ff7a bfbf 58f8 9b21 f572 75bf
00000010: 76d7 f665 7b88 e4bf fd78 c348 8ad1 d73f
00000020: 5f70 745b 0452 be3f f5de 26f6 6279 a5bf
00000030: 55d2 c571 bf4c da3f e773 06bb 54e1 c8bf
00000040: 0bca 5ab9 74fc bb3f bc3d fddd 81fa a13f
00000050: 1a85 e781 1165 d5bf bafc 8df9 6895 bebf
00000060: e3f0 05e2 902f f63f 7dc3 947a 70b3 b13f
00000070: cda0 b752 1686 b4bf 2979 dde9 0fd4 d3bf
00000080: b8a0 d7d7 3e7e e33f 69d8 092f 413b 9a3f
00000090: 74d7 8a57 e1f0 b73f 9d17 e636 13de d9bf
000000a0: f05d fb1b 4d2e babf e2bd ce10 a940 d03f
000000b0: 6e42 40f4 401b d2bf 7f98 5e94 5006 a3bf
000000c0: 9c01 87d7 0ac8 d63f b583 75df 42ab f43f
000000d0: d435 9421 b813 e4bf 8ea6 f030 c49d dabf
000000e0: a01f 009d dd96 b9bf e2c5 5f7c a2de d03f
000000f0: 6efb baf7 d690 cb3f c44b 3ab0 53d5 893f
00000100: 4ac4 1800 b324 d73f fefb 6c6d 6271 d33f
00000110: a005 6fec 95be b73f 59fc a0a4 07a8 c5bf
00000120: 90ba 3d9e 4606 e4bf 5c03 2d17 58a5 e43f
00000130: 8b85 7faa d429 d53f e5fa 2284 8c0a bd3f
00000140: 4339 e216 adc0 b73f 60d8 8732 856d efbf
00000150: dad5 ff69 f6c8 cd3f 95a5 314a aa9d c7bf
00000160: 7700 5371 25e5 c5bf 31f7 4326 04ee a7bf
00000170: 73a2 da6d fdac d8bf c3ac 7794 39b1 d63f
00000180: 09cc 546b 1544 d6bf 3a16 be21 0bf7 dabf
00000190: fd13 2e27 8da6 d03f 617f 7021 be44 d03f
000001a0: 0784 8f98 e104 d4bf fdbf f8b2 a0bb e33f
000001b0: de85 c640 926d e7bf de6e ef92 cd67 cdbf
000001c0: fb71 fbba 063f d93f 5b5c c023 5450 a3bf
000001d0: 799e 3c4d 0a78 e3bf 410d 377a 6b54 e13f
000001e0: f5be cd3d 1cba df3f effe 0cf4 62ac d13f
000001f0: 1e72 f7be 46d0 96bf dbef 8552 3815 d0bf
00000200: 78c6 bebd a902 df3f b778 ace1 0aeb d8bf
00000210: 3d2e 79bf 76de bfbf 5786 5645 aa15 e3bf
00000220: a1ca eb26 3ee4 dabf d2a1 2a9e 7015 e03f
00000230: 4032 994e 620d c3bf 9072 dfe7 0a0b b53f
00000240: 7543 6d25 f158 c43f 8e31 0e08 1546 e83f
00000250: 4cef a1d0 6143 d4bf 5418 4f0a 2c4b d0bf
00000260: 387d 07b3 e8c8 dabf 6e6d e8cb dd39 ebbf
00000270: 7457 5b3e 5545 b73f 8d92 e41c a146 bcbf
00000280: a30c 2652 2a72 e33f 9c0e 56f3 8a78 cabf
00000290: b9e6 16e3 9d41 d0bf 12d7 d5f8 3566 c0bf
000002a0: a4b1 b3af b47a df3f a484 621e ca52 d7bf
000002b0: 7746 0a54 ffb2 cf3f 5371 5322 6e18 da3f
000002c0: f08b 2dd3 9e2c cabf 0053 355a 600e d0bf
000002d0: f2aa 8515 5c4f eabf 16a8 8189 c780 d7bf
000002e0: f09e 4d62 ac25 b4bf f65d a476 5ceb dc3f
000002f0: 7e3d 17f0 113c d2bf 0436 77e3 ad91 d03f
00000300: 553c fa28 bcda d53f 1582 ba3c ea0a e03f
00000310: bb66 b170 3d73 d53f 3d49 e0be 7b0e 7a3f
00000320: 7182 cf3b 8c3b e13f dc6d 5c7a 84c4 c7bf
00000330: ad51 f522 ce1e d0bf d811 7078 abe3 d3bf
00000340: 7bc9 1d0a e359 db3f 0e80 9910 c054 83bf
00000350: 6370 2192 467f b0bf b5dc 3d21 f7a4 d33f
00000360: bba1 7449 9bc0 e6bf 3845 3ed4 ef17 d43f
00000370: 53a7 4051 c85e ccbf aec0 e9a6 58ad de3f
00000380: 78c9 0c64 403c d6bf fab6 9cea 609d a73f
00000390: 9c90 8878 ef1b e0bf 5d1c b52e cc03 d03f
000003a0: fa5e b875 e34e cbbf 1ec8 e7d8 82c9 823f
000003b0: ca58 ad5b 545d 9d3f c11a c6f9 8481 b93f
000003c0: 4efa f752 a9d5 f13f a939 7e17 8a30 babf
000003d0: 02a8 7c07 1007 d03f 0cd7 0236 243a d5bf
000003e0: 80c0 0358 3e25 e63f d81c c93c c7b8 c83f
000003f0: fc9c 03da 0b93 b93f a441 d149 d5a9 cbbf
00000400: 9ade c223 8f3c dbbf 1138 eeb0 55af dd3f
00000410: d190 ab9b 9899 c53f 2e37 b6ea e473 c23f
00000420: ea13 3128 e2c6 be3f cfa9 c2d7 c5dc e13f
00000430: 9b3d 17b0 7594 d1bf

weight f8 [9]
1.1551708047356388 1.062091754532526 0.9282810036815545 1.054272047340381 0.8878529621813288 1.113312167403417 0.8498806722728718 0.9718773284473501
0.8356486929217048
00000000: 1b23 ba61 947b f23f 6818 71ec 53fe f03f
00000010: 3eee 095d 7ab4 ed3f 569f c65d 4cde f03f
00000020: 8f37 879d 4a69 ec3f ecc8 536b 20d0 f13f
00000030: 6843 9df3 3832 eb3f 8ef7 ac7b 9e19 ef3f
00000040: 6067 e153 a2bd ea3f

bias f8 [9]
0.09864493412971025 -0.12734412834543554 0.020772293280438055 -0.09967540601477061 0.2880542132294916 0.03054222942556107 -0.2896935479363583 -0.16525492998304925
0.2538119704984309
00000000: 63d0 005e cb40 b93f 2167 4af9 cf4c c0bf
00000010: dfa8 3501 5545 953f bd88 0cd1 5384 b9bf
00000020: 5fec 52f0 7a6f d23f 426d 1e52 7646 9f3f
00000030: 71ed 8fce 568a d2bf f0d5 e3d3 1227 c5bf
00000040: e3f0 2790 743e d03f

running_mean f8 [9]
0.49145753514227286 -1.1975360940246988 1.0488777520155972 -0.5930093007371403 0.650644342823122 0.09997295220732676 -1.01416193940941 -0.4439892431387315
0.5435682664934491
00000000: eac3 334e 0a74 df3f c1d9 799b 1b29 f3bf
00000010: 378b a609 34c8 f03f 9f79 1ca4 eef9 e2bf
00000020: 4b16 b815 14d2 e43f d30c 37d0 d397 b93f
00000030: 16c8 a9de 013a f0bf 0fa0 c3db 516a dcbf
00000040: e872 f746 e964 e13f

running_var f8 [9]
7.341997916353394 9.943464572989049 4.7107645226921155 7.208966672430039 15.405945331602455 8.660073630736767 13.467276950149866 2.9023176054725965
12.268232711538321
00000000: e226 a8b3 345e 1d40 5bd8 dbc9 0de3 2340
00000010: 8f7a b0a7 d2d7 1240 f229 005c fbd5 1c40
00000020: 9164 0611 d8cf 2e40 cbee c12b f551 2140
00000030: f822 a6ec 3eef 2a40 f0e0 f04a f237 0740
00000040: 8a8c 47cc 5589 2840
