code/models/IntraGVAE_v1.pt (torch, 30573 bytes, 28 tensors)

bias f8 [4]
0	0x3fcb8f3e3474bba1	0.21530892907455004
1	0x0000000000000000	0.0
2	0xbdbca4251d627beb	-2.6049011764062122e-11
3	0x3dc4b7e5b06b9829	3.768645643170032e-11

weight f8 [4, 5]
0	0x3fad295fa18b3450	0.0569562802025777
1	0xbfc42e5b9dad81bf	-0.1576647300635283
2	0x3fe9234f6941a2cd	0.785560327128303
3	0xbfb9f9a70d149ac3	-0.10146564549777808
4	0x3fdfef7bf4177471	0.49899195515701594
5	0xbfc35465a0000000	-0.1510130912065506
6	0xbfd9e242c0000000	-0.40443485975265503
7	0x3fc1b363e0000000	0.13828705251216888
8	0xbfe69deb20000000	-0.7067771553993225
9	0xbfe8b37e00000000	-0.7719106674194336
10	0x3fd3a1b59e3ca2c1	0.3067449612886258
11	0x3fcc209133255631	0.21974387166362555
12	0x3ff0c5c984a32a3d	1.0482878857752802
13	0xbfccf1c58c2242e1	-0.22612828581306757
14	0xbfdc6d97578b560c	-0.4441889147686602
15	0x3fe87d9aacc57221	0.7653325437964363
16	0x3fd2005a63e6bc87	0.2812715507124683
17	0x3fd7ebe6c4f56f6f	0.37377328142405636
18	0x3fd50945e350dd65	0.32869097899261696
19	0x3fe6deabd5e05bde	0.714681546904895

weight f8 [4]
0	0x3fe8215d3dc23172	0.7540727812025081
1	0x3ff0000000000000	1.0
2	0x3fec5d7efdafb2d6	0.8864130930720318
3	0x3fec986db59ed831	0.893607001044762

bias f8 [4]
0	0x3fecc67d155b0632	0.8992295662976117
1	0x3ff21ffb3d4c8eb5	1.1328079599851837
2	0xbfec32c799d97bb7	-0.8811986927865892
3	0x3fcb009a05990a52	0.21095586083727597

running_mean f8 [4]
0	0x3fe8fedf42802b7e	0.7811123179284178
1	0x0000000000000000	0.0
2	0x3fdb24eb040fcedb	0.42412829777388844
3	0x3ff44717c2761f8f	1.2673566433095151

running_var f8 [4]
0	0x3f8bfca4693c0c0c	0.013665470563415404
1	0x0414d42f86c85c68	5.343298885082889e-289
2	0x3f9731c504348346	0.022650793439541482
3	0x3fa06ee6666174eb	0.03209609985126768

bias f8 [2]
0	0x3fd9a9b40223ea6a	0.4009828587437939
1	0x3fd5cd964b05b19d	0.34067303968802226

weight f8 [2, 4]
0	0x3fe3fc87ce3edd2d	0.6245764759286537
1	0x3ff39d95e48abcaa	1.2259730269832212
2	0xbfd81e6aed46da7a	-0.3768565480380982
3	0xbfe03c59671f6b5b	-0.5073668493381364
4	0x3fc2ae427396749c	0.14594298023158536
5	0x40018ca7243daa8a	2.193678172237303
6	0xbfca1618e1bc5461	-0.20379935285805842
7	0x3fd2fbc092e54f9f	0.296615737393262

weight f8 [2]
0	0x3ffeee1bc9d47b7f	1.933131969831919
1	0x3ffcc2c1a8f6cfe0	1.797547969833424

bias f8 [2]
0	0x3fccab02c0f01c3d	0.22396883412167937
1	0x3fed251235cad431	0.9107752848273148

running_mean f8 [2]
0	0x40044b8cdf7f6ed6	2.536889787746854
1	0x400982f4fc2aafd3	3.1889438343550665

running_var f8 [2]
0	0x3fc9791b49294a56	0.1990083796723236
1	0x3fb42e9f1a22b526	0.07883638752055741

weight f8 [2, 2]
0	0xbfc73a814ef993d0	-0.1814729343051611
1	0x3ff82b560920b954	1.5105800968700196
2	0x3ff49907281dcbc6	1.2873603407904155
3	0x3feb410c775380aa	0.8516905146207325

bias f8 [2]
0	0x3fdeefcde05abc46	0.48338648709881615
1	0x3fed272b7130d91e	0.9110314570196214

bias f8 [2]
0	0xbfc340922df3a3c2	-0.15040805095421034
1	0x3fd55c82fc301f63	0.333771463658641

weight f8 [2, 2]
0	0xc0040605a589ca11	-2.5029404575991596
1	0x3fd449bbd02554f0	0.31700034453144976
2	0xbfeb37d0c86642fc	-0.8505634225894876
3	0xbffd4f001681cf12	-1.8317871932203542

bias f8 [2]
0	0xbffe54bfdd033f46	-1.895690787630842
1	0xbffc738a59d0539c	-1.7782081135130516

weight f8 [2, 2]
0	0xc000e701c4bd40f4	-2.112796341920438
1	0xbff3cfd08bb9d673	-1.2382359941524583
2	0xc00042f62b305e92	-2.032696092046373
3	0xc0069d943711edd1	-2.826942854151391

bias f8 [10]
0	0xbfeb1aeef72c4b6c	-0.84703777576429
1	0x3fb84a28754d3571	0.09488156188782228
2	0xbfe866bcfe36310a	-0.7625412907669056
3	0x3feee0603b781128	0.9648896371368538
4	0x3fe3e461868a4b04	0.6216285350550099
5	0xbfda3323a57cdb56	-0.4093712917414697
6	0x3fe3afd008336414	0.6152115020914857
7	0x3ff1d64324dc16f6	1.1148101272423765
8	0x3f83efba623e43c1	0.009734588740487273
9	0x3fed4e4ea864bc00	0.915808991330664

weight f8 [10, 2]
0	0xbfccf73773aba64a	-0.22629445217107708
1	0xbfdbaca7001c37ae	-0.4324128628803646
2	0x3fe54b29eae707f4	0.6654252613009235
3	0xbfef0b26425e5532	-0.970111016870453
4	0xbfe109ea0c2f546b	-0.5324602354036306
5	0xbfef8f150ec788f8	-0.9862160957966628
6	0x3f87da46a030d482	0.011646796954759123
7	0x3fdcf777c1a5e2a7	0.4526042357534074
8	0xbfb641aea3922a91	-0.08693973058158579
9	0x3fce884414775ff8	0.23853350638705684
10	0xbfe8d8e73dd3b4bd	-0.776477452045263
11	0x3fd336baba0b74e3	0.3002154175608906
12	0x3fec386d1941a5c1	0.8818879597940211
13	0xbfcd929a5fc323c2	-0.23103646922962012
14	0x3fc8867c47542b73	0.19160417063570953
15	0x3fe021e93b9cdc79	0.5041395344077407
16	0x3fd9df1a93134b52	0.4042421757014171
17	0x3fd3786646020669	0.30422360264501563
18	0x3fd67db95ce6e4d1	0.35142358849004746
19	0xbfbd823c1b49aed5	-0.11526847521025314

bias f8 [10]
0	0x0000000000000000	0.0
1	0x0000000000000000	0.0
2	0x0000000000000000	0.0
3	0x0000000000000000	0.0
4	0x0000000000000000	0.0
5	0x0000000000000000	0.0
6	0x0000000000000000	0.0
7	0x0000000000000000	0.0
8	0x0000000000000000	0.0
9	0x0000000000000000	0.0

weight f8 [10, 10]
0	0x3f9e07b6e0000000	0.0293263029307127
1	0xbfd5904940000000	-0.3369315266609192
2	0xbfb0bb02c0000000	-0.06535355746746063
3	0xbfbe0f9c00000000	-0.11742568016052246
4	0x3fd0b9bec0000000	0.2613369822502136
5	0xbfcacbcdc0000000	-0.20934459567070007
6	0x3fde0164a0000000	0.4688350260257721
7	0x3fe0544380000000	0.5102860927581787
8	0xbfb7be7660000000	-0.09274997562170029
9	0xbfd1c00f00000000	-0.2773473262786865
10	0xbfd4e1b8a0000000	-0.3262769281864166
11	0x3fc5483cc0000000	0.1662670075893402
12	0x3fcba1b600000000	0.21587252616882324
13	0xbfd13a23e0000000	-0.26917359232902527
14	0x3fd4a65aa0000000	0.3226534426212311
15	0x3fe0114600000000	0.5021085739135742
16	0xbfb88cb160000000	-0.09589680284261703
17	0x3fc9800320000000	0.19921912252902985
18	0x3fbc3a28e0000000	0.1102624461054802
19	0x3fdd1d2020000000	0.45490267872810364
20	0xbfa3b82de0000000	-0.038514550775289536
21	0xbfdb88f4e0000000	-0.4302341639995575
22	0x3fddc5d3c0000000	0.46519941091537476
23	0x3fdad04260000000	0.41896113753318787
24	0xbfe13b6340000000	-0.5384994745254517
25	0x3fd79f81c0000000	0.3691105246543884
26	0xbfc5b28f40000000	-0.16951170563697815
27	0x3fdc8472a0000000	0.4455839693546295
28	0xbfe0a6e5e0000000	-0.5203732848167419
29	0xbfc8d68e60000000	-0.1940477341413498
30	0x3fe175a1e0000000	0.5456094145774841
31	0xbfe022e1c0000000	-0.5042580366134644
32	0xbfb6ae3920000000	-0.0885959342122078
33	0xbfdeefbf60000000	-0.48338302969932556
34	0x3fd5c8aea0000000	0.3403736650943756
35	0xbfd6a240e0000000	-0.3536531627178192
36	0xbf70a18420000000	-0.0040602837689220905
37	0xbfcd785540000000	-0.2302347719669342
38	0x3fd69ead60000000	0.35343489050865173
39	0x3fdb4f67e0000000	0.4267215430736542
40	0xbfde3004a0000000	-0.47168079018592834
41	0x3fd434afc0000000	0.3157157301902771
42	0xbfd9829160000000	-0.3985942304134369
43	0xbfcf29fbe0000000	-0.2434687465429306
44	0x3f917fdb80000000	0.017089299857616425
45	0x3fc1332100000000	0.13437283039093018
46	0x3fcb280420000000	0.2121586948633194
47	0xbf88857ba0000000	-0.011973348446190357
48	0x3fd42138e0000000	0.3145277202129364
49	0xbfb9b034a0000000	-0.1003449335694313
50	0x3fdb097e40000000	0.4224544167518616
51	0x3fc58e2dc0000000	0.16840144991874695
52	0xbfba0d04c0000000	-0.10176114737987518
53	0xbfd2275f60000000	-0.2836531102657318
54	0xbfe10aa320000000	-0.5325484871864319
55	0x3fd006f2c0000000	0.2504240870475769
56	0xbfddd2e2c0000000	-0.4659964442253113
57	0x3fa21b3b00000000	0.035364001989364624
58	0xbf9a10d600000000	-0.025454849004745483
59	0x3fd9def380000000	0.40423285961151123
60	0x3fbc0e3d40000000	0.10959227383136749
61	0x3fbe632660000000	0.11870040744543076
62	0xbfd59d75a0000000	-0.3377355635166168
63	0x3fc9d3ab20000000	0.20177210867404938
64	0xbfdd50a160000000	-0.4580462872982025
65	0xbfb69e7000000000	-0.08835506439208984
66	0xbfce360ce0000000	-0.23602448403835297
67	0x3fe00bfc40000000	0.5014630556106567
68	0xbfd70b40a0000000	-0.36006179451942444
69	0xbfb1c17160000000	-0.06935795396566391
70	0x3fd86c0600000000	0.3815932273864746
71	0x3fdaa6cf60000000	0.4164312779903412
72	0xbfb0b26e60000000	-0.06522264331579208
73	0xbfd3b18340000000	-0.3077095150947571
74	0xbfcdfda180000000	-0.23430269956588745
75	0x3fa79cdd00000000	0.04611864686012268
76	0xbfdf3d0380000000	-0.48809897899627686
77	0x3fc7417ce0000000	0.18168602883815765
78	0xbfde754ce0000000	-0.47590944170951843
79	0x3fdcd89b40000000	0.4507206082344055
80	0xbfb43332e0000000	-0.07890623062849045
81	0xbfb0675560000000	-0.0640767440199852
82	0xbfcfbf5500000000	-0.24802649021148682
83	0xbfb2be1000000000	-0.0732126235961914
84	0x3fcbe21ea0000000	0.2178381234407425
85	0xbfd5a35aa0000000	-0.3380953371524811
86	0xbfd2251140000000	-0.2835124135017395
87	0xbfd61bb5e0000000	-0.3454413115978241
88	0xbfb0e25b60000000	-0.06595393270254135
89	0xbfb777e460000000	-0.09167315810918808
90	0xbfba5b79c0000000	-0.1029583066701889
91	0x3fb3961e20000000	0.07650936394929886
92	0x3fc03a60a0000000	0.12678153812885284
93	0xbfdc5bb4e0000000	-0.443097323179245
94	0xbfd1e36460000000	-0.2795039117336273
95	0xbf882da440000000	-0.011805804446339607
96	0x3fd89b57e0000000	0.38448140025138855
97	0xbfd3498a20000000	-0.3013634979724884
98	0x3fb9b7ce20000000	0.10046089440584183
99	0xbfb7149880000000	-0.09015801548957825

weight f8 [5, 10]
0	0x3f90dc743832217f	0.016465965204163432
1	0xbfd0bb7e97f6ba17	-0.26144375648701285
2	0x3fb8acab50030e58	0.09638472274223753
3	0x3fd1c378b1c0b153	0.27755563124334975
4	0x3fc6ea987cb3cd49	0.1790342911623191
5	0xbfd003ba987785d5	-0.2502275933203156
6	0x3fcfb09377f2b513	0.2475761733707392
7	0xbfd430dc55eabf6a	-0.3154822196038284
8	0x3fb48d399abc8ad2	0.08027992274996201
9	0xbfc4ffa75c8d012f	-0.16405193347055433
10	0xbfb6055ffc8a1117	-0.08601951518545935
11	0x3f99fd04afa4d6ab	0.025379250736668506
12	0x3f86b5564aa02f0d	0.01108806052436464
13	0xbfd129ffa430d298	-0.26818839105843884
14	0x3fc3833e7333d4f9	0.1524427473556569
15	0xbfc6a2c0e217ddd8	-0.17684184112270773
16	0xbfc1e59f031c9894	-0.13981998111666327
17	0x3fa7cddef23fc8db	0.046492545195990075
18	0xbfd5d75b85bdacab	-0.3412693792403824
19	0xbfc24c4a58080346	-0.14295319841769522
20	0xbff1d15356f6b4ba	-1.1136048695582716
21	0x3fc60827f2fadad2	0.17212390293362617
22	0xbfd6c4716734bbe0	-0.3557399280425084
23	0x3fe1bd70b5c4b8b2	0.5543750333943278
24	0x3fde3ab58020d5d6	0.47233331215406105
25	0xbfe4031b67a65d0c	-0.6253792786036754
26	0xbfeb65595a2c71aa	-0.8561217080310162
27	0x3ff8a9d95e161d51	1.5414670634507568
28	0x3f99eb85a432327c	0.02531250776933057
29	0x3fe1599edb674652	0.542190006754206
30	0xbfe497f7c95b8960	-0.6435507710232677
31	0x3fdb78b7f54c89e5	0.42924307780245236
32	0xbfd03fed33f1e303	-0.2539017684244273
33	0x3fe706723e3ce3c2	0.7195368972380651
34	0x3fcb97aa12cdfa0c	0.21556592863267132
35	0x3fd50578570ad832	0.3284588670752583
36	0xbf3ab99688617fe0	-0.00040779042354266264
37	0xc00172b07503c085	-2.1810006276865033
38	0xbfa1cf8b78ecf3a1	-0.034786566268372406
39	0x3fd34923b8e24c22	0.3013390832431374
40	0xbfe297ef40145bb2	-0.5810467006257254
41	0xbfeaec6fa5b0bc0a	-0.8413618312969231
42	0xbfd0b6dce213e43f	-0.2611610610761694
43	0x3fd267d5499ef3b3	0.2875874728159104
44	0x3fdca64b6e96147e	0.44764982032240386
45	0xbfc813bfdbece147	-0.1881027053693833
46	0x3fe18127a7418aaf	0.5470159785002887
47	0x3ff2685314b359a2	1.1504698570839555
48	0xbf8be7d4d3daa16f	-0.013625776973029883
49	0x3fdf1486794b5c74	0.4856277641787934

bias f8 [5]
0	0xbfc7c2199e255a56	-0.18561096403091665
1	0x3f8dc816923b8992	0.014541794145263496
2	0x3fd9f1905d06ca63	0.405368891569344
3	0x3fbf08237700ff9c	0.12121793418282184
4	0x3fe369c3a2276d4d	0.6066606680937326

weight f8 [5, 5]
0	0xbfbec7ec614017fb	-0.12023808836246978
1	0x3f90bee431f1c809	0.016353192852371055
2	0xc00134804ee6451f	-2.1506353534720257
3	0x3fd4133cc64478ee	0.31367415773446694
4	0x3ff5f999863da6aa	1.3734374278814507
5	0x3fbf0559263f935f	0.1211753576640837
6	0xbf9720e41da1b843	-0.022586407002045183
7	0x3fd1594ca9085e1f	0.2710754061422182
8	0xbffc1a4df82db451	-1.7564220137094433
9	0x3ff7c669f53dee0d	1.4859408931505442
10	0x3fa2208cbca38a1d	0.03540458491058394
11	0xbfd6ca178c4bf0e3	-0.3560847158512514
12	0xbfb27d5b6ba7ed79	-0.07222529772109522
13	0x3fb9bbec0033d865	0.10052371029800751
14	0x3fc34ee977f5132d	0.15084570271769718
15	0xbfb00356b8147a2d	-0.06255094522610057
16	0xbfd45e2f5292da76	-0.3182485872634183
17	0xbf4af92b9c1f651d	-0.0008231604517689204
18	0xbf96b8a592f10286	-0.022188746541589775
19	0xbf85f584e9568757	-0.010722196932707524
20	0x3fc7352acd356c26	0.1813100339885249
21	0x3fd8826863a3fe4a	0.38295945864226566
22	0xbf9d985b76caff8f	-0.028901509404704092
23	0xbfdbf3cb1431bd9e	-0.4367549607477147
24	0xbfca1b6f04247667	-0.2039622087694852

bias f8 [5]
0	0x3fc6f9a5d2107d2c	0.17949364430476444
1	0xbfc248263725ec68	-0.1428268212583561
2	0xbfa4cf3c96d4a9f9	-0.040643590366318656
3	0x3fa18959a8dbdec8	0.03425102411523323
4	0x3fd8d780dcd858bb	0.3881532818499058

__mu__ f8 [160, 2]
0	0xc000061a336fb1c0	-2.0029796617947966
1	0xbff87298e86ee728	-1.5279778556272934
2	0xbffe7ddf5a59f816	-1.905730584082908
3	0xbff696103e2d14a1	-1.4116365841630698
4	0xbff8de55883a9c78	-1.5542807885592804
5	0xbff4b2f9941c9ad9	-1.293695047914005
6	0xbfe06d5f0bd8c8cc	-0.5133509856589398
7	0xbff9ca357dd91f03	-1.6118674198095853
8	0xc001ab8f4c6a0a52	-2.208769413934797
9	0xbff9d85bc140ef58	-1.6153218792887483
10	0xbff9d4f8be69db79	-1.6144950330760521
11	0xbff8bc786bab2681	-1.5460132795145969
12	0xc000ca3af0675404	-2.0987452298672924
13	0xbff4437c7235d8ee	-1.266476102956911
14	0xc00308d8571fcbf6	-2.379318886430606
15	0xbff6d0b9f044c802	-1.4259585748191062
16	0xc003be973af396d3	-2.468061886366607
17	0xbff9d42a66bd7503	-1.6142982495578628
18	0xc000a1a950f2d878	-2.0789362262831297
19	0xbff3afc5a6fd627f	-1.230413105300755
20	0xbfff3dab7cb4c9d2	-1.9525561209999194
21	0xbff949137a47b0f0	-1.5803408409656718
22	0xc002370394584cce	-2.2768622960516955
23	0xbff8f48700632b2c	-1.5596990599758085
24	0xc00321722caf1dd8	-2.39133105191625
25	0xbff4f829868eb38f	-1.3105864769124513
26	0xc0003f49bc2a681c	-2.0309023571435443
27	0xbff2bf6cbf8c8d3c	-1.1717345697769153
28	0xbffe832ef2988cf0	-1.9070271946337094
29	0xbff433439a08c535	-1.2625156418765304
30	0xc002bdd587c0abaa	-2.342692432944621
31	0xbff7304fb8a486c4	-1.4492947781185856
32	0xc00200c1730d1481	-2.2503689754835823
33	0xbff93fdbeb6a5749	-1.5780905910409777
34	0xbffe069321752962	-1.876605158514018
35	0xbff383bb1d759263	-1.2196608687164818
36	0xbffe3342c54e013c	-1.8875148493971912
37	0xbff8c0adf07a5cb5	-1.5470408815070134
38	0xc0034a993daed291	-2.411425096414242
39	0xbff6c370fb818bbd	-1.4227151703314427
40	0xc002917a221c47c9	-2.3210337319260117
41	0xbff43cc02c001636	-1.2648317068827857
42	0xc000a0a1e5dd951c	-2.078433795761738
43	0xbff3b131af97f6bb	-1.2307602748036703
44	0xbffc5f3ad989930a	-1.773249482875317
45	0xbff25c0724d8fa11	-1.147467750488094
46	0xbff2caa2c91a07cd	-1.174471650651401
47	0xbff227846bd33fb6	-1.1346477710649032
48	0xc0009bfa5a1bb57e	-2.0761611022668935
49	0xbffa661ecc313345	-1.6499317146546713
50	0xc000192c81aec64d	-2.0122919208013514
51	0xbff6173b06c6e661	-1.3806715264057845
52	0xbff89b1cdbd38d35	-1.5378693186729155
53	0xbff797d616c57af3	-1.4745694055088137
54	0xbfea3adbcec9fc04	-0.8196848906371774
55	0xbffcbf278af43df1	-1.7966685703175893
56	0xc00301c9aa862e90	-2.3758729288291036
57	0xbff4ca647f44e483	-1.2994122477960282
58	0xbfffeb54d698f6aa	-1.9949539549556143
59	0xbff43dab3bc27ca9	-1.2650558790553907
60	0xbffec87246779096	-1.9239371063822879
61	0xbff27e3c3c38b654	-1.1558191635516737
62	0xbff5c6f3936f795f	-1.3610721358487223
63	0xbfeb9bf152fa5c6e	-0.8627859707511456
64	0xbffe2fd5d0ddb62c	-1.8866785200911051
65	0xc000396a90ab92dc	-2.028035288082135
66	0xbffd9eeb9936f7b1	-1.8512989029836542
67	0xbff9458cac0a174b	-1.5794798584260714
68	0xbff7742037246b5a	-1.4658510354990626
69	0xbffbd50bee356997	-1.739513330938825
70	0xbffeeac23c0eb401	-1.9323141427987596
71	0xc000010f5980fc2e	-2.000517558335125
72	0xc00190406c4953a9	-2.195435377109295
73	0xbff896da2e48ef30	-1.5368291671756644
74	0xbffd8dea0923f626	-1.8471470219659607
75	0xbff80e17d5bc7e1b	-1.5034406994890392
76	0xbffd976fd5ed1482	-1.8494718891609243
77	0xbff3666b22f7eb8c	-1.212504517169438
78	0xbfed1a7f8c8c11f0	-0.9094846482335566
79	0xbff59560c009242d	-1.348969221248136
80	0xbff3007cfc317097	-1.1876191951078334
81	0xc0004f7f73b4c512	-2.0388173141042296
82	0xbff5a316ab67ba0f	-1.3523165412440254
83	0xbffb82dd7fa9870d	-1.719449518852744
84	0xbff18f76ea57bbad	-1.0975255159389505
85	0xbff9bf013cf86843	-1.6091320401815359
86	0xbfdc34de51a9aad4	-0.4407268331039351
87	0xbff9a054685db0aa	-1.6016429974361395
88	0xc003d4be835c5e00	-2.4788789999545315
89	0xbff8696896d44db7	-1.5257345096368746
90	0xbfff0aef666ad1a4	-1.9401697159456512
91	0xbff7ea9f07e3f727	-1.4947805698606744
92	0xc000d6944927c6db	-2.1047750201476965
93	0xbff34d16a0768442	-1.2063204067310527
94	0xc003a31239f510a2	-2.454624607840814
95	0xbfeee1e9c88c75fe	-0.9650772969213788
96	0xc002c40b373ed003	-2.3457245174449795
97	0xbff68200c28d3b3f	-1.4067390060115057
98	0xc0001d5835614cd9	-2.0143284006422673
99	0xbff5f29caba1adc5	-1.3717314438207364
100	0xbffddfd40969611e	-1.8671455733911624
101	0xbff2ef0544d3d18f	-1.1833546341486885
102	0xc00327e044e5bb18	-2.394470728169278
103	0xbfe1f31ad1791d7a	-0.5609258738776781
104	0xc000e779d17ae0f3	-2.113025318682156
105	0xbffe7563bff44bd1	-1.9036595819677482
106	0xbff88b0c922a22a4	-1.53394753547233
107	0xbffbf1b70362f09f	-1.7465124256405387
108	0xc0007e42cf78ce2d	-2.0616508682958483
109	0xbff6b9a6f468975b	-1.420325236054359
110	0xc003db0cdec072ed	-2.4819581415634873
111	0xbfed819089201b0a	-0.9220659902792658
112	0xbfffec42020c8324	-1.9951801376375409
113	0xbff799064bd7bd2a	-1.4748595202070853
114	0xbff9f218a085cbac	-1.6216055174270236
115	0xbff7b87679949ca3	-1.4825348614920493
116	0xbffd42bb4da6d516	-1.8287919076222514
117	0xbff28313ec0b0a1c	-1.1570014210161679
118	0xc004115d3cd85c18	-2.5084786180045846
119	0xbfe378ef98e92f7a	-0.6085126863995207
120	0xc0008c5d7ecc982f	-2.0685377031504895
121	0xbffd06b8c5860f85	-1.8141410556572464
122	0xbff9100df8072ed2	-1.5664195717426321
123	0xbffbaf63202fe817	-1.7303191430387466
124	0xbfff96c9ad75e7ac	-1.9743134284785624
125	0xbff539a23aa378c5	-1.3265707293099223
126	0xbffdf06b6495d60d	-1.871196167861288
127	0xbff6cc9aa1f71143	-1.424952156711769
128	0xbff24c4a69f84a51	-1.1436256541679948
129	0xc000461da176f2c8	-2.0342362036156807
130	0xbff387045423739c	-1.2204631125125394
131	0xbffb1aafc8fb9ef9	-1.694015297974998
132	0xbff2cce0780789aa	-1.1750187576913995
133	0xbffa0f92b1859fe5	-1.6288020071460718
134	0xbfd7fb7ce2efc993	-0.37472459947380193
135	0xbff6b5c443539e9a	-1.41937662410229
136	0xc000f4d47d2cd9ae	-2.1195459155380467
137	0xbffceaf07e6ec017	-1.8073582590841448
138	0xbffca708c4ad0cf5	-1.7907798464446476
139	0xbff64f33e3c8ea95	-1.394336595329752
140	0xbffd003daef5a53e	-1.8125588259084249
141	0xbffa7797d465ce9a	-1.654197530439808
142	0xbff1b3bdd045c3a6	-1.1063821921963863
143	0xbffe7d6e1d36f75d	-1.9056225911330877
144	0xc0047393aea15b5e	-2.5564340250961513
145	0xbff819ad9019cae1	-1.5062690380988715
146	0xc000d3ff6ca1f7a7	-2.103514527027943
147	0xbff334cd68303f3b	-1.2003912038671405
148	0xc0004b1cb4f9d716	-2.0366758478875324
149	0xbff79f0eea98630f	-1.4763325847508815
150	0xc001ffd2cc637f14	-2.2499137847770587
151	0xbffa985cf6c1b89f	-1.662198032277537
152	0xc00075aea81acdda	-2.057462037389752
153	0xbffe56574057cb77	-1.8960793031116887
154	0xbff7d2c17f6ea72c	-1.4889540651151476
155	0xbffbfa03356a01e1	-1.7485382162559449
156	0xc0004e87296792f3	-2.038343738053635
157	0xbff68b24697bbea3	-1.408970272106594
158	0xc002b84fefe2b8a0	-2.33999621782921
159	0xbff57cf00ed63f9d	-1.3430023746077275
160	0xbff1d5dfd19dffa7	-1.1147154033824138
161	0xbffee4b9cbd8ab87	-1.9308412516354296
162	0xbff2fa5ab4c325fc	-1.186121660330513
163	0xbffb3ae18fce2fd3	-1.7018752686881171
164	0xbff2bfa1f8ab37a7	-1.1717853273034764
165	0xbff7e585afd54a64	-1.4935356968386708
166	0xbfe5c56d66f502ba	-0.6803500185852365
167	0xbff92c48f3768a7f	-1.5733117590213224
168	0xbff8e6ed611a9b7c	-1.5563787263033353
169	0xbffd82a8f2ed1dc5	-1.8443994035059046
170	0xbff742f48b10d5d7	-1.4538464958435406
171	0xbff648fb47e8cd7e	-1.3928177651367544
172	0xbff74a18fbf51efc	-1.4555902330484392
173	0xbffb339c73f67ea7	-1.7001003770637142
174	0xbfdaa96ce3ef3d2d	-0.4165909028933637
175	0xbffad96291f8e8b7	-1.6780725194972044
176	0xbff4e14bbe118d4d	-1.3050038742593018
177	0xc000b27cf0484411	-2.087152363973026
178	0xbff2658a4092aba7	-1.14979005073358
179	0xbffa134bc34520ff	-1.6297109248862964
180	0xbff729f286a981c4	-1.4477410564651203
181	0xbffc2688c48bbac7	-1.759407775647263
182	0xbffd9c73ea942b1a	-1.85069648392045
183	0xc000bcb78d0c7504	-2.092146970694218
184	0xc000b236afd71801	-2.087018369437829
185	0xbffe86509af8b857	-1.907791715009372
186	0xbfffd2d17a8d4964	-1.9889693057235371
187	0xbff73a4a6f134169	-1.4517311419368417
188	0xbff9315d30034496	-1.5745517611979145
189	0xbffb8576c378f44f	-1.7200839648860613
190	0xbfec37f99de9a5ae	-0.881832893775188
191	0xbffd72af44cd703d	-1.840499180564634
192	0xc0047487a0549a3c	-2.5568993116205814
193	0xbff7438a2e5ead59	-1.4539892016717515
194	0xc0009ce86e854f2c	-2.0766152033264884
195	0xbff3b81df32e683d	-1.2324504374760317
196	0xc000835bbe3e6711	-2.064139829902054
197	0xbff615162f131d3a	-1.3801481093267527
198	0xc001a76d937fc9c8	-2.2067519687054507
199	0xc000cb67d26d10dc	-2.0993191184553393
200	0xbff3db75e6295107	-1.2410792341880226
201	0xc000a6d72cbd0646	-2.081465100782938
202	0xbff5897270e3b0d5	-1.3460564050429202
203	0xbffbbe5da13a8ec7	-1.7339760110852909
204	0xbff2c0006c04bc1a	-1.1718754024002522
205	0xbffa5d27681028b6	-1.6477426590886757
206	0xbfccf6ab16c3185e	-0.22627771960668758
207	0xbff8bff558550e95	-1.5468648386458075
208	0xc0024a8bee1109c0	-2.2863997076940166
209	0xbff5281726d449d4	-1.3222877041595114
210	0xbffe569b53195b64	-1.8961442228371306
211	0xbff4bcaf4990879f	-1.2960656045547478
212	0xbffe9a207c9426a4	-1.912628637920002
213	0xbff2769ee22ac730	-1.1539601168301026
214	0xc0041e462c5c286a	-2.51478228241199
215	0xbfe4d1b551552482	-0.6505991543318859
216	0xbff24177f60790fe	-1.140983544400171
217	0xbffff2af589613c3	-1.996749254264828
218	0xbff1af0492b02228	-1.1052289705277278
219	0xbff906877213aa68	-1.5640940147519817
220	0xbff492856e7bffa4	-1.285771781520432
221	0xbffb65da42aef713	-1.712366352541214
222	0xbfeb9875b255c9ac	-0.8623608096225346
223	0xbffce36836fa3f59	-1.805519308811162
224	0xbff7032f4c281eca	-1.4382775282737605
225	0xbff9bad692a29a4b	-1.6081147888122753
226	0xbff250228d45880b	-1.1445642012045052
227	0xbff979a7e944c375	-1.59220114822912
228	0xbff9dfb6bbb58b88	-1.6171176273716998
229	0xbff35c01590dacf8	-1.20996222292416
230	0xbffa3a32d44e9334	-1.6392086308707805
231	0xbff4fc32ab75dcb1	-1.3115717599555803
232	0xc003ae672c15f433	-2.4601577228736686
233	0xbff615a9bb3cb87d	-1.3802888215973603
234	0xbfff763fe35bcd98	-1.9663695222087423
235	0xbff56e1249a85ef3	-1.339372909284006
236	0xc0007274245218e0	-2.05588558555165
237	0xbff2e74554949275	-1.1814626029892257
238	0xbfff8cec2ad9a27a	-1.9719049142678657
239	0xbfe752bfa12fffea	-0.7288511417573293
240	0xbff6a74430f56fc0	-1.4158365166140214
241	0xbffdadd14a50b7e3	-1.854935922903217
242	0xbff6206ead27d8fb	-1.382918049229885
243	0xbffb25a23e4fdc91	-1.6966879304943954
244	0xbff5a344fce26ece	-1.3523607137967022
245	0xbff68944c8f6c0d9	-1.4085128641273086
246	0xbfd28ecfd8f20706	-0.2899665468795408
247	0xbff865d769aa99d5	-1.5248636367410786
248	0xbff44cfd02413e3d	-1.2687959755020437
249	0xc00098751b3020bd	-2.074442112356421
250	0xbff6cf46f2fff691	-1.4256047718221547
251	0xbffbbc34fc814579	-1.7334489692187545
252	0xbff20625e74eb1a4	-1.126500991386913
253	0xbffa3c5a9ae74da9	-1.6397348452490894
254	0xbfd9274944d09cf7	-0.3930228397388897
255	0xbff95ec83ebd95fb	-1.5856401873401171

__logstd__ f8 [160, 2]
0	0xc011aa26f7999946	-4.416164273023531
1	0xc014f8174974d67d	-5.242276332622734
2	0xc01113defa979a74	-4.269405284407743
3	0xc0141f93cbc31517	-5.030837234289058
4	0xc00fca8926acd6c7	-3.973894407415034
5	0xc012fdbbb96c0842	-4.747786423891798
6	0xc00cef6051c50324	-3.61688293344959
7	0xc013e240bb164b32	-4.970950053439809
8	0xc01269e051955316	-4.60339477037339
9	0xc015bf951354699c	-5.437092115428097
10	0xc010d1a5d443d33c	-4.204734150542944
11	0xc014a9602729efd2	-5.1654058570238295
12	0xc011132816aee13d	-4.2687076133955175
13	0xc01368e40dd1b97e	-4.852432456899235
14	0xc01238ab976206c0	-4.555342069013648
15	0xc014baa9c29a4de2	-5.1822882086448505
16	0xc013032340a7515a	-4.75306416531779
17	0xc016060e745852e1	-5.505914514437536
18	0xc010eab6fa5ca7a0	-4.2292136305858605
19	0xc01328a70976e154	-4.789699695473548
20	0xc011b5d1dea300ba	-4.427558401774315
21	0xc0153f5535355176	-5.3118484796326495
22	0xc012661dcacc7aa6	-4.599723023157514
23	0xc01577f2ada97961	-5.367136682003861
24	0xc011e4158ca3f029	-4.4727384543476
25	0xc014022070491017	-5.002076868495371
26	0xc0109f8576ee3136	-4.155782564437962
27	0xc012bbbba04d1840	-4.683332924561967
28	0xc0109e161a7b59d0	-4.154381192949998
29	0xc0132d19dfc9d50c	-4.794044014638768
30	0xc01235758fbd3b88	-4.552206273960913
31	0xc014d6798d1b69ff	-5.2094480560285765
32	0xc01264fed448075c	-4.598628346344267
33	0xc0158e86d7c2189a	-5.38918625948113
34	0xc01069f03df446ea	-4.103455513033376
35	0xc012ded98e042960	-4.717626780513768
36	0xc01174b26e6dcc5a	-4.363961911632112
37	0xc014f70263da2d50	-5.241220054809062
38	0xc012492b6e4dade2	-4.5714547381316795
39	0xc014be50664abcd4	-5.185853575049993
40	0xc01195efadc7ec2a	-4.396422114684393
41	0xc013a40f092bd46f	-4.910213607120666
42	0xc010eab135072c7c	-4.229191616595127
43	0xc0132913fb278e88	-4.790115284242013
44	0xc00fe641518c7ccd	-3.9874292727468856
45	0xc0124c87d218bd59	-4.574736864814747
46	0xc00d0a441eee562a	-3.6300127426609565
47	0xc011910f64dbbec6	-4.391660285865958
48	0xc0123698206d7422	-4.553314692192574
49	0xc015d30c5ce2d495	-5.456101847977284
50	0xc0113a92bed00d4a	-4.307200414131623
51	0xc0140accc3cb4d06	-5.010546740802289
52	0xc0106b50de50b136	-4.104800676035941
53	0xc0141fb69c2282e7	-5.030970038992314
54	0xc00f81469fdb23db	-3.938122986674427
55	0xc015646c2fde1d72	-5.348068950588059
56	0xc011d203d273b7a2	-4.455092705071282
57	0xc013eba110ccc1ce	-4.980106604096774
58	0xc010d45a6d37d685	-4.207376200230674
59	0xc01349b3727670fe	-4.821973598937118
60	0xc010534ed28947c4	-4.081355371121337
61	0xc012840e213944f4	-4.628960150833553
62	0xc00c37c0ac276666	-3.5272229623340534
63	0xc0100a42eee9b692	-4.010020955099792
64	0xc012f29a7b68eb98	-4.736917427328898
65	0xc018060e23c7dd15	-6.005913313935953
66	0xc01178f781915700	-4.368131660934296
67	0xc01521c23a82fe9b	-5.282967485661767
68	0xc0111328bb20bc78	-4.268710063813266
69	0xc015bb203be2ef80	-5.432740150190398
70	0xc012f7d7ec65a4da	-4.742034620002608
71	0xc017e5f0cfcfd703	-5.974551436481991
72	0xc012238c96341aaa	-4.534715983324228
73	0xc0153c0cee0bc6b2	-5.308643073529014
74	0xc0113a0beabf8032	-4.306686084688453
75	0xc014a4c6ee7d582c	-5.1609151138309635
76	0xc0105420403d8b44	-4.082154277569149
77	0xc012cba59c9703dc	-4.698873945920209
78	0xc00d24216cfbbd30	-3.642641879494157
79	0xc012a4591161a25a	-4.6604960170594385
80	0xc0115bc8d20d766c	-4.339633256980601
81	0xc017551e7b12e783	-5.833124087361173
82	0xc010bfbe789e5e0e	-4.187250027338008
83	0xc0157add6f61cfc4	-5.369985332817979
84	0xc00fa146c6b9a230	-3.9537482762719023
85	0xc01480543dfeb929	-5.125321358367992
86	0xc00c88cf6d519c58	-3.5668018856554617
87	0xc013bd65aa667a75	-4.934958136086256
88	0xc012c327a41efbc2	-4.690580906287268
89	0xc01578d8040047b5	-5.368011534230324
90	0xc0116a6fda37ac34	-4.3539423080902
91	0xc014b08e32d146de	-5.172417444251293
92	0xc010e6ea08d3a748	-4.225502145689298
93	0xc013089b85e70799	-4.758405773378308
94	0xc010f7014cb7e31f	-4.24121589538916
95	0xc011e116f499680a	-4.469814130652603
96	0xc012156d8e89c504	-4.520925738486088
97	0xc0149204a6d1a492	-5.142595869584641
98	0xc01134acfc4ca636	-4.301441137483883
99	0xc013fcced3d72e55	-4.996882734306912
100	0xc0104773f7b8daa2	-4.069778319032283
101	0xc012a118460aead9	-4.657319158951133
102	0xc00f23e6329e0f3d	-3.8925289110647143
103	0xc00e7c6bb715a49c	-3.8107523253898545
104	0xc01316384cc0f8e0	-4.771699141767584
105	0xc0177a7d57442e22	-5.869618762527837
106	0xc011412ffec24e7a	-4.313659649476557
107	0xc015d97839f71208	-5.462372689919455
108	0xc011776dc3f39282	-4.3666296594061595
109	0xc014591b6428d180	-5.0870185518182325
110	0xc010e50d4a2c44f9	-4.223683508827201
111	0xc011a2a7059d5723	-4.408840263107581
112	0xc0117b49816fceee	-4.370397589158285
113	0xc0149f6b88436a17	-5.15568364058938
114	0xc010a367e7e86d84	-4.1595760570156735
115	0xc01443fb66e2f691	-5.066388709643108
116	0xc0101bb610fa1a24	-4.027061715378782
117	0xc0126b82467508f0	-4.604989148038143
118	0xc00ff70e14ad7ce5	-3.995632325691633
119	0xc00f56d898978e4e	-3.917405311703795
120	0xc012b49d78f5693a	-4.676381959894849
121	0xc016dc55c8ec99ad	-5.715170993271767
122	0xc011479bd6022f12	-4.319930404551785
123	0xc015c82250173ffb	-5.44544339315325
124	0xc010f8fe896f178b	-4.243158481030956
125	0xc013a821f04f536b	-4.914191965905824
126	0xc01109efb8505733	-4.259703521636584
127	0xc0142ba7247ab135	-5.042629785526789
128	0xc0113e0031f73dde	-4.310547619548258
129	0xc017416b3e541923	-5.813885663874575
130	0xc0105d2c88b2931a	-4.0909901961320205
131	0xc0152cc306ee062e	-5.293712719228592
132	0xc0100e52efb688b6	-4.013988252178185
133	0xc014b5ebd0441a90	-5.177657369763111
134	0xc00b188edcbcf3eb	-3.386991238132841
135	0xc01282388d0a8d7c	-4.62716884972485
136	0xc012cd884d2903e0	-4.700715261104932
137	0xc016df7b3367ad6a	-5.718243411257712
138	0xc010c1cfcb42ef1c	-4.1892692336657795
139	0xc013e36c52454a24	-4.972092900733092
140	0xc0119d59765a561a	-4.403661584151928
141	0xc01590a7a2ed8802	-5.391264482257613
142	0xc010c19e70d1749c	-4.1890809657899375
143	0xc016659d801ca5b8	-5.5992336289868305
144	0xc012e1c379c0058a	-4.720472242684432
145	0xc0156eb9035eb2dc	-5.358127644209812
146	0xc010e17389ad4238	-4.220167304229612
147	0xc012fe99f2f82f32	-4.74863414420888
148	0xc011951d97d399b0	-4.395620701112804
149	0xc014ad5d29fb55a8	-5.169300704922911
150	0xc012a797b53d70c1	-4.66366465747359
151	0xc016175d8bd3a1bd	-5.5228177879257006
152	0xc012ef2d49a9674c	-4.733571196522302
153	0xc0175eafbd89d046	-5.8424672713627555
154	0xc011280ff18417fc	-4.289123319327697
155	0xc015d040162bf7b7	-5.4533694710097995
156	0xc011608d459a7796	-4.344288909485746
157	0xc0144021a078a8e8	-5.062628276218881
158	0xc011df5a0f2aee96	-4.468116986270294
159	0xc01428a1cffed660	-5.039679765633622
160	0xc010da9ec0e01690	-4.213496221234564
161	0xc01691005025caf7	-5.641602756792728
162	0xc0104f044462d24e	-4.077164715320192
163	0xc0153001c2633f06	-5.2968817112994255
164	0xc00f41b97de12d9d	-3.9070920786231924
165	0xc013d8bf06d40ee6	-4.961666208928113
166	0xc00d78897e6f745e	-3.683855998779605
167	0xc013d1edf7f4f0cf	-4.955009340596191
168	0xc0119c56d44a456e	-4.40267497733417
169	0xc0167f1d7e830406	-5.624135948893132
170	0xc00ff0c985a1ee8b	-3.9925718727152506
171	0xc01383350e1c47a7	-4.878132076717441
172	0xc010edba468e31a1	-4.232155897549462
173	0xc0157816bdda0132	-5.367274252348851
174	0xc00ce5a74938ac91	-3.6121354790134963
175	0xc0143324e618cb32	-5.049945445311822
176	0xc011c7f6b8c12a14	-4.445277106084649
177	0xc017c47d5cac150a	-5.941884468081534
178	0xc010000e29f6176c	-4.000054031033738
179	0xc014b061cfea71d7	-5.17224812382161
180	0xc0111836ea5ba9c4	-4.2736469858595605
181	0xc015d67c0b4fb200	-5.459457566012588
182	0xc0131031627d429a	-4.765813387770914
183	0xc01864728318c282	-6.0980930789816075
184	0xc0130a0d2722475f	-4.759815799205028
185	0xc01779fb9e7a587e	-5.869123913018596
186	0xc011653579ad4b80	-4.348836804582675
187	0xc01478074b17497e	-5.117215321823435
188	0xc011444dc2ffcfc4	-4.316702887404919
189	0xc015b9baa3076f48	-5.431376025513437
190	0xc0100869e66505ce	-4.008216476360259
191	0xc015bd17004f28b1	-5.434658055144767
192	0xc012b879e78b7834	-4.680152528655572
193	0xc01519b77a3d9eab	-5.275113973628019
194	0xc010eaf48ef5e5a6	-4.229448541410795
195	0xc0132b530e1b7844	-4.792309017588256
196	0xc01158f7427bad14	-4.336880720900144
197	0xc014185f6ddc267f	-5.023801533281243
198	0xc013e977db3fa19c	-4.977996278532739
199	0xc018d330892d5985	-6.206239837067533
200	0xc0119d7511a4fc38	-4.403766895003223
201	0xc017a97164a524e6	-5.915471623019789
202	0xc010c792b7b3e4be	-4.194895620684461
203	0xc01590c76eac0b42	-5.391385773897868
204	0xc0101b83b431594e	-4.026869597923293
205	0xc014d3e4000efb18	-5.206924439348562
206	0xc00b32da467623aa	-3.3998303894809014
207	0xc013288754f82e26	-4.7895787502743925
208	0xc011af0907651436	-4.420932879967088
209	0xc013f7fcc3f55e2a	-4.992175161219658
210	0xc010b24aea946cac	-4.1741139081088185
211	0xc01360b535352346	-4.844441253059648
212	0xc0104b1c39b3ed24	-4.073349858862716
213	0xc0127de1acd96f39	-4.6229311950408425
214	0xc01020bbac2081c7	-4.03196591328055
215	0xc00fe36cfb4737be	-3.9860477095707827
216	0xc0111ea0ae1c98be	-4.279909821029092
217	0xc01703a350a60306	-5.7535526849103515
218	0xc00f62d1903616fb	-3.923251272822083
219	0xc01439213f41f157	-5.055790890121293
220	0xc01092922523e896	-4.1431356242338975
221	0xc0155cd0eacaa161	-5.34064070569761
222	0xc00fc210f900feef	-3.9697589353016762
223	0xc0157eb58528e590	-5.37373931944002
224	0xc0109a4f269ddc38	-4.1506925615167845
225	0xc014dd7a3d11bc95	-5.216286615569648
226	0xc00fbe41ef4e19d1	-3.9678991981229292
227	0xc01471d857261b03	-5.111176835728432
228	0xc00f9012baf77366	-3.945348225285147
229	0xc01286dc53e385ec	-4.631699858438406
230	0xc01025f21751113a	-4.037056316683726
231	0xc01332793e90d305	-4.799290635671018
232	0xc0124465ae438d42	-4.566794131157907
233	0xc01486c87a2d43b8	-5.131624135029533
234	0xc010fe73b4cfee2d	-4.2484882594977025
235	0xc013bac52b690eba	-4.932392767226412
236	0xc010b619ccd6e0a2	-4.177832794776039
237	0xc012d286871ff086	-4.705591307949481
238	0xc00e38b85a99d63c	-3.777695377177933
239	0xc00fb434368c8a0e	-3.9629902135504897
240	0xc01151342d09c7a8	-4.329300597879332
241	0xc016692be307f3ab	-5.60270647750887
242	0xc010bfd4f1600120	-4.1873357500883515
243	0xc0155e5010bf78c2	-5.3421023003449495
244	0xc00f912278975d3b	-3.9458665295784647
245	0xc0138087c6f485bf	-4.875517948793855
246	0xc00b5b8f255edace	-3.4197066230366095
247	0xc013166b99ee0444	-4.771894841339478
248	0xc011a857f0d817ec	-4.41439796751909
249	0xc017a5b7bdae2b7b	-5.911833728557094
250	0xc010f66c4172eec2	-4.240647337570126
251	0xc015a60d8d2fcfab	-5.41216106991116
252	0xc00ff45f31311200	-3.9943221896267005
253	0xc014ba39de94a176	-5.181861379453371
254	0xc00c36ac1270bcbb	-3.5266953888563797
255	0xc01396109dea4dc1	-4.896547763276829
