code/models/LOCAL_Classifier_v2.pt (torch, 152397 bytes, 16 tensors)

att_src f4 [1, 6, 32]
000000 f5 cd 82 be 5f 14 92 be 42 23 8d be 51 f5 01 bf
       -0.25547758 -0.28531167 -0.27565962 -0.5076495
000010 a7 fb e5 bd cf a0 14 3f 71 a6 07 3e 11 ac 07 3d
       -0.112296395 0.58057874 0.13247086 0.03312308
000020 8b 53 d1 be 1b 71 a6 bd 7e 64 66 bc 16 91 2c 3e
       -0.4088405 -0.08127042 -0.014062045 0.16852221
000030 91 f8 d4 3e 5f 4c b8 3e cd 00 4c be b9 d0 9a be
       0.4159589 0.35995767 -0.1992218 -0.30237368
000040 12 b6 85 3d ee 9f dc 3e d2 42 d2 be f4 7a 03 be
       0.06528868 0.43090767 -0.41066605 -0.12839872
000050 53 f5 65 3d 6c 05 df be 8c 05 d4 3e c5 c6 db 3d
       0.056142163 -0.43558824 0.41410482 0.10731272
000060 b6 ba 8c be a2 13 ce 3e e7 01 db 3d 5c 78 e1 be
       -0.274862 0.40249354 0.10693722 -0.4403714
000070 36 4a 33 3e 04 ad ea bd 11 26 77 3d 5f 14 8b 3e
       0.17508778 -0.11458781 0.060339037 0.2716398
000080 4a 47 a4 be a3 cb ab 3e 8a 52 69 3e 2a 61 73 3e
       -0.3208564 0.335538 0.22785392 0.23767534
000090 c9 e0 16 3d 9f f0 fe 3d e8 f0 e4 be 03 b0 11 3e
       0.036835466 0.124482386 -0.44715047 0.142273
0000a0 ca ce 50 be 26 9d 8c be db c1 bc be b4 1f df be
       -0.20391384 -0.27463645 -0.3686665 -0.43578875
0000b0 e0 09 a4 be ed 58 f4 3e 30 b2 92 bd 5d e5 23 3e
       -0.32038784 0.47724095 -0.07162893 0.16005464
0000c0 62 67 2c be d9 92 a7 3e dd cf 04 bf 75 26 13 3f
       -0.16836312 0.32729223 -0.51879674 0.57480556
0000d0 f1 0f 0d be db 1d 3f 3e 46 9b d5 3e 81 59 3c be
       -0.13775612 0.18663733 0.41720027 -0.18393518
0000e0 ae 95 c7 3e 3f 3f 74 be 37 36 69 bc 5f 24 8b 3e
       0.38981384 -0.23852251 -0.014234117 0.27176186
0000f0 4e 82 77 be 28 15 b5 be be d8 5b 3e 1c 1b 45 be
       -0.24170801 -0.35367703 0.214694 -0.19248623
000100 b1 94 79 bd 87 12 5d 3e 17 99 9a 3d a3 95 08 3b
       -0.06093282 0.21589099 0.07548731 0.0020841144
000110 38 e6 cc 3e e2 ed 65 3f e3 8c d9 3d c1 2d ca be
       0.40019393 0.89816105 0.10622575 -0.39488032
000120 fd b3 93 3e 10 ff 41 3f 93 73 74 bf ca e9 c3 bd
       0.28848258 0.7577982 -0.9548885 -0.09566076
000130 54 72 a3 3e bf f1 cb 3d 4f 8d cd 3e 3b c6 c9 3d
       0.31923163 0.09958219 0.40146872 0.098522626
000140 a8 49 23 3f 51 58 96 be c5 68 f5 3e ee 7b 81 bf
       0.63784266 -0.29364255 0.47931495 -1.0115945
000150 68 a5 2a bf 1b 0d 49 3e fd 58 ae 3e b7 d4 a6 be
       -0.6665864 0.19633906 0.34052268 -0.32584164
000160 75 33 c9 bd 11 9b 1b 3e f5 35 2e 3e 84 7e 28 bf
       -0.09824268 0.15195872 0.1701277 -0.6581805
000170 08 60 a0 be a2 54 f3 be e5 00 f2 3e f4 9e 61 3d
       -0.31323266 -0.47525507 0.47266307 0.05508323
000180 52 20 f0 3e 6e 26 17 bd 49 bb 84 be 51 d1 76 be
       0.46899658 -0.036901884 -0.25924137 -0.24103285
000190 22 3c 09 bd 67 ed c1 be 30 f6 26 3e f3 60 4b be
       -0.033504613 -0.37876436 0.1630485 -0.19861202
0001a0 c0 9d b5 be 6b 2a 16 3e 2a 1a 85 3d 05 da 34 3d
       -0.35471916 0.14664619 0.06499131 0.044153232
0001b0 a7 50 35 be b9 fa 37 3d 60 9b ce be 08 3b 73 3e
       -0.17706548 0.044916842 -0.40352917 0.23752987
0001c0 37 b2 ca 3d 46 0f 82 3e 51 65 f1 3c 89 77 d3 3e
       0.09897273 0.25402278 0.029467257 0.41302136
0001d0 4a c9 52 bc 86 19 47 bd a9 12 fc 3d a1 00 f9 3d
       -0.012865374 -0.048608325 0.12308247 0.12158323
0001e0 db 8b ce 3d aa 73 92 3c b8 8f 67 be 44 f5 1a bd
       0.10085269 0.017877419 -0.22613418 -0.03783156
0001f0 34 d0 f9 bd e2 e0 72 3e b8 14 92 bc 0b 57 a6 3d
       -0.12197915 0.23718598 -0.017832145 0.08122071
000200 00 d5 36 3e 3e 7a 54 3e 19 6d b2 be 9e 61 ae be
       0.1785469 0.20749757 -0.3484886 -0.3405885
000210 9e 0b f0 3d 93 a3 b2 be 82 db 1a be a4 bc 03 3f
       0.11720966 -0.34890422 -0.15122798 0.5145972
000220 ad bd 8a be 73 0d 8e 3e 1b d8 82 3e f6 fe 54 be
       -0.27097836 0.27744636 0.255555 -0.20800385
000230 5c 11 55 be ae 12 cb be d1 8a ee bd b6 e5 3c be
       -0.20807403 -0.3966269 -0.11647571 -0.18447003
000240 61 d7 5b be 31 6a 03 3f 32 1b a6 bd 0c 5a 03 3f
       -0.2146888 0.5133391 -0.08110656 0.51309276
000250 63 eb 8f bc 1b e8 17 be 3b 1f e3 bd 71 33 cf 3d
       -0.017568296 -0.14834635 -0.11089941 0.101172335
000260 81 93 5c be 96 4b 62 be 8b 2a 19 3e 7b ef 01 bf
       -0.21540643 -0.22099146 0.14957635 -0.50756043
000270 6e 73 9d 3d 23 4b cf 3d 34 ef 4f 3e 9f 4a b5 be
       0.07688032 0.10121753 0.20306093 -0.35408494
000280 5a 37 82 be b6 54 f2 be db 05 b4 be 3e 54 29 be
       -0.25432855 -0.47330254 -0.35160717 -0.16536042
000290 d4 60 8b 3e b5 27 88 3e d1 0d a9 be fe 66 a7 bd
       0.27222311 0.26592794 -0.33018354 -0.08173941
0002a0 94 1b 72 3d e7 6e a9 be 25 d1 34 3c a1 b5 68 3e
       0.05910833 -0.33092424 0.011036192 0.22725536
0002b0 26 b2 75 be cd 6d 4a 3e 1b aa bc 3e 00 b1 cf be
       -0.2399374 0.19768448 0.3684853 -0.40564728
0002c0 1f ec 8d be 85 78 2b 3e aa 25 17 3d 1a fc b6 be
       -0.2771921 0.16745193 0.036901154 -0.35739213
0002d0 81 e5 bd be 32 86 5d be c2 60 ae 3d 40 ef fe be
       -0.3708916 -0.21633223 0.08514549 -0.49791908
0002e0 04 48 c2 3e 2e 8d e3 3e 00 8f e9 3e 69 78 ea b8
       0.3794557 0.4444365 0.45616913 -0.00011180418
0002f0 2a ff 88 3e b7 c3 3c 3e dc ff 03 3e 11 0e 51 3e
       0.26757175 0.18434034 0.12890571 0.20415522

att_dst f4 [1, 6, 32]
000000 66 c6 ee 3d 5c f5 a8 3e fd 95 54 3e c9 7c 60 3e
       0.11658935 0.32999694 0.20760341 0.21922602
000010 22 d3 b2 3d 1a fa 27 bd db 82 06 be aa 29 45 be
       0.08731677 -0.04101 -0.13135855 -0.19254175
000020 0a 07 18 bd 1c 64 d2 3d 4f 1d 35 be 3e f0 48 3d
       -0.037116088 0.102730006 -0.17686962 0.049057238
000030 be ea 98 bd fa 44 f8 3d b0 6f 88 bc 17 d1 98 bd
       -0.074666485 0.12122531 -0.01665482 -0.07461756
000040 6e 08 13 3e 78 b0 a3 bb 08 82 e9 3d 2e 66 0a 3e
       0.14358684 -0.004995402 0.114017546 0.13515541
000050 34 6e 6c 3e f0 4a a6 bc aa 39 bf 3e 91 77 85 3e
       0.23088914 -0.020299405 0.37348682 0.26067784
000060 9d d5 b7 be 02 ca 65 be a3 36 95 3e d2 63 61 3d
       -0.35905161 -0.22440341 0.29143247 0.055026837
000070 a7 af b2 be 07 62 39 3c d8 10 36 3e d7 6a 46 3e
       -0.34899637 0.011314875 0.17779863 0.19376694
000080 9e c7 b4 be 58 5c cb be 2d ab f2 3e ad 02 0a bf
       -0.35308546 -0.3971889 0.47396222 -0.5391033
000090 60 95 70 be 85 86 62 be f2 f4 ec be 46 45 90 be
       -0.23494482 -0.22121628 -0.46280628 -0.2817785
0000a0 16 ff c2 3e 58 49 09 3f 27 91 46 be 95 b9 45 3e
       0.3808524 0.5362754 -0.19391309 0.19309075
0000b0 46 7f 5c be 78 1f 85 be 63 7a c6 be 21 5a 01 bf
       -0.21532926 -0.2600057 -0.3876525 -0.5052815
0000c0 13 30 0f bd 71 02 30 3c 9e 7d 29 be e9 bc 3d 3e
       -0.034957957 0.01074277 -0.16551825 0.18529095
0000d0 b4 d3 50 be ac 49 0a bf 52 67 ee be 2f c4 c6 bc
       -0.20393258 -0.54018664 -0.46563202 -0.02426347
0000e0 ad fb b5 bd 9f d4 0d be 72 2d 1e be 19 c7 ac be
       -0.08885894 -0.1385064 -0.15447024 -0.3374565
0000f0 61 f0 13 3f cf a3 3b 3e 6f 04 26 be f3 06 30 be
       0.57788664 0.18324207 -0.16212629 -0.17190151
000100 d5 bd b3 3e 5e a3 f0 bc dc 57 85 be 8d fa 71 3d
       0.35105768 -0.029374775 -0.26043594 0.059076834
000110 cb ec a6 be 99 b7 e9 3d 5d 9c c8 be 89 8f 9d 3e
       -0.32602534 0.114119716 -0.39181796 0.3077357
000120 d3 98 2e be 5d f0 88 3d b1 20 4e 3e e1 c8 ab be
       -0.17050485 0.06686471 0.20129658 -0.33551696
000130 24 2f 84 3e aa 47 63 be c2 ef 30 3e d4 e8 96 be
       0.25817215 -0.22195306 0.1727896 -0.2947451
000140 61 62 86 3e 70 03 7d be 9a 63 c3 be e3 4b 62 be
       0.26246932 -0.24708343 -0.38161927 -0.22099261
000150 4b ce 73 3c 75 e8 0e 3d 8c 13 b6 be 8c 5c 45 3d
       0.014880727 0.034889657 -0.35561788 0.048183963
000160 5d e5 10 3e 8a 14 93 3d 5e a9 4a 3d 99 57 79 be
       0.14149995 0.07181652 0.049477927 -0.24349822
000170 63 87 97 be d0 05 87 3e 0e a0 cf 3e cf ff 28 3e
       -0.2959548 0.26371622 0.405518 0.16503833
000180 2e 7d c1 be e4 b8 2b be aa 53 1d 3e b2 c6 7d be
       -0.37790817 -0.16769749 0.15363947 -0.24782827
000190 5c 4e 64 bd 3e ed 2e be 33 3e 3e be 15 d3 9b be
       -0.05573879 -0.17082688 -0.18578415 -0.3043448
0001a0 0b 4f f1 bd 43 4b b9 be 0c 71 6a 3e a5 2e d1 be
       -0.117826544 -0.36190233 0.22894686 -0.408559
0001b0 3f ec a1 be e6 96 7e be d8 48 f6 3d 79 1b 93 be
       -0.31625554 -0.2486225 0.120256126 -0.28731897
0001c0 5e fd 7a 3e ab 78 26 3e a2 6a b4 3b ef 2c ee 3c
       0.24510714 0.16256969 0.0055058757 0.02907416
0001d0 6b b0 df 3e 43 04 5c 3e a5 c0 7c 3e 8c 00 2c 3e
       0.43689284 0.21486 0.24682863 0.16797084
0001e0 d5 78 be 3e 23 8a d3 3d 28 61 ab 3d 8b 19 d9 3d
       0.37201563 0.10329082 0.083681405 0.10600575
0001f0 03 ca 0e 3e 35 98 38 be dd 5a 30 be 84 b7 65 be
       0.13944249 -0.18026812 -0.17222162 -0.22433287
000200 f8 55 42 be 90 04 bc bd 03 09 ab be 9d 7b 1d be
       -0.18978107 -0.09180558 -0.33405313 -0.15379186
000210 45 88 5c bd d4 a6 44 3e a5 02 99 bd 9a b4 88 3e
       -0.053840894 0.19204265 -0.074712075 0.26700288
000220 78 e9 17 be 5c fc 5e be 9c 16 e5 bd 34 18 4a be
       -0.14835155 -0.21775955 -0.11185953 -0.19735795
000230 a3 a2 6c bb d3 59 11 3e 64 5f 58 be b9 19 a5 3e
       -0.0036107681 0.14194421 -0.21130139 0.32246187
000240 6e 21 0b be 9d 57 b6 be 07 e9 06 3d a5 16 08 3e
       -0.13586971 -0.3561372 0.032937076 0.13289888
000250 36 bb 83 be e9 5d a0 3e f2 5a e2 be f0 ea cd be
       -0.25728768 0.31321648 -0.4421001 -0.40218306
000260 2d 0f 19 3e c8 96 a0 be 3c 2f b9 be e8 28 8e bd
       0.14947195 -0.31365037 -0.3616885 -0.06941396
000270 b6 77 82 3e 25 28 78 be f9 8f 91 3e c3 06 b1 bd
       0.25481957 -0.24234064 0.28430155 -0.08643868
000280 4e aa b5 be aa 74 4c 3e a2 91 26 be 8d b9 c3 bc
       -0.35481495 0.19966379 -0.16266492 -0.023892188
000290 59 00 6f be 72 e4 3e bd 21 99 81 3e e3 4a a2 3d
       -0.23339976 -0.04660458 0.2531214 0.0792444
0002a0 8b f1 45 be 36 a8 49 be 5c 75 c9 3e d8 b7 f4 bc
       -0.19330423 -0.19693074 0.3934735 -0.02987282
0002b0 f6 22 bc be 6b 13 93 3c 05 3b 6c 3e 2f 4f 58 be
       -0.36745423 0.017953595 0.23069389 -0.21123956
0002c0 eb 30 40 3e 47 8f 37 3d 09 30 27 be 27 48 91 be
       0.1876866 0.044814374 -0.16326918 -0.2837536
0002d0 ff fb b0 3d a9 b1 55 be 63 dc 12 bc 91 ca 4c bd
       0.086418144 -0.20868553 -0.008963677 -0.04999787
0002e0 81 d2 91 be 01 6b 55 3e 43 49 12 be 63 3e 2d 3e
       -0.28480914 0.208416 -0.1428576 0.1691833
0002f0 99 a4 fd 3d f1 54 2a be 6d 4e 73 be 9e fb 64 be
       0.1238491 -0.16633965 -0.23760386 -0.2236161

bias f4 [192]
000000 fe 7a c2 bd 1a 8c 25 bd 2f c0 66 3c 1f 51 c8 bc
       -0.09496115 -0.040416814 0.014083906 -0.024452744
000010 84 42 2c bd 10 ed 51 bd 52 25 1e 3d c9 16 a7 bc
       -0.04205562 -0.05125147 0.03860981 -0.020396607
000020 83 04 cd bd 31 47 a3 3c 6f 32 28 bd 66 8b 0a bd
       -0.10010626 0.019931408 -0.041063722 -0.033824347
000030 64 b7 eb 3b 25 66 15 3c 76 ef 1f 3d cb 2e 89 bc
       0.0071934927 0.009118591 0.039046727 -0.016745945
000040 87 c8 11 bd 10 a7 bf 3c 7a a3 56 bd a5 43 0d bd
       -0.03559163 0.023395091 -0.052401997 -0.03448834
000050 d1 79 66 bc dc dd 38 bd 2f e2 13 3e 3a d3 48 bd
       -0.014067129 -0.045133457 0.14441751 -0.049029566
000060 a7 9a 4d bc 71 3e a1 3d 93 c4 d1 bd ea 94 82 bc
       -0.012549079 0.07873238 -0.10242572 -0.015940148
000070 74 73 1f bd 0c 27 5a bd 23 f1 34 3d f9 72 56 3c
       -0.038928464 -0.053259894 0.04417528 0.013088935
000080 f2 cf eb 3d 83 0a ab bb b7 5a c0 bd a8 1c 17 3d
       0.11514272 -0.005219759 -0.093923025 0.036892563
000090 3f 59 67 3d 3d b4 19 3d c6 c2 a6 bd 1c 9f 52 3d
       0.056481596 0.037525404 -0.08142619 0.05142127
0000a0 f4 61 b2 3c 3e 8c 53 bd c7 7d b0 bd b4 67 9d 3d
       0.021775223 -0.051647417 -0.0861774 0.076857954
0000b0 3f 56 b2 bc 85 56 90 bd 8b 67 c8 bc 7e db 21 3e
       -0.021769641 -0.07047752 -0.024463436 0.15806386
0000c0 65 93 30 bb 4e 36 cd 3d 40 a9 8a bd 2c f7 90 3e
       -0.0026943323 0.100201234 -0.06770563 0.28313577
0000d0 49 5e a4 bb c2 b7 6c 3c 5d c2 bd bd ba 9d c0 bd
       -0.0050161225 0.014448108 -0.092655875 -0.09405084
0000e0 b1 81 4f 3d ac ca 3b ba 5e d8 b2 bd af 8f e8 3d
       0.050660793 -0.00071636843 -0.08732675 0.113555305
0000f0 2d bd 83 3c cb 87 b7 bd ef 6c 16 be 06 ad 2a 3e
       0.016081417 -0.08961447 -0.14689992 0.16667566
000100 44 6a a8 3d e4 1a 16 be b5 e3 c3 bb c6 2b aa bc
       0.082233936 -0.14658695 -0.0059780725 -0.020772826
000110 5d 64 09 bd c6 d2 c4 3c 8e 68 60 3d 55 0a bb 3c
       -0.03354298 0.024026286 0.05478721 0.022832075
000120 55 52 6c bc 1d 27 13 3c 37 6d 66 bc f8 ee bd 39
       -0.014423926 0.008981493 -0.014064125 0.00036226935
000130 e6 c3 36 bc 0c 5e 8f bd 61 65 d5 bc df 22 b5 3c
       -0.011155104 -0.0700036 -0.026049318 0.022111354
000140 ce 8c ba 3b 87 fc c2 3c ec 9e 7a 3c 5b 29 04 bc
       0.0056930548 0.023802055 0.015296679 -0.008066501
000150 63 bf ec 3c b3 42 92 bd 80 90 09 3d c4 54 ac bd
       0.028899854 -0.07141628 0.03358507 -0.08414605
000160 76 a1 0f bc bf 1e 0c 3d df a2 80 bd 87 70 c6 bd
       -0.008766523 0.03420901 -0.06281065 -0.09689432
000170 d4 0b 40 bd db 2b 38 bd 7d 6f 5e 3c 99 85 54 3a
       -0.04688628 -0.0449637 0.013576386 0.0008107066
000180 28 d5 37 3d b5 16 87 bc 80 5f e0 bd f9 d1 aa bc
       0.044881016 -0.01649032 -0.10955715 -0.020852076
000190 11 45 17 bd 67 fe 61 3e e2 b4 e1 bd c6 1a 0f bd
       -0.0369311 0.22069703 -0.11020829 -0.034937643
0001a0 af c4 96 3d cf 78 82 bc 23 74 7e 3b 24 08 8c 3d
       0.07361733 -0.015926747 0.0038826547 0.0683749
0001b0 5f e3 6d 3e 2a 82 11 bd 93 a5 3e 3d 16 41 90 bd
       0.23231266 -0.035524525 0.046544623 -0.07043664
0001c0 73 4b cf bd fa 9c 5a 3d d1 b2 c5 bd 53 27 a0 3d
       -0.10121813 0.05337236 -0.09653247 0.078200005
0001d0 27 98 24 3e c1 77 83 bd 4c 77 c9 bd e4 4d ce ba
       0.16073667 -0.064193256 -0.09837207 -0.0015739766
0001e0 a9 22 24 bd 12 68 c7 3c 20 f9 48 3d ba 7a 1a be
       -0.040072117 0.024341617 0.04906571 -0.15085879
0001f0 89 d4 ab bd 41 3c 93 3c ff 0c ee 3d 09 05 62 bd
       -0.08390147 0.017973067 0.116235726 -0.055180583
000200 49 2f e8 bd 1f 40 d3 bc 73 48 1e 3e f6 31 40 be
       -0.11337144 -0.025787411 0.15457325 -0.18769059
000210 76 9b 5d 3c e7 63 2f be b7 ee b7 3c 8a 30 08 be
       0.013525834 -0.17127953 0.022452695 -0.13299766
000220 11 43 24 3d a4 6e 17 be 50 39 28 3c 8a 74 b4 3d
       0.040103022 -0.147883 0.010267571 0.088112906
000230 ba 54 7a 3c dc db f2 3b 86 f9 d1 bc cb df 98 bd
       0.015278989 0.007411463 -0.025631677 -0.0746456
000240 79 f3 98 3c fa 8b 48 3e df 46 df 3b c1 f6 39 3d
       0.018670784 0.19584647 0.0068138684 0.04540134
000250 cf d2 28 bc 84 8a fe b9 24 31 43 bc 5f 46 a1 bc
       -0.010304167 -0.00048549857 -0.0119135715 -0.019686876
000260 1c 20 e3 3a ef 24 da 3b 68 9e 3e 3e 41 bb 5a bd
       0.0017328295 0.006657235 0.18615115 -0.053401235
000270 36 ac d9 3c d8 50 f1 bd 22 f3 b7 3c 1a bc 83 3d
       0.026571374 -0.11782998 0.022454802 0.06432362
000280 81 0c a9 bc 63 12 c0 bd dc fe 00 bd 18 d7 6d bd
       -0.020635845 -0.09378507 -0.031493053 -0.058066458
000290 72 33 f2 3d b5 ec 45 3d b6 0a 73 be 8e f9 d9 3c
       0.11826219 0.048321445 -0.23734555 0.026608255
0002a0 ad 31 6c 3d 08 f6 08 3d b2 b2 cc bd 5e 17 37 bc
       0.057664562 0.03343776 -0.09995021 -0.011175005
0002b0 30 25 81 bc e8 8e 00 bd 3f 78 62 be dd 0c 0e 3d
       -0.015764803 -0.031386286 -0.22116183 0.034680236
0002c0 a3 03 5c ba 5e 03 2d 3d 27 02 da 3b cc b9 45 bd
       -0.0008392876 0.04223954 0.0066530886 -0.048272893
0002d0 2b 69 30 3c 0c e2 ac bc c4 ac 0d be 04 98 47 bd
       0.0107672615 -0.021103881 -0.13835436 -0.048728958
0002e0 f6 1f d7 bc f9 b0 ad bc 40 28 91 3c e2 15 81 3d
       -0.026260357 -0.021202551 0.017719388 0.06303002
0002f0 c4 4b 95 bd b3 6b d9 3d 05 c1 67 be 28 63 95 3d
       -0.07289842 0.10616245 -0.22632225 0.07294303

weight f4 [192, 6]
000000 e4 e9 71 3e 11 51 05 bf 59 33 12 3f 2a f0 b3 3d
       0.23624378 -0.5207682 0.571096 0.08786042
000010 87 d7 f4 3d 32 a5 3c bd 97 ec dd 3e 68 d5 aa be
       0.11955171 -0.04605598 0.43344566 -0.3336594
000020 f1 7c 0a 3f 74 f7 22 be d2 34 d1 3d db 9d d7 bc
       0.54096895 -0.15914708 0.10215153 -0.026320389
000030 35 12 24 3f ce 98 9d be 30 6a 03 3f 84 d1 1e be
       0.6409028 -0.30780643 0.51333904 -0.15509611
000040 c6 8c de bd 87 d1 93 bd cb dc 11 3f cf 03 aa be
       -0.10866694 -0.072176985 0.5697753 -0.3320603
000050 6e 02 bc 3e ae dd be 3d e7 22 82 3d b0 c7 b6 3d
       0.36720604 0.09319626 0.06354313 0.08924806
000060 2f 1b bc 3e 8a a5 6f be a0 12 27 3e 42 63 53 3d
       0.3673949 -0.23402992 0.16315699 0.05160833
000070 65 c0 ae 3b 1a 06 73 bc cf 90 c7 be 51 f7 1a 3e
       0.005332994 -0.014832998 -0.38977668 0.15133406
000080 f3 75 23 bf 91 e4 f9 b9 95 a3 10 3e 2a 3e 85 bd
       -0.6385185 -0.00047663276 0.14124902 -0.065059975
000090 db e0 88 be 82 b4 fa 3d d6 80 33 be 16 1f 1c be
       -0.2673405 0.122414604 -0.17529616 -0.15246233
0000a0 5c be 88 3d 3f 1b 19 be 76 19 dc 3e 35 0a 93 be
       0.06676933 -0.149518 0.42988175 -0.28718725
0000b0 bc dd f3 bd ce e3 5d bc 69 22 9b bd 2e 87 b5 3d
       -0.11907527 -0.013543082 -0.075749226 0.08863674
0000c0 7a 55 7e 3e 45 b0 de be 44 bf 0b 3f c8 68 af 3d
       0.24837294 -0.43493858 0.54588723 0.08564907
0000d0 e6 36 bd 3d 19 cb 80 bd 60 0c c4 be 8b a0 8c 3e
       0.09238987 -0.06288738 -0.3829069 0.27466235
0000e0 f4 55 01 bd 2c 53 d4 3d 52 7a 00 3e 97 d9 0a 3e
       -0.031576112 0.10367426 0.12546661 0.13559566
0000f0 9f 34 de 3e f9 5f 88 be b9 3a 5d 3e dd 6f 2b be
       0.43399522 -0.2663572 0.21604432 -0.16741891
000100 de 8e b2 3d 5d bd 2d 3c bb 04 9d 3e b7 f3 78 be
       0.08718656 0.01060423 0.30667672 -0.2431172
000110 68 06 0f 3d d2 92 c5 3d 8b ce 88 bd 32 8f 45 3b
       0.03491822 0.096471444 -0.0668002 0.0030145166
000120 c8 99 0c bf 9c 79 d1 3d a5 ea c9 be 6b 8e 1f 3e
       -0.5492215 0.10228273 -0.39436832 0.15581672
000130 cd 2c cd bc 23 c7 09 3d 09 45 73 be b6 29 b4 3e
       -0.025045777 0.033637177 -0.23756804 0.35188073
000140 28 85 ed be 7a a4 35 3e e9 59 1d be 8c e8 38 bd
       -0.46390653 0.17738524 -0.15366329 -0.04514365
000150 55 0f dc 3e 62 c1 a8 be d3 38 31 3e cc 89 e3 bd
       0.42980447 -0.3296004 0.17306833 -0.11110267
000160 bd 3f a2 bd 81 7a 6e 3d 24 1f ac 3d d1 47 a4 be
       -0.07922313 0.058222298 0.08404377 -0.32086042
000170 2f 41 c1 3e b7 86 2f 3e 0a d6 f4 bd 5d 62 91 bd
       0.37745044 0.17141233 -0.11954887 -0.070988394
000180 51 7a da 3e 0b 97 d5 be be d7 7a 3d 0b d0 0d 3e
       0.42671445 -0.417168 0.061240904 0.13848893
000190 4c e9 1a 3d 07 02 be bc 55 e1 19 bf c4 7d ca 3e
       0.037820145 -0.023194326 -0.60109454 0.39549077
0001a0 f1 06 df be 27 27 04 be 11 18 bb bd eb 18 00 3e
       -0.43559983 -0.1290556 -0.0913545 0.12509505
0001b0 ac d0 ca 3e b2 b7 b0 be e8 f1 a9 3e db 38 f0 3b
       0.3961233 -0.34515148 0.33192372 0.0073309965
0001c0 08 bf 34 bd 78 2d 36 3d a9 53 03 3f 29 73 31 be
       -0.044127494 0.044476956 0.5129953 -0.17329086
0001d0 41 2c b8 3d a1 4c 08 be a8 ef 2e 3e 29 cb 0b be
       0.08992816 -0.13310482 0.17083609 -0.13651718
0001e0 5e c0 c9 be ea 89 81 3e 23 82 dd bd 4b 95 cb 3d
       -0.39404577 0.25300533 -0.10815837 0.09940585
0001f0 da fe d8 3d 0c be b2 3d c2 c8 03 3f ab dc d7 be
       0.10595484 0.08727655 0.5147821 -0.42160544
000200 7c 8f 19 3f 41 14 03 3e d8 82 ee 3d ee c7 12 be
       0.59984565 0.12800695 0.1164605 -0.1433408
000210 ad cc 43 3e d1 18 00 3e d0 6e 0f bf b0 25 64 bd
       0.19121046 0.12509467 -0.5602846 -0.055700004
000220 c9 a2 81 3d 9f ed ba bd f1 5e f7 3e 89 d4 18 bd
       0.06329877 -0.09127354 0.48314622 -0.037312064
000230 0b c0 c9 3d 17 5d ae 3d 56 ff 7d 3d 43 26 3d 3d
       0.098510824 0.08513849 0.062011085 0.046179067
000240 d4 28 e9 3e 79 91 95 be df ff 63 3e da 70 89 3d
       0.45538962 -0.2921255 0.22265576 0.06710978
000250 2f da ec bd 71 e2 76 3d 08 95 16 be ff 8f 69 3e
       -0.11565053 0.060274545 -0.14705288 0.22808836
000260 da 11 6e be 95 63 8b 3d 5d 3c 9d bd 8d 5c a4 bd
       -0.23248997 0.06806103 -0.07677529 -0.08025465
000270 be 6d e4 be 69 29 a1 3d 5c bb fd bd 97 32 0c bd
       -0.44614977 0.078692265 -0.123892516 -0.034227934
000280 7c da 2d bd 1c 0e ef bc 27 b6 0e 3f 71 f7 16 be
       -0.04244469 -0.029181533 0.5574669 -0.14742829
000290 f4 8f cd 3e 03 7f 84 bd 76 70 11 be c9 e8 89 3c
       0.4014889 -0.06469538 -0.14203057 0.016834633
0002a0 32 62 5d 3e 1a 28 31 be ed c0 b1 bc 88 09 81 3d
       0.2161949 -0.17300454 -0.02169844 0.06300646
0002b0 35 21 aa 3d a1 73 b7 3d c8 47 9c 3e 55 64 5d be
       0.08307115 0.08957601 0.30523515 -0.21620305
0002c0 f3 10 f1 3e ec 80 4a bc 3e 6e 47 3d 9c 14 b7 3d
       0.47083244 -0.012359839 0.04868912 0.08939478
0002d0 b9 6b a3 be 3e 54 cd 3e 39 9e e1 bd 0d 8d ea bd
       -0.31918123 0.40103334 -0.11016507 -0.114526846
0002e0 71 e2 e6 bd 3b 47 1f 3e fe 95 14 bf 5e 9a 69 3e
       -0.11273659 0.15554516 -0.5804137 0.22812793
0002f0 13 e8 48 be e8 b1 3e 3d c6 74 c2 bd b8 6e ce 3d
       -0.1961978 0.046556383 -0.09494929 0.10079712
000300 48 db a4 bd 31 44 80 bc b7 54 9b be f8 c3 0f 3d
       -0.08049637 -0.015657516 -0.3033807 0.035099
000310 e2 ed 95 bd ae 4a 31 3d 72 f3 e6 3d 91 44 9e bc
       -0.07320763 0.04328411 0.11276902 -0.019319804
000320 b8 4a 50 3e 70 ca 45 bd b1 72 14 bc 54 1f 0d be
       0.20341003 -0.048288763 -0.009060548 -0.13781482
000330 02 25 90 3d 6c 32 54 be 97 e6 61 3d 2b 13 7c 3d
       0.07038309 -0.2072236 0.05515155 0.061541717
000340 80 7f 77 bd 6b da 82 3d 08 de 50 bd ea 5d 52 3e
       -0.060424328 0.06389316 -0.050992996 0.20543638
000350 a3 8e 46 3e 5f 33 21 be 4d 17 9d 3d ba 30 4c bd
       0.19390349 -0.15742253 0.0767046 -0.049851157
000360 c3 c3 f3 bc c5 18 bb be 5e 87 93 3e 53 12 14 3c
       -0.029756432 -0.36542335 0.28814214 0.009037572
000370 a7 b7 58 3d c7 fd 98 bd bf f6 9d 3c 92 ba df 3d
       0.05290952 -0.07470279 0.019282697 0.10924257
000380 01 61 96 3d 75 e9 7e bd 20 7d 88 bd 90 3e dd bd
       0.07342721 -0.06223436 -0.06664491 -0.108029485
000390 4e b9 3a be 4d 4c c4 3d 17 b9 05 bd bb 3a b1 3d
       -0.1823475 0.09584866 -0.03264722 0.0865378
0003a0 25 7f 47 bd 22 b5 a5 bd 18 c9 08 be e9 3a 0c bb
       -0.04870524 -0.08091189 -0.13357961 -0.0021397418
0003b0 3d a4 dd 3d 3d 35 0e be 47 21 83 bd e5 66 03 3d
       0.108223416 -0.13887496 -0.064028315 0.03208055
0003c0 d9 db 9e 3d 06 3e b4 3c 26 db df bd f2 45 db bc
       0.07756776 0.022002231 -0.10930471 -0.026766751
0003d0 5e 65 b5 3d 5d 63 fb 3d da cb 0a 3c 7d db 52 bd
       0.08857225 0.122748114 0.008471454 -0.05147885
0003e0 5d ac 50 3e fb 13 22 3e 73 c3 d2 bd 85 b5 32 3d
       0.20378251 0.15827934 -0.10291185 0.04363014
0003f0 d8 cd 47 3d e0 9c 6f be e8 af a7 3d 1a 0c 04 3e
       0.048780292 -0.23399687 0.08187848 0.12895241

weight f4 [32, 192]
000000 96 04 9c bc c6 c1 fa 3c fa 9b 14 bc 95 b1 0a 3d
       -0.019045155 0.030609977 -0.009070391 0.03386076
000010 27 ce 93 bd b5 c0 4f bc 48 4e 78 bb e5 82 6d bd
       -0.07217055 -0.012680222 -0.0037888456 -0.05798616
000020 ea 60 37 bd 5a 07 51 bb 73 ee 64 3c 62 fb 34 3d
       -0.04477016 -0.003189525 0.013972866 0.04418505
000030 93 f6 9b 3d 8c bf 8b 3c 39 05 83 bc ec 5e 35 bd
       0.0761539 0.01705911 -0.015993701 -0.044279978
000040 9c 99 0c bd bf f7 0f 3d 1a 53 ca bd 60 97 83 3d
       -0.03432618 0.03514838 -0.098791316 0.06425357
000050 3b 86 11 bd ab 21 98 3c 53 59 b2 3d c4 6a a5 bb
       -0.035528403 0.018570742 0.087084435 -0.005048128
000060 ee eb 12 3c 29 73 e4 3c 03 98 1e bd 69 1a 96 bc
       0.008967383 0.027886944 -0.03871919 -0.01832314
000070 29 72 8b bd ea 90 25 3d 2c 61 54 3d 4a c2 8f 3d
       -0.06808884 0.040421404 0.051850483 0.070194796
000080 f9 87 45 bd 72 fe 82 bc 5a 16 58 bd 84 e4 85 3c
       -0.048225377 -0.01599047 -0.05275569 0.016344316
000090 ee ea d5 bc d5 b0 68 bd b4 ba 52 bd 25 a9 c7 3b
       -0.026113 -0.056809265 -0.051447585 0.0060931616
0000a0 b8 db dd 3c fd 38 35 bd 1b 1f 60 bd a5 5a b5 bc
       0.02708231 -0.0442438 -0.054717164 -0.02213795
0000b0 2a f3 4c 3d 7d ed 27 bd 32 26 30 3d 5b 0e 78 bc
       0.050036587 -0.04099797 0.043005176 -0.015140141
0000c0 d5 99 14 bd a5 1b 6c bc 76 9e 98 3d 0e cb d0 bb
       -0.03627952 -0.014410888 0.07452099 -0.0063718623
0000d0 83 ac 0d bb 47 07 96 3b cc dd b1 bc 4d fe a7 3b
       -0.0021617718 0.0045785042 -0.021712206 0.0051267506
0000e0 e7 f5 ba bd 07 61 ba 3d 80 16 3d 3d 93 7a bd bc
       -0.091289334 0.09100538 0.046164036 -0.023129737
0000f0 b6 bc e4 bb 33 4b 2d 3d bb 99 a5 bd a6 cb 71 3c
       -0.006980504 0.042308044 -0.080859624 0.014758026
000100 ec fd f1 3d de 79 3d bc 8a 4b 9b 3d 4f 38 5d bd
       0.1181601 -0.0115647 0.07582767 -0.05400878
000110 a0 ec b7 bd c8 48 50 bd 78 a4 b5 bd d1 00 6e 3d
       -0.089806795 -0.05085066 -0.088692605 0.058106247
000120 e4 4e 1d 3d 6b d2 e0 3a 48 76 d1 3d 65 a7 97 3c
       0.038405314 0.0017152553 0.102276385 0.018512437
000130 ad ca 72 bd ac 06 6e 3b bb 0a 4f bd 54 69 64 bb
       -0.059275318 0.0036319895 -0.050547343 -0.003485282
000140 2e d1 0d be 65 60 b8 3d a2 7c 89 bd 81 55 18 3e
       -0.13849327 0.09002761 -0.06713225 0.14876367
000150 16 7a 5e 3e 02 06 a1 bd dd d3 03 bd b8 b5 04 3e
       0.2172626 -0.07862474 -0.03218447 0.12959945
000160 97 eb 80 3a 30 36 85 bb 5c 05 13 3d 6e ed 15 3e
       0.0009835836 -0.0040652975 0.035893783 0.14641353
000170 ca 29 84 3c 2f e1 a0 3d 87 2a 1c 3b 44 81 aa 3d
       0.016133208 0.0785545 0.002382906 0.08325437
000180 b0 98 71 3d 38 89 60 bd 68 1e 5c bd 6a e7 1a 3b
       0.058983505 -0.054818362 -0.053739935 0.0023636469
000190 7a de dc bc 0d c8 c3 bc d7 02 55 bd ad 80 61 3d
       -0.026961554 -0.023899103 -0.05200466 0.055054355
0001a0 af 9d 5e 3d 44 e5 27 bd 24 75 27 bd 34 36 07 3d
       0.054349598 -0.04099013 -0.0408832 0.033010677
0001b0 5e 90 9a 3c 2e 45 c7 bb 77 b0 d7 bb 47 32 a2 bd
       0.018867668 -0.006081245 -0.0065823155 -0.07919746
0001c0 db 09 12 bc c8 6f d3 bc c4 95 83 3d af e8 45 3c
       -0.008913483 -0.025810137 0.0642505 0.012079402
0001d0 7b 29 f8 3c 4a b8 c1 3b e8 18 bc 3b 38 4a 41 3d
       0.030293217 0.0059118615 0.0057402737 0.04718992
0001e0 6e 51 e8 bc 2c 75 3e 3d dc a1 f1 3c 09 4e 37 3d
       -0.028359141 0.046498463 0.029496126 0.044752154
0001f0 2b 03 cf bc ad 35 95 bc 84 64 bb 3b 2c 09 94 bc
       -0.025270065 -0.018214071 0.0057187695 -0.01807078
000200 51 b1 25 bc 3b 46 eb bb 4d 76 9b bc 87 de ae 3c
       -0.010113076 -0.007180003 -0.018977309 0.021346344
000210 e2 9d c5 3c 12 c9 cc bd ae a1 60 3d 4f 62 29 bd
       0.024123136 -0.099992886 0.05484169 -0.04135352
000220 6b 4d 36 bd dc 91 ae bb 54 8e 24 bd aa 2d 8a 3c
       -0.044507425 -0.0053274464 -0.040174797 0.016867477
000230 47 9e 01 bd 3e f4 4f bd 0b f1 7a 3d 24 5a 17 bc
       -0.031645086 -0.050770037 0.061265033 -0.0092378
000240 b2 49 58 bd 35 75 c1 3c eb 51 d3 3c 9b 4b 46 bd
       -0.052804656 0.023615459 0.025795897 -0.048411947
000250 be b4 3c 3d e9 3e 95 3d 81 4c 93 bd c3 a4 c0 bc
       0.046070807 0.0728739 -0.07192326 -0.023516065
000260 69 8e 08 bd a3 1b 56 3d 5d 07 a2 3a a5 f4 54 3d
       -0.033338938 0.05227245 0.0012361814 0.051991124
000270 dd 3c 15 3d 56 44 50 bd af 32 87 bd 65 99 39 bd
       0.036434997 -0.05084642 -0.06601464 -0.045312304
000280 61 24 78 bd ef 4d 11 bd 8d 59 40 bd 69 23 87 bd
       -0.06058157 -0.035474714 -0.046960402 -0.06598551
000290 0a 14 45 3c 97 47 f0 3c a5 50 97 bc ff 72 91 3b
       0.0120287035 0.029331012 -0.018471071 0.0044387574
0002a0 c8 57 b6 3c 71 2f 41 bd 05 14 7e 3d aa be b0 bb
       0.022258654 -0.047164384 0.06203081 -0.0053938227
0002b0 2b d0 38 bc 25 90 79 bc 2f 89 85 3d 05 b0 c6 bc
       -0.0112801 -0.015232121 0.06520306 -0.024253855
0002c0 27 c7 cf 3c 1b 17 d1 3d ce 40 d4 bc f6 f8 08 bd
       0.025363518 0.10209485 -0.025909808 -0.033440553
0002d0 ec a6 16 3c 24 3c d4 3b 98 41 7f 3c db dc 0b 39
       0.009195071 0.006476896 0.015579604 0.00013338348
0002e0 f8 1e 8d bc 50 26 89 bd 09 a2 df 3d 05 0a 83 3d
       -0.017226681 -0.06696761 0.10919578 0.063983954
0002f0 b1 12 27 bb 0f 5a 6c 3c d7 9a 99 bc 57 96 cd bc
       -0.0025493319 0.0144257685 -0.018750591 -0.025096102
000300 4d 3c b6 3c 1e c0 a5 bd 50 e0 9f bd 38 92 ad bd
       0.02224555 -0.08093284 -0.07806456 -0.08475155
000310 d9 d3 c6 bd 95 34 e3 3c 58 0d de 3c 96 6a 3a 39
       -0.097083755 0.027735034 0.027105972 0.00017778049
000320 38 f9 8d bd 49 fd 8b 3d 48 89 ed 3c 12 6d 36 bc
       -0.069323 0.0683542 0.028996125 -0.011134403
000330 c2 e7 c1 bc 5c 38 87 3d 1d a5 1f bd 3d b0 90 bc
       -0.023670081 0.066025466 -0.038975824 -0.017662162
000340 0b c0 d3 bb c6 dc bb 3d d2 ea 60 be 37 7a fb bc
       -0.0064621023 0.091729686 -0.21964577 -0.030697925
000350 2e 42 14 3d 79 68 83 bc 98 5c 1d bd f8 11 14 bd
       0.036195926 -0.016041027 -0.038418382 -0.03614995
000360 59 c4 cb bd 31 fb 77 3d c7 de af 3d db 0a b1 bd
       -0.0994956 0.06054229 0.08587413 -0.08644649
000370 aa d1 c8 3b 5a 6d 0f 3d c1 dc 5d 3c 24 aa 16 3d
       0.0061285095 0.035016395 0.013541401 0.036783352
000380 80 a8 27 bd 2e 47 27 3d 04 27 47 3d 5d 91 05 bd
       -0.04093218 0.040839367 0.048621193 -0.032609332
000390 54 ae b6 3d 55 67 83 bb 80 69 19 bd 1e 68 6e 3d
       0.08919969 -0.004010121 -0.03745413 0.058204763
0003a0 6b 3c 64 bd db 26 44 3d b2 b7 1d 3d 64 c7 25 bd
       -0.05572168 0.047888618 0.038505264 -0.040473357
0003b0 69 d6 04 3d 89 fe 4d 3d fc c8 5b 3d 8f 68 86 bd
       0.03243104 0.05029157 0.05365847 -0.06562912
0003c0 66 34 9c bc e5 70 eb 3b 99 85 b7 3d 0c f1 9e bc
       -0.019067954 0.007185089 0.089610286 -0.01940205
0003d0 33 81 84 bd 8a 3a 16 3d a2 85 c2 bc e4 0c 84 bd
       -0.06469955 0.03667692 -0.023745362 -0.06447771
0003e0 62 c0 ae bc e0 b4 77 3d 17 0b 2c 3d 2f 34 85 3c
       -0.02133197 0.06047523 0.042002764 0.016260235
0003f0 5e dd 3b 3c 9b 90 fb 3c 02 0e 2d 3c 09 3f 82 3b
       0.011466352 0.030708602 0.010562422 0.0039747995

bias f4 [32]
000000 a6 dd a7 3d 96 78 e0 3b 38 95 03 be 71 0e 09 be
       0.08196573 0.0068503125 -0.12849891 -0.13384415
000010 27 43 ba bb 2d 31 5e bd b2 72 ae bd 4d a1 dc bd
       -0.0056842747 -0.054246116 -0.0851797 -0.10772953
000020 25 00 2c bd 0e 5a 40 bd 79 d2 99 bd 69 39 7a be
       -0.041992325 -0.046960883 -0.075108476 -0.24435963
000030 69 01 23 3e db 68 7c bd b3 e0 84 3d 15 86 2c bd
       0.15918507 -0.061623435 0.064881705 -0.042120058
000040 7a fd 27 be 85 7b ab 3d 24 57 95 bd 2a 8f 71 bd
       -0.16405287 0.08373169 -0.072920114 -0.058974423
000050 04 3a 06 bd 93 0f b3 bd 93 c8 be bd c5 9e c9 3d
       -0.03277017 -0.08743205 -0.093156 0.09844736
000060 ab 05 7e 3d e9 d8 a9 bd 52 e6 15 be fe 88 e8 3d
       0.062017124 -0.082933255 -0.14638641 0.11354254
000070 0e 4d 1b 3d 51 a5 a0 3d 08 c3 79 3c ba e1 5e be
       0.037915282 0.078440316 0.015244253 -0.21765795

att_src f4 [1, 1, 16]
000000 1b ac 78 3e 2d 6c 8a be 77 01 da be f1 37 14 3f
       0.24284403 -0.27035657 -0.42579243 0.5789786
000010 ab 11 2c 3e 85 1e 09 3f 12 b7 18 3f 5f 6d d7 3e
       0.16803615 0.53562194 0.59654343 0.4207563
000020 b2 b0 0a bf b0 d3 9a 3d d0 9e 5c 3d 6b 4f 1d bf
       -0.54175866 0.075599074 0.053862393 -0.6144931
000030 42 59 31 bf 9d d6 55 3e 77 13 18 3f 45 ea 32 3f
       -0.6927682 0.2088265 0.594047 0.69888717

att_dst f4 [1, 1, 16]
000000 b3 8c a4 be ea 87 0d bf dd 48 0e bf 4d f6 4d 3c
       -0.32138595 -0.55285513 -0.5557993 0.01257093
000010 d3 7e c8 be 59 d1 0d 3f dc a3 b2 be e1 c2 81 3e
       -0.3915926 0.55397564 -0.3489064 0.25343993
000020 ef 07 06 bf a7 60 60 bf a3 03 8d be 50 ad a3 bd
       -0.52355856 -0.8764748 -0.27541837 -0.07992041
000030 f2 d5 21 3f fd 1d e5 be 2b a8 46 be 74 ad 98 ba
       0.6321708 -0.44749442 -0.19400088 -0.0011648373

bias f4 [16]
000000 06 56 95 3d 74 69 3d be 54 31 99 3b 29 1a 73 bd
       0.07291798 -0.18497258 0.00467507 -0.05935112
000010 eb 81 df 3c b0 a4 ac bd aa a7 37 be c0 10 be 3d
       0.02728363 -0.08429849 -0.17935053 0.092805386
000020 8b a1 14 3c ac f4 c0 3d a9 6b ad 3d bc 59 75 bd
       0.009071718 0.094216675 0.084678 -0.05990003
000030 17 97 28 bc eb 1a f3 bc 22 bc 1d 3d 18 3f 38 3c
       -0.010289929 -0.029675921 0.038509496 0.0112455115

weight f4 [16, 32]
000000 80 88 4f 3e c7 d3 66 3e ca 25 d0 3d f8 80 8b 3e
       0.20266914 0.22541724 0.10163458 0.27246833
000010 b9 29 43 3e 46 d5 5b be e5 86 b1 be 64 31 6c be
       0.19058885 -0.21468076 -0.3467323 -0.23065716
000020 26 2c 3a 3e 97 22 1d be d8 ac 74 be 34 2e 40 be
       0.18180904 -0.15345226 -0.2389406 -0.18767625
000030 f4 fa 1a bd fd 28 57 3e 3d 1b 03 3e 03 07 a1 be
       -0.037836984 0.2101173 0.1280336 -0.31450662
000040 0d 59 3e be 42 10 97 3e 33 b4 43 3e 38 52 46 be
       -0.18588658 0.2950459 0.1911171 -0.19367301
000050 d6 3a 8b 3e 8f 53 0e bd 52 fa 65 be c3 ad a1 3e
       0.27193326 -0.034747656 -0.22458771 0.31577882
000060 4d dd c6 bc 39 62 5e be 7f 67 a4 be e5 8b 6c 3d
       -0.024275446 -0.21717156 -0.3211021 0.0577506
000070 d8 ba 9f 3e 64 c0 b7 3e af c9 ba bd e1 c5 d8 3d
       0.31197238 0.3588897 -0.09120499 0.105846174
000080 0f 3f 09 be 7e 0b 88 be f0 23 05 be 78 84 3a 3e
       -0.13402961 -0.26571268 -0.1300199 0.18214595
000090 44 b3 97 3d 37 f2 82 3e f2 77 21 be 4b f1 96 3e
       0.07407239 0.2557542 -0.15768412 0.29480967
0000a0 45 69 8f be 9a 19 29 3d b1 5b 7a 3c 2c 85 03 3d
       -0.28010002 0.04128418 0.01528065 0.032109424
0000b0 24 05 2b bc b0 d8 8d 3e 37 0f 71 be 3b be 19 be
       -0.010438237 0.27704382 -0.2354096 -0.15013973
0000c0 0b d7 21 bd 89 92 65 3e e0 f5 17 3e 94 7e 04 3e
       -0.03951172 0.2241918 0.14839888 0.1293891
0000d0 64 be 5b bd 21 58 a0 3d 00 7a 7c bd eb 74 d6 bb
       -0.053648368 0.07829309 -0.061639786 -0.0065446994
0000e0 c7 db 2c 3e b8 a8 83 3d c8 e4 92 be fe 8f f6 3d
       0.16880713 0.06428665 -0.2869017 0.12039183
0000f0 1a c1 84 3e c3 c6 b0 3c 25 2a 8f 3e 26 fc 92 3e
       0.25928575 0.021579152 0.2796184 0.28708
000100 6e 50 32 3d 4b e9 98 3e 43 03 97 be 9b a7 7a be
       0.043533735 0.29865488 -0.29494676 -0.24477999
000110 0d 4b 82 bd 3b 05 47 3e ca 59 72 3e 9a 8e b4 3e
       -0.06361971 0.19435589 0.23667064 0.35265046
000120 b1 bf 08 be bc 93 62 bd 1f 2a 11 3e c2 bd 7e be
       -0.13354374 -0.05531667 0.14176224 -0.24877074
000130 13 c8 35 be e4 e3 00 3e b9 b9 9f 3e 2a 87 6a 3e
       -0.17752104 0.12586933 0.31196383 0.22903123
000140 10 b0 5f 3e e0 e6 a5 be a8 65 78 3e 9f e9 aa bc
       0.21844506 -0.32402706 0.24257529 -0.020863352
000150 f2 92 a0 be bb ac 6f bd 57 d6 35 3e a4 28 ba bd
       -0.3136211 -0.058514338 0.17757545 -0.09089783
000160 84 52 a0 be 05 54 29 3e ca f7 1a 3c 41 63 32 be
       -0.31312954 0.16535957 0.009458492 -0.17420675
000170 e5 93 24 3e e8 d2 f5 bb 89 74 c6 3e 2e fc a3 3c
       0.16072042 -0.0075019486 0.38760784 0.02001771
000180 89 64 a0 be d1 52 4e be 5f f5 12 3e 6d 07 93 3e
       -0.31326702 -0.2014878 0.14351414 0.28716603
000190 ef 99 f8 3d a5 85 3c 3e b3 4b 92 3e 11 d7 1d 3d
       0.121387355 0.18410356 0.2857338 0.03853518
0001a0 76 77 22 be 54 0f 93 be 34 d2 b6 3e dd 46 d3 bd
       -0.15865883 -0.28722632 0.35707247 -0.103162505
0001b0 2c 39 4e 3e 3a 48 ea bc e2 43 12 bc 0c 4d a7 3e
       0.20138997 -0.028598893 -0.008927317 0.3267597
0001c0 c2 db 87 3e b5 1d 9b 3d 66 8c 16 be 84 72 7b be
       0.2653485 0.075740255 -0.14701995 -0.24555403
0001d0 28 c1 2d be d2 11 86 3e 65 39 22 3e 6e bd 77 3e
       -0.16968215 0.2618547 0.15842207 0.24193355
0001e0 25 bb b9 3d ef aa 07 be a1 6d 90 3c 43 14 05 3e
       0.09068898 -0.132488 0.0176304 0.1299601
0001f0 13 69 82 3b ba e3 ff ba f2 01 20 be f7 a4 4b 3e
       0.003979811 -0.0019522824 -0.15625742 0.19887148
000200 95 66 76 bd 04 88 64 be 2b 77 7c bd 72 b9 f2 3d
       -0.060156424 -0.22317511 -0.061637085 0.11851777
000210 02 39 b5 be bb ca 8e 3e 6f 99 bf be f3 d7 9f 3e
       -0.35395056 0.27889046 -0.37421748 0.31219444
000220 cb a2 d5 bd 45 40 0a be 10 f8 9f be c9 e1 f8 bd
       -0.10431441 -0.1350108 -0.31243944 -0.1215244
000230 06 31 8d 3e a1 9e b7 be a7 39 af 3e fd cb 8f bd
       0.27576464 -0.35863212 0.34223673 -0.070213296
000240 d5 44 8c be 6d 02 d0 bc 15 9e 28 be a4 17 d0 bd
       -0.27396265 -0.025391782 -0.16466554 -0.10160759
000250 40 f0 9a 3e e4 43 85 be 98 4f b4 bd 82 3f 90 be
       0.3026142 -0.2602836 -0.08804244 -0.28173453
000260 01 af 81 be dd 47 5e 3e 0b d9 57 be 14 b0 18 3e
       -0.2532883 0.21707101 -0.21078889 0.14910918
000270 da b5 44 bc 6f 7e 6c be 84 d5 8c be 5c 04 3e bd
       -0.012006247 -0.23095106 -0.2750665 -0.046390876
000280 82 2a ce 3c d2 c1 a6 3e 6e 42 7d be eb 34 92 3e
       0.025166754 0.32569748 -0.24732372 0.28555998
000290 5c ee 91 be 5b da be 3e 6e 50 8d 3e 49 34 98 be
       -0.28502166 0.37275967 0.27600425 -0.2972739
0002a0 98 0c e8 3d 98 e6 3b 3e 93 cc 9d 3e 6c b1 58 3e
       0.11330527 0.18349683 0.3082014 0.21161431
0002b0 16 01 9a 3e 1c 32 22 3e 4b ed ba 3c da d9 45 bd
       0.30078954 0.15839428 0.022818228 -0.048303463
0002c0 a5 82 94 3d 58 92 07 be 49 93 b0 3e ae 7e b8 be
       0.07251481 -0.1323942 0.3448737 -0.3603415
0002d0 63 d0 53 3e 9b 86 a0 bd 93 78 98 be 27 13 00 3e
       0.20684962 -0.07838174 -0.2977949 0.12507306
0002e0 c3 80 fe 3b 91 68 7b 3e a3 0b d2 3d f1 32 8c 3e
       0.0077668144 0.24551608 0.10256126 0.27382615
0002f0 2a f4 89 3e 61 d9 8a 3e 5d 79 4e bb d2 ed 3d be
       0.26944095 0.27118972 -0.0031505444 -0.18547752
000300 b8 af 84 be 3d 81 8e 3e db dd 54 3e 59 33 b0 3e
       -0.25915313 0.27832976 0.20787756 0.34414175
000310 87 0f 81 be 7a 20 44 3e 0e a7 84 be e1 00 80 be
       -0.2520716 0.19153014 -0.25908703 -0.2500067
000320 0f b5 92 3e 76 28 28 3d 87 75 7b 3e a0 6e 0d 3e
       0.28653762 0.04105421 0.24556552 0.13811731
000330 f1 25 21 be dc 32 9c 3e 7c 93 3a bb c1 25 71 bd
       -0.1573713 0.30507553 -0.0028469255 -0.058873896
000340 73 45 49 bc 34 ce 76 be 5a 99 8d 3e d6 e9 2b 3e
       -0.012284624 -0.24102098 0.2765606 0.1678842
000350 aa 32 c8 bd 27 2d 3a 3d 72 1c fc bc 9b 52 b3 3d
       -0.097752884 0.045453217 -0.030775283 0.0875599
000360 f3 ea 96 be cd d1 34 bc 98 30 6a 3c 60 26 8e 3c
       -0.29476127 -0.0110363485 0.014293812 0.017352283
000370 3b cf 01 be 86 5b 08 3e 62 04 56 be c5 ab 99 bd
       -0.12676708 0.13316163 -0.2090011 -0.075034656
000380 e6 17 9e 3e d4 d6 80 3e d5 d1 79 3e 31 1d be bd
       0.30877608 0.251639 0.24396451 -0.092829116
000390 b9 89 a4 3e 66 34 9b 3c 12 45 88 be 2c c3 8d be
       0.32136324 0.018945884 -0.26615196 -0.27687967
0003a0 26 f7 9f 3e 08 e5 a9 3e fa 21 a4 be b9 6c 93 3e
       0.31243247 0.3318255 -0.32057172 0.28793886
0003b0 24 5f 3f be e3 14 dd 3d ee 33 95 3d 3e 5b 22 be
       -0.18688637 0.107949995 0.072852954 -0.15855119
0003c0 57 70 f4 bd 8f af 87 3e 85 49 90 be 87 ba 8a 3e
       -0.119354896 0.26501128 -0.2818109 0.27095434
0003d0 4d 7f 5c be e1 b9 3f 3e 29 cf 83 be 58 b8 cf 3e
       -0.21532936 0.18723251 -0.25743988 0.4057033
0003e0 bd 25 c8 3d 7f ea e0 bc da 30 3b be 23 3f 93 be
       0.09772823 -0.027455566 -0.18280354 -0.28759107
0003f0 9c a2 75 be cf a4 06 3e 26 da 4c 3e 37 c6 7b be
       -0.23987812 0.13148807 0.20005092 -0.24587332

weight f4 [128, 144]
000000 46 56 c4 3c eb b7 3b 3a 50 67 af 3d b2 28 ec bd
       0.02396692 0.000716089 0.08564627 -0.115311995
000010 bc 6a a5 bd d1 4b d0 3c 81 31 f7 3c c6 b5 ae bd
       -0.080769986 0.025426777 0.030174972 -0.08530764
000020 0f bd 4d bd cb e9 92 3d af 63 35 bc ab 44 46 3d
       -0.05022913 0.07173499 -0.01107113 0.04840533
000030 55 19 71 3d 3c f5 ba bd e6 14 ab bd a5 37 42 bd
       0.05886205 -0.09128806 -0.083535954 -0.047416348
000040 81 c5 77 bd 56 4b 6a 3d b9 5d 8b 3d ae 90 72 bd
       -0.06049109 0.057200752 0.068049856 -0.05922001
000050 d9 c1 06 3d 38 d9 b9 bd fc 8c b8 3d b7 16 d7 3c
       0.03289971 -0.09074634 0.09011266 0.026255948
000060 45 31 43 bc eb 50 d5 bd f9 e7 3b 3c 98 c4 9e 3d
       -0.011913602 -0.104158245 0.011468881 0.07752341
000070 ba ca 1e bc bd 61 84 3d fb 1a 9b 3d e5 c4 6b 3c
       -0.0096918885 0.064639546 0.075735055 0.014390205
000080 d3 58 de 3c dc c8 bb 3d dd cd 1c 3d a6 c8 82 bc
       0.027141964 0.0916917 0.038282264 -0.015964817
000090 5f 3a 7a bc a9 bd 35 bd cf 49 ac 3d e2 fa d4 bd
       -0.015272706 -0.044370327 0.08412515 -0.103994146
0000a0 52 16 60 3c 0d 39 6c bd d2 5e 10 be 07 a0 e6 3d
       0.013677197 -0.057671595 -0.14098671 0.112609915
0000b0 d9 95 d9 3c 13 e5 04 3d 57 aa 88 bd 9d c0 d0 bc
       0.02656071 0.032445025 -0.06673115 -0.02548247
0000c0 3c 7a 0f bd e2 ad ae 3d 7b 9b 5d 3d fc c0 0b bd
       -0.03502868 0.08529259 0.054103356 -0.03411959
0000d0 4a 0b 65 bc 94 d9 27 bb 4c a3 98 3d cf b7 03 3d
       -0.013979742 -0.0025611864 0.074530214 0.032157715
0000e0 6f e7 b9 3d 5b 71 95 bd 35 0d ea bd 44 82 31 3d
       0.090773456 -0.072970115 -0.114283 0.04333712
0000f0 91 3f 42 bc a1 b4 78 3c ed c9 39 bd 85 51 b1 bd
       -0.011855976 0.015179784 -0.045358587 -0.08658127
000100 b6 63 4d bc 25 60 83 3d bc 07 3c 3c fa 1d 25 3d
       -0.01253598 0.064148225 0.011476453 0.04031179
000110 f0 0a 1c 3d ae ad 11 bd 8e 75 0a 3e bd 31 92 bd
       0.03809637 -0.035566024 0.13521406 -0.07138393
000120 a2 b0 d7 3c b0 b6 c2 bd dc d5 55 bc 25 81 7d 3d
       0.026329342 -0.09507501 -0.013051476 0.06189074
000130 a3 fc 85 3d 97 bc 9d bc 48 60 4a bd 6e a0 4a bd
       0.06542327 -0.019254966 -0.049408227 -0.049469404
000140 4e f4 1b bd e1 13 ad 3d c8 1d 06 bc af 4a 68 3b
       -0.038074784 0.08451057 -0.008185811 0.0035444906
000150 66 2a 92 bc 13 ac b6 bd 23 18 01 3b 31 74 bc bd
       -0.017842483 -0.08919539 0.0019698224 -0.09201849
000160 0e e5 cb 3d 04 3d 26 bd b7 80 83 ba 13 10 c3 3d
       0.09955798 -0.040585533 -0.0010032867 0.0952455
000170 68 18 13 3d d5 1d 09 3e ef 49 af 3d 09 d6 88 bd
       0.035911947 0.13390286 0.085590236 -0.06681449
000180 aa ab 95 bd 6c 95 49 3d da ca c4 bc 89 11 94 bd
       -0.07308133 0.049214765 -0.024022508 -0.07229907
000190 ff 9c 79 3c 35 9e 3b 3c c1 b9 7f bc 93 f8 8e bd
       0.015235185 0.011451294 -0.015608252 -0.069810055
0001a0 c4 db fb 3c ec 33 fc bd 9d 0f 5a 3c a5 4c 54 3c
       0.03074444 -0.12314591 0.013309387 0.012957727
0001b0 49 e5 96 3d ec 9d a8 3c 39 64 7a 3d 33 84 c3 3c
       0.073679514 0.020583116 0.061130736 0.023866748
0001c0 9a 7c 0c 3c 88 ae 05 3e 65 a5 8c 3d 95 60 1c 3d
       0.008574629 0.1305486 0.06867484 0.038178045
0001d0 27 b1 39 bd 53 b8 d7 bd 1c c9 b7 bc 6d 94 a9 bd
       -0.04533496 -0.10533204 -0.022434764 -0.08280263
0001e0 21 a7 a5 3d 3e 39 ea bd 00 19 71 bd 76 99 3c bc
       0.08088518 -0.11436699 -0.058861732 -0.011511197
0001f0 c0 69 4a 3d fa 73 88 3d 66 b8 2c 3d dd e4 70 bd
       0.049417257 0.06662746 0.042168044 -0.05881201
000200 c1 0f df 3c 26 23 06 3e 0c 90 c9 3d e3 5b 85 bd
       0.027229192 0.13099346 0.09841928 -0.065116666
000210 c7 9b fd bb 8c f9 8c bd 8a ef 16 3c ea 61 0f bd
       -0.0077395174 -0.06883535 0.009212384 -0.035005488
000220 6c ff 2c 3d a4 a3 24 bd ec 16 3c bd d8 cc 39 bc
       0.042235777 -0.040195122 -0.045920298 -0.011340342
000230 7b 2d c1 3d 24 2c 1e 3d e2 b7 fc 3c 37 9f 1c 3c
       0.09432503 0.038616315 0.0308494 0.009559444
000240 56 6a 6a bd 18 35 51 3d 25 0a 42 3d d0 df 6a be
       -0.057230316 0.051076025 0.047372956 -0.2293694
000250 9d 8b 94 bd 1e 43 c7 bd 3d da d6 bc 90 f4 d2 bd
       -0.072531916 -0.097295985 -0.026227111 -0.10300553
000260 71 ac 6d bd 98 bf 49 3d 0d bb 07 bc bb ca 1b 3d
       -0.05802578 0.049254984 -0.0082843425 0.038035136
000270 82 b4 40 3e e9 53 e7 3b 83 c1 9b bc 35 4d f5 bc
       0.18818858 0.0070595634 -0.019013172 -0.029944042
000280 1c 9b 95 bc e1 2a 64 bc 25 94 60 bc dc e8 8c 3b
       -0.018262438 -0.013926239 -0.013707195 0.00430022
000290 2b 53 57 bd 74 79 dd bd 14 18 7f bd 1c b4 34 3d
       -0.05256955 -0.10814181 -0.062278822 0.04411708
0002a0 6e d1 d0 bc 2a 94 b5 3d 38 73 27 3c c1 d5 84 3c
       -0.025490489 0.08866151 0.010220341 0.016215207
0002b0 67 a5 0a 3c 9f d2 e2 3d 53 d8 25 bd 87 65 98 bc
       0.008462287 0.11075329 -0.040489506 -0.0186031
0002c0 a3 75 09 3b 25 f0 31 bd a5 7a 98 bc c9 5b cf bd
       0.0020974658 -0.04344191 -0.018613169 -0.101249285
0002d0 dc b3 f1 3c 9f df a2 bd 9b 57 5c bd 56 c0 4c bd
       0.029504709 -0.079528086 -0.053794485 -0.049988113
0002e0 57 8b 76 bc 27 7c 20 3d ec 93 cc 3c 5e f1 a8 bb
       -0.01504787 0.0391809 0.024972878 -0.0051557263
0002f0 1d f2 93 3d b7 a1 b1 3d 91 b9 c6 3d b1 58 03 bc
       0.07223914 0.08673423 0.09703363 -0.008016751
000300 0c 1c 24 3c 7c ec 12 bd 57 d4 f0 bd 6f 14 8f bd
       0.0100164525 -0.03587006 -0.117592506 -0.06986319
000310 a3 3e 7c 3c ae 97 e0 bc 12 a6 7d 3b 31 71 87 bd
       0.015395793 -0.027416077 0.0038703722 -0.066133864
000320 0f ef df bc 09 07 88 3d 88 71 37 3d d5 75 9a 3d
       -0.027335672 0.06641967 0.044786006 0.07542006
000330 66 ea 21 3d b2 7a 0c 3e a2 cc 3a bd 99 91 1e 3d
       0.03953018 0.1371868 -0.04560531 0.03871307
000340 87 73 d5 bd c2 91 a7 3c db 00 5c 3c 6a 60 cd bd
       -0.10422426 0.020455245 0.013427938 -0.10028155
000350 9e 78 22 3d 77 0b b5 bd ac 34 0f bd 6f 68 35 bd
       0.03966581 -0.08840077 -0.03496234 -0.04428905
000360 f5 59 b3 bc 70 01 27 3d 04 af 8f 3d 65 99 be 3d
       -0.02189348 0.040772855 0.070158035 0.093066014
000370 22 de 04 3d c8 87 24 3d 37 b8 6e bd 56 8e 6e 3d
       0.032438405 0.040168554 -0.05828115 0.05824121
000380 05 35 8e bd 96 25 45 bd 1d 26 80 bd 7a 83 d0 bc
       -0.069437064 -0.048131548 -0.062572695 -0.025453318
000390 28 d0 2a bb 28 c3 2a bd b9 00 5e 3d 1f ec 84 bd
       -0.0026064012 -0.04169002 0.054199908 -0.06490349
0003a0 4a cd 6e 3d 24 4d 1d 3d 35 68 1c bd 5f fd 0e bd
       0.058301248 0.038403645 -0.038185317 -0.034909602
0003b0 9e 66 46 bc bb 69 c8 3d b3 48 24 3d 35 04 38 bd
       -0.012109427 0.097857915 0.040108394 -0.044925887
0003c0 8e 32 e2 3b a2 1b ef 3c 26 83 b6 bd 43 27 f2 bd
       0.0069029992 0.029187981 -0.08911733 -0.11823895
0003d0 ea 24 5a bd f5 7a 63 3d ec 21 92 3d a5 fe bb bd
       -0.05325786 0.055537183 0.07135376 -0.09179429
0003e0 0c e8 b2 bd 4e da 3b 3d e8 c4 3f 3d e4 4f ed 3c
       -0.08735666 0.04586249 0.046818644 0.028968759
0003f0 c8 a3 21 3d 2b ef ba bc 6d 0a 69 bc f2 d4 49 bd
       0.039462835 -0.022819122 -0.014223677 -0.049275346

bias f4 [128]
000000 60 f5 2e be ba 5f 13 3d af 8a 2b 3d 67 db c9 3d
       -0.1708579 0.035979964 0.041880306 0.09856301
000010 92 4f 43 bc 01 bd e5 3d d0 8d 47 3d 9d ce e8 bc
       -0.0119208265 0.1121769 0.048719227 -0.028418833
000020 7a 89 18 3d 96 85 c2 3c 0f 09 14 3a d8 b7 66 be
       0.037240483 0.02374534 0.0005647102 -0.22531068
000030 be 83 d2 3c b2 32 6f be bf fd 8d 3c a5 f6 d0 3c
       0.025697585 -0.23359182 0.01733291 0.025508234
000040 59 6c 89 3c f4 ff 40 be 4e 97 82 be 12 bb 7b 3d
       0.016775297 -0.18847638 -0.2550606 0.0614577
000050 e5 7c 62 be 6b 38 7a 3c bc 4c 41 3e 97 2a fb 3c
       -0.22117956 0.01527224 0.18876928 0.030659957
000060 92 9f cb bd eb 6e ba 3d 74 0d 9a bd 57 2f 84 bd
       -0.09942545 0.09103187 -0.07522097 -0.06454342
000070 23 2d a6 3d 35 cd d0 39 2a 6a b0 3c 22 78 32 be
       0.08114078 0.00039825743 0.021534998 -0.1742864
000080 4a 59 d6 39 e3 50 96 bb 78 91 98 3d 85 1b 62 bd
       0.00040883786 -0.004587279 0.07449621 -0.055202026
000090 e1 ad c6 3c f9 51 d4 3c a1 a8 80 bd e2 87 b6 3c
       0.024252834 0.025917994 -0.062821634 0.02228159
0000a0 b9 70 01 bd 5e 9b f6 bd 30 be c2 3d f4 64 15 3d
       -0.03160164 -0.12041353 0.09508932 0.03647323
0000b0 43 20 f2 bd 3e d6 6c 3d b2 96 c8 3c be c7 00 3e
       -0.1182256 0.057821505 0.02448592 0.12576196
0000c0 d5 40 50 3b 55 d3 30 bc 46 9a d9 bd f3 e2 a8 bd
       0.0031776924 -0.010792573 -0.106251284 -0.08246412
0000d0 f0 9e 1e bd c8 b4 1b 3d a3 4e 24 3d d1 df 20 bd
       -0.038725793 0.038014203 0.040114056 -0.039275948
0000e0 32 dc 33 3e 3c b2 b7 3d 9a ae 4d be 50 28 95 bc
       0.17564467 0.089695424 -0.20086136 -0.018207699
0000f0 19 5b 27 3e 11 00 de 3d 41 6f 39 b8 7f 9a 8e bd
       0.16343345 0.108398564 -4.421105e-05 -0.069630615
000100 c6 3c 0a 3c 14 5c c4 3c 93 4a ce bb 33 4d a9 bc
       0.008437341 0.023969688 -0.006295511 -0.020666694
000110 44 b5 96 bc 39 a5 81 3a 1d 18 01 3d 79 5d 10 3e
       -0.018396981 0.0009891159 0.031517137 0.14098157
000120 92 e0 08 bd eb f0 be 3d f5 eb 4f 3d 93 e5 1c 3c
       -0.033417292 0.09323295 0.050762136 0.009576219
000130 7a ad cf 3d 6b ce 46 3d 61 a6 3f be b1 97 ca 3c
       0.1014051 0.0485367 -0.18715812 0.024730535
000140 10 0a ac 3d 61 a1 7b bd 58 d4 79 3d 4d f0 9b bc
       0.08400357 -0.0614332 0.060993522 -0.019035483
000150 54 f3 21 be 4c 26 6c 3d 94 d6 e0 bd 84 90 cf 3c
       -0.15815479 0.05765371 -0.109784275 0.025337465
000160 e3 9f 60 bd 1f c3 b6 3c 54 e9 af bd 85 b3 56 bc
       -0.05483998 0.022309838 -0.08589426 -0.013104324
000170 9c 02 22 3e 25 24 e2 3c 97 1f a3 3d 53 b8 3f bd
       0.15821308 0.027605126 0.0796501 -0.046806645
000180 87 5e df 3d 75 7d 5d be cd a5 19 be 79 d0 7b bd
       0.109067015 -0.2162989 -0.15004654 -0.061478112
000190 7f b2 f2 bb 77 84 5f 3d ab 2d e4 bd d4 82 89 be
       -0.0074065323 0.054569688 -0.11141523 -0.26857626
0001a0 68 d7 77 3c 98 0a b3 bd 46 75 9e bc e2 c8 f5 3d
       0.01512704 -0.08742255 -0.01934303 0.12001206
0001b0 7b b3 01 bc 97 9b 98 3d 09 6e 85 bc 0d d6 17 bd
       -0.007916327 0.074515514 -0.01628782 -0.03706937
0001c0 e8 cd 4a bd 4f 74 01 3c 19 a8 f0 3c a9 66 75 be
       -0.049512774 0.007901265 0.02937703 -0.23964943
0001d0 94 d2 ad bd 1f 93 bd 3d f2 c2 40 3e 96 4f 9d 3d
       -0.0848743 0.09256577 0.18824366 0.076811954
0001e0 d1 b5 00 bd 11 7c e7 bb 39 b4 bc 3d f2 8c bb 3d
       -0.031423394 -0.0070643504 0.09214062 0.091577426
0001f0 4b ef 8a 3d a1 dd 7d 3d 02 3e ce 3d a9 02 e9 bd
       0.06783923 0.06197894 0.10070421 -0.113774605
